kgraph_models/model_node_8000_0.49578955411000464.pt (torch, 728580 bytes, 7 tensors)

usr.weight f4 [1872, 16]
000000 b5 fe 4c bd c7 8b 83 3f db e2 86 be a6 ee bf 3b
       -0.050047595 1.0277032 -0.26344952 0.0058573065
000010 5e fa da 3d 84 2c c9 3d 3c 32 75 3d 29 a1 ae 3e
       0.10692285 0.09822944 0.05986236 0.3410733
000020 80 88 7b 3e 5c a9 fd 3c 63 6e cd bd 5d c0 92 3e
       0.2456379 0.030964546 -0.1003082 0.28662387
000030 ab 01 35 3d 55 bc 00 3f 9f a3 f3 3d 73 a9 13 be
       0.044191044 0.5028737 0.118964426 -0.14420108
000040 cd 3b 06 3b f8 77 4e 3c 68 34 e5 bc e1 ad 9a 3b
       0.0020482421 0.012601845 -0.02797909 0.004720435
000050 e7 06 53 bc 2e 4b b7 3b 37 d2 81 3d 62 86 c7 be
       -0.012880064 0.005593679 0.063389234 -0.38969713
000060 e3 5e 87 3c ad 6f 9c bc 3e b5 01 3d f7 f9 a2 bc
       0.016524738 -0.01909622 0.031666987 -0.019894583
000070 fd e2 42 bd 6b b5 6d 3e bd d9 06 bc 42 e9 50 be
       -0.047579754 0.23213737 -0.008230624 -0.20401481
000080 c5 47 b6 bd 2f bb 01 3e 39 c3 00 bf f5 f7 bf bb
       -0.08900408 0.12669061 -0.50297886 -0.005858416
000090 ef 72 a5 3c 22 78 28 bd 59 0a 73 3c 5d f7 3d bb
       0.020196406 -0.041130193 0.01483401 -0.0028986551
0000a0 33 63 0f 3e 45 5f d6 3d de 19 4d bd fd d9 45 3e
       0.14002685 0.1046739 -0.050073497 0.19321437
0000b0 13 e4 60 3e 48 7b 86 be d9 76 2a be 67 6b 82 bb
       0.21962003 -0.2626593 -0.166469 -0.0039800885
0000c0 b5 7a 97 bc d8 c5 55 be de 8b ed bd f0 51 b1 bc
       -0.018491128 -0.20876253 -0.11598943 -0.021645516
0000d0 df ac 40 bb e3 79 9c bd ab 60 29 be b7 ab 94 bc
       -0.0029399914 -0.076404355 -0.16540782 -0.018148286
0000e0 0d 90 fe be e3 2b f4 be 88 e0 09 3d 52 89 a0 3c
       -0.49719277 -0.47689733 0.033661395 0.01959673
0000f0 d9 06 e8 bd 5e b3 07 3e a1 4b a5 3e 62 90 0b 3e
       -0.11329431 0.13252017 0.32284263 0.13629296
000100 5c 70 f3 3e ae 34 95 be 21 ae ba 3d 19 49 0e bf
       0.4754666 -0.29141754 0.09115244 -0.5558029
000110 e6 be c8 bd af 43 33 bf e1 cf 48 3f 6a 09 01 3c
       -0.09802036 -0.7002515 0.784422 0.00787578
000120 cb e9 3c be 06 95 05 bf 6a cc 84 3d 02 03 22 3f
       -0.1844856 -0.52180517 0.064843014 0.6328584
000130 5b 51 b1 3e df aa 19 be 63 b0 3f bc f7 77 b6 3d
       0.34632382 -0.15006588 -0.011699769 0.089096
000140 7c 00 89 be ea bc 07 3e 4d 36 8f be 28 ec 85 bd
       -0.26758182 0.13255659 -0.27971116 -0.06539184
000150 c9 d7 a7 3d 69 45 a2 bd a4 5b 23 3f 14 51 5f bd
       0.081954546 -0.07923395 0.6381171 -0.05452068
000160 4d 29 b0 3c 8f c7 5c bc e4 ff bb 3e 4a eb a4 3d
       0.021504069 -0.013475313 0.36718667 0.0805269
000170 9d b4 17 be 91 d9 d0 bd b6 0b 96 bd af f1 6d be
       -0.14814992 -0.101977475 -0.073264524 -0.23236726
000180 72 f4 50 bf b9 5a 0e bf 8e 45 74 3e 22 50 ba 3e
       -0.81622994 -0.5560718 0.23854658 0.3638926
000190 fb a3 c3 3e 95 8b 5b 3e a2 42 f0 bd 1d 6a cd 3d
       0.38211045 0.21439965 -0.11731459 0.10030005
0001a0 02 cc 41 3e 1d b7 ed 3e 02 0e da bd 5d 19 e4 3e
       0.18925479 0.46428767 -0.10647203 0.445506
0001b0 a9 53 b5 3d ba 71 b7 bd 13 ac b5 3e c2 a7 01 3e
       0.088538475 -0.089572385 0.35482845 0.12661651
0001c0 5c 1a 6c 3d 95 02 7e 3d 94 21 01 3e d7 de b4 bb
       0.057642326 0.06201418 0.12610465 -0.0055197286
0001d0 84 c5 c0 be b8 85 54 3d c3 9c 3d 3e 62 9a 12 be
       -0.37650692 0.051885337 0.18516831 -0.14316705
0001e0 08 40 12 bc 8f 7d 3c 3d dd f0 b0 3d be 93 55 bc
       -0.008926399 0.04601818 0.08639691 -0.013035713
0001f0 8d 92 3c bd e9 c3 2e 3d ac 24 9f be e8 7a f3 3c
       -0.0460382 0.042667303 -0.31082666 0.029721692
000200 d5 11 3b 3d 07 77 b9 3d 0e 4d d9 3d 02 ea 17 bd
       0.045671303 0.09055906 0.106104 -0.0370884
000210 1c d9 fe 3d 1e 05 8b ba 7b f7 99 3e d1 98 02 3d
       0.12443754 -0.0010606383 0.30071625 0.03188402
000220 f0 e1 5a 3e 97 7b b7 3e 71 fd 37 3d 4d 4a 01 be
       0.21375251 0.3583648 0.044919435 -0.12626
000230 02 c5 29 3e a9 df f9 bd 0d 1e 9c 3e e1 a7 bd 3d
       0.16579059 -0.12200863 0.30491677 0.09260536
000240 a7 3e 2b be 8d ee de bd e0 ad 13 bd 13 41 3e be
       -0.16723119 -0.10885344 -0.036054492 -0.18579511
000250 ec fb a4 3e 12 15 1a be 26 35 a2 be 66 c6 db 3b
       0.3222345 -0.150471 -0.31681174 0.0067070005
000260 36 28 49 3d 0c 5d 9b be 2c 32 a5 3e 5a 13 1c 3f
       0.049110614 -0.30344427 0.3226484 0.6096703
000270 24 cc c4 ba 5c c6 54 3e ee 0a 88 bd c4 13 d7 bc
       -0.0015014452 0.20778793 -0.0664271 -0.026254542
000280 18 79 80 3e ee fe 8f 3d 36 45 c1 3d ff 26 33 bf
       0.25092387 0.07031046 0.09437029 -0.6998138
000290 c5 b0 c2 3d ca 29 f6 3c a6 54 2b be c1 84 19 3f
       0.09506372 0.030049223 -0.1673151 0.5996819
0002a0 0d b9 b1 3d 3e ce 05 3d a5 b9 0d bd da b6 cb 3c
       0.08677874 0.03266739 -0.034600873 0.024867464
0002b0 89 ca d3 3c 64 7b 88 3d e9 a3 12 3d e9 a6 9b bd
       0.025853412 0.0666416 0.03580085 -0.07600195
0002c0 05 8f 11 3d 1f 88 c4 3e 50 8a 24 be 4f 03 42 be
       0.035536785 0.38385102 -0.16068387 -0.18946575
0002d0 33 db eb 3e cb 14 bf 3d 8b 73 ac be 62 a9 6f 3e
       0.46065673 0.09330138 -0.33681902 0.23404458
0002e0 c5 ad ac 3d a3 41 d9 be 9b 05 9c 3d 33 ef 00 bd
       0.084315814 -0.4243289 0.07618257 -0.03147812
0002f0 1c d3 a2 bd 55 07 c3 3e 2b 1e 19 bf 28 6f bf 3d
       -0.07950422 0.3809153 -0.5981166 0.09347373
000300 6e 6d 55 bd c3 d9 2a bc 86 45 69 bd 93 a7 80 3e
       -0.052106313 -0.010427895 -0.05695107 0.2512785
000310 cd 85 d7 be 31 17 67 be b4 c5 d6 bc a9 24 a6 3c
       -0.4209427 -0.2256744 -0.02621732 0.020281153
000320 89 58 57 3e a4 ae 6c 3e 25 02 67 be f0 b0 5b be
       0.21029867 0.23113495 -0.22559412 -0.21454215
000330 6a 43 10 bb 49 c3 e7 bd da c1 5e 3e 3f 25 f9 bb
       -0.0022012838 -0.113165446 0.21753636 -0.007603317
000340 81 4d 18 3e aa fc f8 bc 8e 65 14 3f 9d cb 4b bd
       0.14873315 -0.030393917 0.5796746 -0.049754728
000350 cf 61 8d bd 1b 92 88 3e 0f 96 a0 3c 66 d9 0a be
       -0.06903421 0.2667397 0.019602804 -0.13559493
000360 a2 7e 9f be 13 26 8e 3d 73 bd 28 3d 7b 36 47 3f
       -0.311513 0.06940856 0.041196298 0.77817506
000370 2c e4 27 bf 9e 50 27 be c0 aa 28 be 97 c1 10 3f
       -0.6558254 -0.16339347 -0.16471386 0.56545395
000380 1c f9 c8 3e 1e d6 66 3b 72 03 21 3d 13 41 8d 3c
       0.39252555 0.0035222839 0.039309926 0.017242944
000390 dd 22 04 3e 6c 12 55 bd d0 fc 04 be a0 ec 83 bf
       0.12903924 -0.05201952 -0.12987065 -1.0306587
0003a0 7b e8 43 bf fb 9b e7 3d ee e9 0f bf 38 05 85 bd
       -0.7652661 0.11309048 -0.56216323 -0.06495136
0003b0 c2 d1 26 bd ab 45 7e 3b d2 c6 ea 3d 76 a1 88 be
       -0.040727384 0.003879885 0.11463703 -0.26685685
0003c0 89 42 61 b9 64 a0 6e bd df b0 7b bc 02 62 eb bc
       -0.00021482458 -0.05825843 -0.015361994 -0.028733257
0003d0 a5 c1 e3 bc 29 82 39 3d 42 b1 61 bc c6 fb 33 bc
       -0.027802298 0.045290146 -0.013775172 -0.01098532
0003e0 25 35 b4 ba e1 8c ba 3c 4d 88 78 3c 22 ad e6 3c
       -0.0013748748 0.022772254 0.015169215 0.028158728
0003f0 e1 d2 74 3d db 4d 37 3d e1 1d d3 3d bf a2 31 bf
       0.059771422 0.044751983 0.10308433 -0.69388956

ent.weight f4 [9367, 16]
000000 00 00 00 00 00 00 00 00 00 00 00 00 00 00 00 00
       0.0 0.0 0.0 0.0
000010 00 00 00 00 00 00 00 00 00 00 00 00 00 00 00 00
       0.0 0.0 0.0 0.0
000020 00 00 00 00 00 00 00 00 00 00 00 00 00 00 00 00
       0.0 0.0 0.0 0.0
000030 00 00 00 00 00 00 00 00 00 00 00 00 00 00 00 00
       0.0 0.0 0.0 0.0
000040 29 dc 98 38 68 8e 98 b6 59 fa 12 b7 1f 52 45 36
       7.288933e-05 -4.5465313e-06 -8.760567e-06 2.9403088e-06
000050 fa 6f 4d b8 89 8a f5 37 c6 15 81 34 96 ad 0d 38
       -4.8980095e-05 2.9270786e-05 2.4043965e-07 3.3778684e-05
000060 56 1b 11 3c 13 93 28 34 f8 bb 91 33 92 f2 e7 b8
       0.008856615 1.5699725e-07 6.78628e-08 -0.000110601206
000070 ee 31 19 37 e8 d9 64 b7 d1 00 c4 3c 32 32 ce b3
       9.131136e-06 -1.3640594e-05 0.02392617 -9.601753e-08
000080 12 04 30 b9 ac 90 1b b8 df 26 58 33 16 ac f1 b7
       -0.00016786184 -3.7089616e-05 5.0326772e-08 -2.8809573e-05
000090 14 41 65 3b 5b 4f e7 b6 57 dc 5e bd 54 89 8e 3c
       0.0034981417 -6.8935747e-06 -0.05440935 0.017399468
0000a0 62 83 18 b8 b7 80 ca 3c 64 57 c6 b5 85 b9 c9 3d
       -3.6361984e-05 0.02471958 -1.4777584e-06 0.09849838
0000b0 0c ef eb 38 85 1a 73 37 52 8d 26 37 e7 c6 81 3c
       0.00011250199 1.4490103e-05 9.927275e-06 0.015841914
0000c0 93 fe 33 bf d0 ee c6 b3 d9 4b bf 39 09 18 9d bb
       -0.70310324 -9.263533e-08 0.0003648687 -0.004794125
0000d0 68 3d 73 37 3b 1b fa b9 7c d9 35 be 5d b7 23 37
       1.4498226e-05 -0.00047704004 -0.17758745 9.75825e-06
0000e0 97 a1 ba b5 26 45 80 bb b9 5e 82 bb 1c 60 6d bc
       -1.3905109e-06 -0.003914493 -0.003978577 -0.014488246
0000f0 61 20 f0 b6 df b6 24 b6 80 0e 1c 38 ba 03 1b b9
       -7.156327e-06 -2.454435e-06 3.7206803e-05 -0.0001478334
000100 70 8f 6b 3a e3 73 8b b9 fc 4d 42 3d 87 8b 83 38
       0.00089859124 -0.00026598488 0.047437653 6.272556e-05
000110 3f 85 01 ba 97 23 57 3c 5e a4 88 3d 77 69 78 3f
       -0.00049408147 0.013131044 0.066719756 0.97035927
000120 87 ab 2d b9 b3 d0 59 3d 45 74 d9 38 6c 77 11 39
       -0.00016562465 0.053177547 0.00010369023 0.00013872766
000130 f0 3a 09 bb d1 1e 80 ba a9 77 a0 b9 8c 2d 39 b7
       -0.002093967 -0.0009774809 -0.00030606732 -1.1037464e-05
000140 01 8d e1 3a 75 2e 01 38 34 14 c1 38 15 01 ab b6
       0.001720816 3.0799263e-05 9.20672e-05 -5.096323e-06
000150 7b 0c 35 b7 ed 8c ae bd 89 96 c8 bb bd 81 42 b9
       -1.07913465e-05 -0.08522973 -0.006121461 -0.00018549613
000160 2d bf c9 bb 38 00 71 b8 ac f8 bf b9 ea 51 df bd
       -0.006156823 -5.745908e-05 -0.00036615634 -0.10904296
000170 f4 4e a6 b9 8c 0b 9a 3e 5c 7a b1 ba c2 fa 5c 3d
       -0.00031720812 0.30086935 -0.0013540494 0.05395008
000180 9b fa 4d bc 15 3b b2 3f a8 56 35 be 1c d2 c1 36
       -0.012571956 1.392428 -0.17708838 5.776308e-06
000190 c1 84 0c 3d f1 e3 76 bc 91 4a 26 bc 74 fe 0e 3b
       0.03430629 -0.015068994 -0.010149614 0.0021819146
0001a0 f2 22 5c be 2c c7 83 be a6 d6 b4 bd d0 c3 54 3d
       -0.21497706 -0.25737894 -0.088300034 0.051944554
0001b0 55 ef 2b be 0a 19 43 38 92 ef 4a 3e 30 77 19 be
       -0.16790517 4.6514942e-05 0.19817951 -0.14986873
0001c0 52 83 4d 3b 18 c7 48 39 27 72 13 3d eb f6 ac 3e
       0.003135879 0.00019147655 0.035997536 0.33782133
0001d0 84 09 72 3d f0 96 09 bd d9 e1 05 bf a5 88 22 bb
       0.059091106 -0.03359121 -0.5229774 -0.0024800685
0001e0 b2 14 14 bb 61 d6 88 39 4e cd 0a bd 32 84 a7 bd
       -0.0022595343 0.00026099666 -0.0338872 -0.08179511
0001f0 90 81 cf bc d2 8b 0c 3a a6 34 e3 39 7c 14 4e 3c
       -0.025330335 0.0005361411 0.0004333604 0.012578126
000200 9e 3b ea 3c e8 9c 4f 3d b3 04 77 37 23 3a aa b4
       0.02859288 0.050686747 1.4723441e-05 -3.1707268e-07
000210 6c c7 d7 bc 4f 96 1b b8 3a 79 31 37 53 50 80 b6
       -0.026340209 -3.7094866e-05 1.0578247e-05 -3.8240482e-06
000220 14 33 cc b8 68 c1 03 b4 40 cf 96 be d8 00 36 bc
       -9.736992e-05 -1.2270687e-07 -0.29454994 -0.0111086
000230 cc 03 80 35 91 90 36 bf 92 a3 6b be cb 66 86 b7
       9.537848e-07 -0.7131434 -0.23011616 -1.6021912e-05
000240 9f 4b 35 bd a9 17 06 ba da ca 11 3b 08 cb 90 bd
       -0.04426157 -0.000511522 0.0022246153 -0.07069975
000250 ac 6a 1d 3f 08 f4 3a bd c7 6e ba b7 8e 20 6a 3c
       0.61490893 -0.045642883 -2.2224513e-05 0.014289988
000260 e6 02 4a bb 32 5c d7 39 6d fc 10 3a 93 6a 95 39
       -0.0030824482 0.00041076686 0.00055307784 0.000284989
000270 f7 3f 6f ba 59 ea 85 3c c8 df 0f bc 6b 0b 82 3e
       -0.0009126658 0.016347097 -0.008781381 0.25399336
000280 2e 9e 27 38 ef ee d7 34 c3 29 1a b6 92 42 49 3f
       3.996322e-05 4.0220718e-07 -2.2972097e-06 0.78617203
000290 2e a0 89 37 68 37 14 b9 40 7c 6f bb 39 fe b5 bd
       1.6406262e-05 -0.0001413502 -0.0036542565 -0.0888638
0002a0 9e b6 04 b9 87 61 e2 34 db 31 12 3f c8 bb 6a 37
       -0.00012656531 4.216674e-07 0.57107323 1.3991208e-05
0002b0 f6 ba 26 b9 85 2c f8 b5 57 1c b8 b5 9b 9b a9 3f
       -0.00015900642 -1.8490397e-06 -1.3717316e-06 1.3250612
0002c0 a8 b4 2c 37 ae 60 ed 36 50 54 f7 bb 62 96 85 b7
       1.0294061e-05 7.0744054e-06 -0.0075478926 -1.5924863e-05
0002d0 5e 75 33 35 21 ed 4f 34 3f e0 29 39 98 93 98 bd
       6.685349e-07 1.9364644e-07 0.00016200634 -0.07450026
0002e0 c0 32 d5 3d e3 17 ca 32 63 07 1f bf 99 a8 79 37
       0.104100704 2.3526757e-08 -0.62120646 1.4880811e-05
0002f0 9e c2 2c 33 7b 72 08 35 50 b4 84 b6 63 15 75 3c
       4.0223874e-08 5.083054e-07 -3.9548977e-06 0.014958712
000300 39 7c 20 39 f6 57 f1 bd 06 7b a0 bf 41 04 79 35
       0.00015305066 -0.11784355 -1.2537544 9.276592e-07
000310 7f 9b ff b4 a1 f6 56 33 dd 53 f4 3e 25 07 1c b7
       -4.761059e-07 5.0050065e-08 0.47720233 -9.299988e-06
000320 46 35 f9 bc 58 0a a5 b5 af 2a ba 36 9a db 06 37
       -0.03042091 -1.2296468e-06 5.548201e-06 8.038152e-06
000330 57 65 97 37 df 51 2a b9 f8 f9 f3 3a 8a 02 00 b7
       1.8047793e-05 -0.00016242963 0.0018613925 -7.629986e-06
000340 98 fd 11 3d 6b ef 3c 3e f4 86 6d 3f 97 c1 f6 3b
       0.035642236 0.18450706 0.9278405 0.007530402
000350 41 53 af be 03 82 10 bc 7e 5b 0b bf 46 ee 33 3c
       -0.34243205 -0.00882006 -0.5443648 0.010982102
000360 30 d2 00 3d d4 dc 17 be d4 65 77 be 5b f5 f7 3e
       0.03145045 -0.14830333 -0.24159938 0.4842938
000370 8b 42 28 bd 0c ea 11 3d f8 fc 93 bc 39 19 00 bd
       -0.041079085 0.035623595 -0.01806496 -0.031274054
000380 b5 86 0c be ee 33 d6 b7 a4 ca ec 35 38 bd 2f 3a
       -0.13723262 -2.553497e-05 1.7642346e-06 0.0006703916
000390 7c b8 3c 35 95 db c0 b5 3f 8e b9 39 39 2b b4 be
       7.030392e-07 -1.4369022e-06 0.0003539193 -0.35189226
0003a0 d8 2c f0 3d fc e5 ce bd d1 be d7 b3 37 eb 37 be
       0.11727303 -0.1010246 -1.0046427e-07 -0.17960821
0003b0 1d 6c 31 36 6c d5 67 be 97 27 86 b7 29 08 20 36
       2.6437986e-06 -0.22640008 -1.599248e-05 2.3846608e-06
0003c0 12 0d 1d 3b f6 6f 3f bc f2 c3 80 3e 79 79 07 bd
       0.002396409 -0.011684408 0.25149494 -0.03307483
0003d0 9b 99 02 b8 13 1e 4f b6 62 1f bf bb 51 df 89 39
       -3.113747e-05 -3.086291e-06 -0.0058325985 0.0002629706
0003e0 8b d2 95 3b c6 0e cc 39 5d f1 d8 b6 c3 18 d3 3c
       0.004572218 0.0003892092 -6.4654e-06 0.025768643
0003f0 2b 62 30 bd 21 f5 38 3d 26 34 b3 3c f1 51 d2 3e
       -0.04306237 0.04515565 0.021875452 0.4107814

rel.weight f4 [61, 16]
000000 00 00 00 00 00 00 00 00 00 00 00 00 00 00 00 00
       0.0 0.0 0.0 0.0
000010 00 00 00 00 00 00 00 00 00 00 00 00 00 00 00 00
       0.0 0.0 0.0 0.0
000020 00 00 00 00 00 00 00 00 00 00 00 00 00 00 00 00
       0.0 0.0 0.0 0.0
000030 00 00 00 00 00 00 00 00 00 00 00 00 00 00 00 00
       0.0 0.0 0.0 0.0
000040 39 4f 3f be 0a 07 c2 bb 4a 73 10 3e 3b 85 e4 be
       -0.18682565 -0.0059212493 0.1410648 -0.44632897
000050 af dc 0a 3e 23 72 3e 3f 3f 86 cf be 3a 35 0e bf
       0.13560747 0.7439291 -0.4053211 -0.5554997
000060 ae 8e 04 bf 3c a5 db be 69 6d 34 bf 2d 8a 45 3f
       -0.5178021 -0.428995 -0.70479447 0.77163965
000070 d8 47 9f be 48 10 1e bd a6 8e f9 bf b5 83 71 3f
       -0.311095 -0.038589746 -1.9496658 0.94341594
000080 56 26 10 be 5f 71 09 3f f6 98 de 3e 2d c6 3e 3f
       -0.14077124 0.53688616 0.43476075 0.7452114
000090 04 43 1f bf 2e 41 8e bf 98 0e 65 3f 0a d9 17 3e
       -0.6221163 -1.1113641 0.89475393 0.14828888
0000a0 48 d3 62 bf 41 2a 63 3e c3 e2 55 3e 9c a2 8e 3f
       -0.8860364 0.22184087 0.20887284 1.1143374
0000b0 3d c6 33 bf 52 bb 47 bf f8 2c 0b 3f 40 52 c2 3e
       -0.7022436 -0.78020203 0.5436549 0.37953377
0000c0 f9 8b 3e 3d a8 1a 08 be 3f 41 e4 3d db 3e 76 bf
       0.046520207 -0.13291419 0.11145257 -0.9618966
0000d0 ca 30 e5 bf 4a b8 d2 3f b0 6b 36 bf 5f 6d 4f 3f
       -1.7905514 1.646249 -0.7125807 0.8102626
0000e0 00 52 0f 3e 58 31 96 3e 71 a4 23 bf 44 89 6f 3d
       0.13996124 0.2933452 -0.6392279 0.058480516
0000f0 a2 f5 21 3e e6 16 89 3f dc 45 ff 3e 21 01 2e bf
       0.15816358 1.0710113 0.49857986 -0.6797047
000100 49 fb 94 3e 2d 8e d9 3e d7 45 ce 3e 1d a3 f1 be
       0.29097965 0.42491284 0.4028766 -0.47194758
000110 e3 de be 3e d7 00 28 3e c4 85 4d bf 9c 44 73 bf
       0.37279424 0.1640657 -0.80282235 -0.95026565
000120 e6 36 95 3e b2 ed 05 bf 63 fe 97 3f ca 92 4b bf
       0.29143447 -0.5231582 1.1874508 -0.7952086
000130 97 71 4e 3f 0b e9 f4 3e 78 1d 0b bf 96 f5 a3 bf
       0.80642074 0.47834048 -0.5434184 -1.2809322
000140 b9 73 ca be f1 da f4 bf 25 d4 20 bf e2 1a cf 3e
       -0.39541414 -1.9129316 -0.62823707 0.40450197
000150 04 bc 86 bf 10 7f b7 bf b5 cb a7 bf 9a 8d 07 3f
       -1.0526128 -1.4335651 -1.3109041 0.5295044
000160 aa fc 74 bf fd 8b 2e 3e 78 ab b9 3e de e6 1c c0
       -0.95698035 0.17045589 0.36263633 -2.451591
000170 3a 6c 83 bf d7 a9 16 3f 08 be 54 3e d8 70 c8 3e
       -1.0267403 0.58852905 0.20775616 0.39148593
000180 c8 62 a7 bc 9d 89 a5 3e ce cf 91 be 83 84 41 39
       -0.020432845 0.32331553 -0.28478855 0.00018455279
000190 83 54 7d 39 66 49 e7 b9 86 d3 92 39 50 ff 9a bb
       0.00024159443 -0.0004411444 0.00028004887 -0.0047301427
0001a0 47 71 72 39 25 20 51 3c 1e a9 41 ba f8 30 a6 39
       0.00023121118 0.0127640115 -0.0007387566 0.00031698472
0001b0 75 bf 70 bf b2 06 02 3f e4 f3 03 bc eb 11 3d 39
       -0.9404214 0.50791466 -0.0080537535 0.0001803112
0001c0 dd 4d 4c b9 54 ec 5f be 23 6d 5a 3b 6a 98 e8 b8
       -0.00019483962 -0.21867496 0.003332921 -0.000110910114
0001d0 75 d6 b0 39 29 02 e6 3b 94 3a 4f ba d5 3b 20 ba
       0.0003372912 0.0070193005 -0.0007905152 -0.00061124313
0001e0 be 78 7d 39 94 8d de bd 5a 3a 8a 3a 62 bf 2e 39
       0.0002417294 -0.10866848 0.0010545955 0.00016665229
0001f0 e3 fd 28 be c2 c9 30 ba 8a 7c ec 3a c9 e8 1d bb
       -0.165031 -0.00067439314 0.0018042487 -0.002409505
000200 7a 18 88 3e ec cb d2 bd 87 f1 1f be 38 f0 a3 be
       0.26581174 -0.10292801 -0.15619479 -0.3201921
000210 78 53 03 3e 06 77 86 3e 73 45 90 3e 07 37 08 3e
       0.1282481 0.26262683 0.28177986 0.13302241
000220 84 f6 4b be b7 8d b4 bc 81 a4 20 3d 63 9e 15 3f
       -0.19918257 -0.022040231 0.039219383 0.58444804
000230 38 b7 8a bd 9e 11 25 bd 88 b4 87 3e 2d 50 42 3f
       -0.067732275 -0.040300004 0.26504922 0.7590359
000240 ca 19 d3 3a eb 51 8c 3e b9 59 d1 3e 1e e6 bd bd
       0.0016105708 0.27406248 0.40888765 -0.09272407
000250 c6 82 b3 be 80 fe 23 3d 28 15 a5 bf 2d f4 05 3b
       -0.3506071 0.040037632 -1.2897081 0.002043973
000260 4b ac 8a 3c 5c f8 5a 3e fa b2 be bd f9 85 4c 3b
       0.016927859 0.21383804 -0.09311481 0.0031207784
000270 99 8a c8 be 32 95 0c be 61 53 05 3f 26 6f a4 3d
       -0.39168242 -0.13728788 0.5208035 0.080290124
000280 75 47 83 bf ae 1f 44 be 7b 22 4f be 43 5c 1d 3f
       -1.0256182 -0.1915271 -0.20227997 0.61468905
000290 8e 28 24 3f 90 5f 43 bf c2 a8 f1 bd 38 98 97 3f
       0.6412438 -0.7631769 -0.11799766 1.1843328
0002a0 da 08 85 3f ea 84 b8 3f 66 95 74 3f b4 4a 4c 3e
       1.0393326 1.4415562 0.95540464 0.19950372
0002b0 fc 57 69 bd a6 3f 29 be 4e 8f b4 bf f4 69 47 be
       -0.056968674 -0.16528186 -1.4106233 -0.19474012
0002c0 0b 0f ad 3d 75 ab 2b bd 36 dc 41 bf b8 4c 60 3e
       0.08450135 -0.04191156 -0.7572664 0.21904266
0002d0 b5 7d 46 3f 6b f8 21 be bd 9b 34 3e 7e b6 2a 3d
       0.77535564 -0.1581742 0.17637534 0.041677944
0002e0 e5 22 40 3f 96 d9 72 3e e6 75 11 bd 5d 1a d2 3e
       0.75053245 0.23715815 -0.035512827 0.4103574
0002f0 a4 da da bc 45 ec 20 3e a2 8a 95 3d 5a 39 13 3f
       -0.026715584 0.1571513 0.07301833 0.57509387
000300 c7 26 a3 3c 8e 43 bd 3b 66 a1 13 bd b8 94 c4 3c
       0.019915951 0.0057758754 -0.036042593 0.023996696
000310 ad bc 47 bd af 8f 96 bb e2 ba cb bc f7 3a a4 be
       -0.04876392 -0.004594765 -0.024869386 -0.32076237
000320 4b ee 89 bc b7 9d 51 bc 4d 59 4e 3d 8f 4c 2e bd
       -0.01683726 -0.01279395 0.050378133 -0.04255348
000330 ae be 2e 3f 4d 5f bf bd 2a 29 6e 3d 0f c0 4b ba
       0.68259704 -0.09344349 0.058144726 -0.00077724544
000340 98 9a b2 bf 31 d1 cf be 81 28 c6 3e aa 9c 26 be
       -1.3953428 -0.40589288 0.38702777 -0.162707
000350 e8 6e 56 3e a1 98 0b bf 43 ad b2 3e 4b 64 c1 bb
       0.20940745 -0.5452977 0.34897813 -0.0059018484
000360 31 da 32 be 1a bc 8c 3e 54 09 05 3d 74 be 36 3e
       -0.17466046 0.2748726 0.0324796 0.1784609
000370 83 25 b9 be 2e 9c 3a 3f a6 eb 5d 3d 59 53 cf 3e
       -0.36161432 0.7289456 0.05417981 0.40493277
000380 ff a0 37 bf 53 22 5f bd 35 87 45 3f 96 e8 e0 be
       -0.71730036 -0.054476094 0.77159435 -0.4392745
000390 34 29 9b 3e 7e 13 0e bf dc ee 91 3f 79 43 39 bf
       0.30304873 -0.5549849 1.1401019 -0.7236858
0003a0 0e ea 0a 3e f4 7e 06 be a5 da 0c 3f 17 90 61 be
       0.13565847 -0.13134366 0.55021125 -0.22027622
0003b0 68 2f 78 3e c7 6e 63 3d 1e c2 7b be 83 18 bf 3e
       0.24236834 0.055525567 -0.24585769 0.37323388
0003c0 e2 13 00 3f 2e e9 7a 3f f0 98 29 3f 94 37 35 3e
       0.5003034 0.98012054 0.6624899 0.17696983
0003d0 bb e9 1d 3f ee c1 9e 3e 88 8a 76 be c6 89 66 3e
       0.6168477 0.31007332 -0.24076283 0.22513494
0003e0 36 93 59 be fc e0 96 3d 91 de a9 be 7f aa cd 3c
       -0.21247563 0.07367131 -0.33177617 0.025105713
0003f0 e0 12 7b bd 90 2d 94 bd 21 88 5b 3e 11 c4 7a 3e
       -0.061297297 -0.07235253 0.21438648 0.24488856

aggregator.0.weights.weight f4 [16, 16]
000000 d1 7a 92 bc 43 f8 2a 3e cc d2 0c be b4 26 19 be
       -0.017880829 0.16696267 -0.13752288 -0.1495617
000010 29 7f 46 3e ba c5 40 bd a6 70 fb ba 3f 45 a6 bd
       0.19384445 -0.047063567 -0.0019183352 -0.081186764
000020 55 35 3b 3e 34 60 b6 bc 81 b1 9d bd ab 63 9e bd
       0.18282063 -0.02226267 -0.07699872 -0.07733854
000030 04 a1 35 3d 87 3c 4c 3c e1 d3 18 3e 49 55 00 3c
       0.04434301 0.012465603 0.14924575 0.007832834
000040 01 80 ff 3d d8 e3 2e 3e 72 35 cb bd 8f f3 28 be
       0.12475587 0.17079103 -0.09922303 -0.1649916
000050 dc 57 55 be 65 80 b0 3d cd 2c 72 bd 02 68 a2 bd
       -0.20834297 0.08618239 -0.059124757 -0.07929994
000060 9d 53 16 3e ee b9 9a 37 e6 0f 72 bb 02 4e a8 bd
       0.14680333 1.844481e-05 -0.0036935746 -0.08218004
000070 53 1b ee 3d f4 ff 2a 3d f1 0c 96 3e 1c 4b 2b 3e
       0.116263054 0.041748002 0.29306749 0.1672787
000080 b9 30 e3 3d 6b 4e b2 3d 08 33 0d 3d 5e 5e e1 bd
       0.110932775 0.08706363 0.034472495 -0.11004327
000090 ec 2b 32 be dc 48 0d be 1a 65 7c 3e 07 19 60 3d
       -0.17399567 -0.13797325 0.24647942 0.054711368
0000a0 1b fb 04 bb ab ac 0e be a5 24 f4 3c b9 cc 40 be
       -0.0020291272 -0.13933055 0.02980263 -0.18828095
0000b0 1e 78 c2 3d 43 52 65 3d 77 b5 82 bd c2 ba 96 bd
       0.09495567 0.055986654 -0.06382268 -0.0735984
0000c0 c8 d3 0a be 9e f0 f8 bd ce d9 29 3e b0 f4 20 3e
       -0.1355735 -0.12155269 0.16586992 0.15718341
0000d0 21 2a 4d be 74 01 b3 3c 65 3a 35 3e ec d9 0c 3d
       -0.20035602 0.021851279 0.17698057 0.034387514
0000e0 86 25 f2 bd a4 53 3c be d8 13 ce bc 83 09 b3 3d
       -0.11823563 -0.18391281 -0.025155947 0.087420486
0000f0 82 6e 36 3e f2 da 05 3e 3c 8e 00 be 9a 88 a4 bd
       0.17815593 0.13071802 -0.12554258 -0.08033867
000100 10 5c 02 3e ca 02 6b 3d 4f 29 88 bd a2 80 59 bd
       0.12730432 0.057375707 -0.06648504 -0.05310119
000110 0a 4c 3e bc ef ff c9 bd b1 78 90 3c ab 73 86 3d
       -0.011614809 -0.098632686 0.017635675 0.06565031
000120 ed c3 10 be b2 8d 3b 3b a3 68 68 be 42 f6 c4 3d
       -0.1413724 0.0028618393 -0.22696166 0.096172825
000130 c5 19 03 3e 93 d9 39 bd 9a 32 65 be d0 94 29 bc
       0.12802799 -0.04537351 -0.22382584 -0.010350421
000140 ad 99 1f be a5 2a 6e be 73 19 87 3d 84 a0 cb 3a
       -0.15585966 -0.23258455 0.06596651 0.0015535508
000150 e6 f0 2c bc 8c d4 c3 bb 55 a7 97 bb 35 d7 56 bd
       -0.010555482 -0.0059762653 -0.004628102 -0.05245133
000160 1c f9 22 bc d7 f7 fe bd 47 82 3e 3d 6e b2 e3 3c
       -0.009947088 -0.124496154 0.04651096 0.027795043
000170 3a 71 b8 bd 93 f2 1f 3d 63 e6 cc 3d e6 90 2d 3d
       -0.09005971 0.039049696 0.1000488 0.042374514
000180 19 d8 c8 bd 7a 58 00 be 61 f2 ca bb c3 84 16 be
       -0.09806842 -0.12533751 -0.0061934446 -0.14699082
000190 fe b3 d2 bd b8 54 01 3d 7c 1c 62 bc 8a 36 3c 3e
       -0.10288237 0.031574935 -0.0138007365 0.1838018
0001a0 11 f1 d9 3d 6e 8d ab bd 48 cc f7 3d 8d 9e ca 3c
       0.10641683 -0.08376585 0.120995104 0.024733806
0001b0 65 eb d3 bc 5f c0 70 3c e4 28 8d 3d d5 ad 2d bc
       -0.02586908 0.014694302 0.06892565 -0.010600527
0001c0 db 36 57 3d 7b 54 42 bd 61 78 2d bd 44 80 80 3b
       0.05254255 -0.047443848 -0.04235113 0.0039215405
0001d0 ac 34 07 3e e5 5c 0d bd f0 c7 0c be 69 6b 33 3e
       0.13203686 -0.03451242 -0.13748145 0.17521442
0001e0 93 34 d6 3c 7c 95 04 3e da 87 1a 3e cf d5 f8 bd
       0.026148116 0.12947649 0.15090886 -0.12150156
0001f0 d0 09 37 3d a9 f9 f7 bd a0 de 9a 3c 87 fd 00 bd
       0.044687092 -0.12108166 0.018904984 -0.031491783
000200 68 a2 02 be 9b 3d 40 3c 6b 0b 4c be a0 22 8d 3c
       -0.12757266 0.011733438 -0.1992623 0.017228425
000210 79 12 57 3d 74 b2 7f bc bd a0 c6 3c 2f 64 39 3e
       0.05250785 -0.015606511 0.024246568 0.18104623
000220 94 c6 af 3d df 64 ab 3b 63 ab 1d bd af 86 37 bd
       0.08582798 0.0052305306 -0.038493525 -0.04480618
000230 05 a8 6a be 43 ac 09 be 10 86 b3 3d 42 7b 1d 3d
       -0.22915657 -0.13444619 0.08765805 0.038447626
000240 f3 9d 1f 3c 0c f1 b1 3d 57 00 cb bd bb ad 2d 3e
       0.009742248 0.08688554 -0.09912174 0.16960804
000250 b9 01 f0 bd 70 a0 09 3e 96 48 1c 3e 73 59 09 3d
       -0.117190786 0.13440108 0.15262064 0.03353257
000260 72 6a 8b 3e 6a 25 3c be f9 12 f1 3d a3 0e 62 3e
       0.2722965 -0.18373647 0.11771197 0.22075896
000270 c0 b9 fc bc 13 fb 49 bd eb ec 4f 3d a2 9a 0f 3e
       -0.030850291 -0.04931171 0.050763052 0.14023831
000280 4b dc d5 3d 6f fe f2 3c 39 e1 36 bd 5c 2f cd bc
       0.10442408 0.029662339 -0.044648383 -0.025046997
000290 76 17 0b 3c 86 7e 69 3e 9a 7c c6 bd e4 4e 0d bc
       0.00848948 0.22802171 -0.096917346 -0.008624766
0002a0 a9 eb d9 3d d0 65 3f be 71 34 a8 3d 65 87 ae bd
       0.10640652 -0.18691182 0.082131274 -0.08521918
0002b0 0a cd e2 bc ca 6b 19 3e f4 45 96 3d 84 58 58 3d
       -0.02768566 0.14982525 0.07337561 0.05281879
0002c0 c6 e6 ac 3d 86 9c 89 3d ae 90 1f 3d ab bf a7 3c
       0.08442454 0.067193076 0.038956337 0.020477137
0002d0 d7 98 5e 3c 1b 97 3d be 0f 8d 37 3d 32 bc 79 3e
       0.013586245 -0.18514673 0.04481226 0.24388197
0002e0 aa 66 d9 bd 85 31 81 bd 3f 2d 70 bd d7 f8 f6 3d
       -0.10615285 -0.06308273 -0.0586369 0.12059181
0002f0 6e 21 e9 3c b4 e4 bb 3d 75 6b 1d 3d bf d7 95 3d
       0.028458323 0.09174481 0.038432557 0.07316541
000300 07 9b 1a bd 1c a8 97 bc bb ca d2 bd c7 cf c7 3d
       -0.0377455 -0.018512778 -0.10292574 0.09756427
000310 10 da f9 3d d8 ff 05 bc 94 74 84 3e e3 1b f7 bd
       0.12199795 -0.008178674 0.25870192 -0.12065866
000320 3d 91 96 be 3f e2 10 be 42 44 ef 3d 75 4f 55 3e
       -0.29407683 -0.14148806 0.11682941 0.20831092
000330 2f 12 9f 3d 69 25 f5 bd 58 61 34 be f3 4c a5 3d
       0.0776714 -0.11970026 -0.17615259 0.080713175
000340 30 cc 04 3e 0c a4 b8 3d 11 21 d4 bd c9 b3 88 bd
       0.12968516 0.090156645 -0.103578694 -0.06674916
000350 f1 b4 35 3d 62 71 c6 bd ce c7 65 3d cc a6 7f be
       0.044362012 -0.09689595 0.05609875 -0.24965972
000360 0d 8b 44 3e dc 10 41 3c 44 7d 72 bd fb 39 45 3e
       0.19193669 0.011783805 -0.059201494 0.19260399
000370 cb a1 88 bd 79 56 29 bb c0 a7 6b 3c c9 49 2b 3d
       -0.066714846 -0.0025838895 0.014383256 0.041818414
000380 99 72 e4 3d d9 3b 30 bd f4 c6 aa 3d 63 95 b5 bd
       0.1115467 -0.043025825 0.083387285 -0.08866384
000390 1d 51 e2 bc a8 6f 32 bc 43 c1 c5 3d b9 9c 14 be
       -0.027626568 -0.010890879 0.09656002 -0.1451291
0003a0 58 2b 36 bd 00 f6 28 be d0 e6 31 3b 54 72 c7 3d
       -0.04447493 -0.16500092 0.0027145632 0.09738603
0003b0 39 6f 04 bc fd c9 cd 3c df b8 be bd 6d 2b 4c be
       -0.008083158 0.02512073 -0.09312605 -0.1993844
0003c0 07 74 3d 3e 83 be d9 3d 0d 67 e8 bd 80 30 03 bd
       0.18501292 0.1063204 -0.113477804 -0.032028675
0003d0 17 c3 7c 3d e5 47 d6 3d 61 0e 46 bd 7f c7 88 3c
       0.06170949 0.104629315 -0.048353557 0.01669669
0003e0 cd 5a 12 be 1c 09 a4 3b e9 53 29 3e 6e 52 fe 3c
       -0.1429245 0.0050059687 0.16535915 0.031045165
0003f0 c0 8d 98 3e 02 01 01 be 39 1a 8a bd aa 90 4d be
       0.29795647 -0.1259804 -0.06743283 -0.20074716

aggregator.0.weights.bias f4 [16]
000000 28 07 24 bd d5 07 ec bd e7 d7 98 bd 50 88 23 be
       -0.040045887 -0.11524931 -0.07463055 -0.15969968
000010 31 48 3f be 22 1b 51 be 96 c4 a7 be 31 48 65 be
       -0.18679883 -0.20420507 -0.3276717 -0.2239082
000020 ea 88 82 bd 15 ac 30 be 5b 64 8c bd d5 8a 14 bd
       -0.063737705 -0.17253144 -0.06855079 -0.036265213
000030 62 af 1c be 26 05 ba bd c7 d9 ac bc 7f b0 d7 bc
       -0.15301278 -0.09083013 -0.021099938 -0.026329277

aggregator.1.weights.weight f4 [16, 16]
000000 d2 0b 5b be 45 ed 1c 3d 0a 73 99 bd 15 f2 53 be
       -0.21391228 0.038312215 -0.07492645 -0.20697816
000010 ee 4c 8b 3d 58 4c c7 3c 32 09 6f be 11 19 5b be
       0.068017825 0.024328396 -0.23343351 -0.21396281
000020 b6 6f ef 3d 1f 54 1b bc 9c 74 fd 3c 17 c1 0f 3e
       0.11691229 -0.009480505 0.030939393 0.14038502
000030 70 b8 08 be db 73 8f bb 77 38 0b bd 1c 78 3c bd
       -0.13351607 -0.0043778247 -0.033989396 -0.046012983
000040 12 23 0e 3e 1f ab eb 3d 76 93 19 3e 9b 9a 26 3d
       0.13880566 0.11507248 0.14997658 0.040674787
000050 b6 7d cf 3d 28 a7 18 3e ab f4 17 bc 88 2a 8a 3d
       0.10131399 0.14907515 -0.009274642 0.067463934
000060 14 00 05 be 87 07 1d 3e 56 2f ff bd cd 33 b6 bd
       -0.12988311 0.15334903 -0.124602005 -0.08896599
000070 65 2f ab bd c6 60 a3 3d 16 af 49 3d 20 1f 00 3e
       -0.08358649 0.079774424 0.04923924 0.12511873
000080 ce c7 01 3e 68 b9 ca bd ab d7 e1 bd 8b de fc bd
       0.12673876 -0.09898645 -0.110274635 -0.12347134
000090 fc b9 41 3e 51 d0 3c 3c 83 e9 ec bc fa 04 40 be
       0.18918604 0.011524276 -0.02891994 -0.18751898
0000a0 86 61 11 be cd 87 3f be c9 2c a2 bd b1 3c a7 3d
       -0.14197358 -0.18704148 -0.07918698 0.08165873
0000b0 bf b1 b2 bd ff fe e8 bc 99 24 01 be 74 6a c8 3c
       -0.087253086 -0.028441904 -0.12611617 0.024464823
0000c0 85 9f f8 3d 7a 81 4e bc df b9 c5 3c cf 78 87 3d
       0.12139801 -0.012604112 0.024136482 0.06614839
0000d0 c0 47 15 3e cb 72 0a 3b a0 dc 70 bc b2 68 a5 3d
       0.14578152 0.002112555 -0.014701039 0.0807661
0000e0 ae f2 db bd b4 bb 11 3e 38 fb 08 bd cd b0 7f bd
       -0.10739647 0.1423176 -0.033442706 -0.06242447
0000f0 c0 e8 2c bc 90 50 7c bc ab 8d 1e bd ec 0b 03 be
       -0.010553539 -0.015400067 -0.038709324 -0.12797517
000100 a2 a6 50 be 8c 9f c0 bd 85 26 b5 3d dd cd ca 3d
       -0.20376065 -0.09405431 0.08845238 0.099025466
000110 ee 4b 1f bd 5e 0e 1b be 41 c3 28 3e 9a 81 12 be
       -0.03889077 -0.151422 0.16480733 -0.14307252
000120 34 eb a4 3b 26 d6 f5 3d 1f 28 65 3c f6 52 91 3d
       0.005032921 0.12003736 0.013986616 0.07095902
000130 b9 75 92 be 30 73 00 3b e5 bb 54 3d 6f c1 0f 3e
       -0.2860544 0.0019599907 0.051937003 0.14038633
000140 24 98 a5 bd b3 a2 90 3c 99 97 99 3d a4 cf 29 be
       -0.08085659 0.017655706 0.07499618 -0.16583115
000150 22 a9 12 be 5f 9b d6 3d 01 1b 51 bd bb 17 d5 bd
       -0.14322332 0.104788534 -0.051051144 -0.10404917
000160 90 09 15 3e 84 6f 00 3e e9 99 8c bd ad 2f 13 3e
       0.14554429 0.1254254 -0.068652935 0.14373656
000170 41 a2 ca 3d b5 a2 83 bb ad 3c ae 3b 05 79 b3 bc
       0.09894229 -0.004017199 0.0053172917 -0.021908293
000180 d2 40 5f 3e 2c fc 1b bd 3a cd c3 bd ff 81 fa bd
       0.2180207 -0.038082287 -0.09560628 -0.12231826
000190 2f 50 19 3d 39 f1 78 3d 28 ff 1d be 99 fd b6 bd
       0.037429985 0.060776923 -0.15429366 -0.08935089
0001a0 85 6c 24 be 1c 08 be bd e3 7e 26 bc f0 f8 e8 3d
       -0.16057022 -0.092788905 -0.010162088 0.11375606
0001b0 3a a2 28 be fa 9f 08 be 3f ba 3c 3d dc 72 85 bc
       -0.16468135 -0.13342276 0.046076056 -0.01629012
0001c0 16 e0 b6 bc b1 ce 17 bd b1 22 0a 3e 94 bd da 3d
       -0.02232365 -0.03706235 0.13489796 0.106806904
0001d0 d0 97 ac 3d 6b b4 6f 3d 6b 66 86 bd 3b f7 a7 3b
       0.084273934 0.05852167 -0.065625034 0.0051259077
0001e0 60 c2 de bd 72 fb 36 3e a8 f8 99 3d 51 c1 0d be
       -0.10876918 0.17869356 0.075181305 -0.13843276
0001f0 78 f1 cb bd e1 2e 03 bc 91 b2 04 be 00 7b 75 be
       -0.09958166 -0.008006782 -0.12958743 -0.23972702
000200 ba 41 61 3d 4e f2 cc 3d b9 c5 e1 bd 88 9b b0 3d
       0.054994322 0.100071535 -0.11024041 0.08623415
000210 67 23 0d 3d af ab 54 bc 99 25 bf 3b 5d 4c 0a be
       0.03445759 -0.012980386 0.0058333394 -0.13505693
000220 67 6b 02 3e da 47 75 3d 35 06 21 3e e7 42 21 3d
       0.12736283 0.059882976 0.15725024 0.039370444
000230 fa 73 41 bd fb 04 f4 3c 53 a9 2c 3e ec 28 e3 bd
       -0.047229744 0.029787531 0.16861467 -0.110917896
000240 ec 2a a2 3b d2 b6 fe 3d 08 62 59 bd e7 c3 88 3e
       0.0049489643 0.12437214 -0.053072006 0.26711962
000250 cc 82 1f bd d1 45 2b bd f9 35 93 bd 03 08 0b be
       -0.038943097 -0.04181463 -0.07188029 -0.13577275
000260 9b fe eb bd 53 6f 7a 3c f7 83 e5 3c ed a3 ea bd
       -0.115231715 0.015285331 0.028017027 -0.114570476
000270 33 9b be 3d 7e 24 64 3e 36 29 44 bd fb 82 6d bd
       0.09306946 0.22279546 -0.047890864 -0.05798624
000280 8f b5 db 3d c6 b6 ae bd 0c d0 e0 bb 3a 17 8e 3d
       0.10727989 -0.08530955 -0.0068607386 0.06938024
000290 2e 67 b6 3c 8e 1d 4c 3d d8 c7 a1 3d 4e c2 d4 bd
       0.022265997 0.049832873 0.07899445 -0.10388623
0002a0 60 59 b1 bd 19 3e d8 3d 55 47 e6 bd 7e 66 09 3d
       -0.08659625 0.10558719 -0.11244074 0.03354501
0002b0 1e 08 1a 3c cb 91 23 be 6d 5e 52 3e fd c3 fb bd
       0.009401349 -0.15973584 0.20543833 -0.12293241
0002c0 ca 25 1c be b5 68 41 3e 5d 5f a7 bd 2f c2 d8 bd
       -0.1524879 0.18887599 -0.08172486 -0.105839126
0002d0 99 8d 3d be 86 12 40 bd 51 10 90 3c d5 8b ee bc
       -0.18511046 -0.046892665 0.017585905 -0.029119411
0002e0 82 a9 9f 3d dd 06 99 bb 91 5b ec bb 49 cc 98 3d
       0.07796003 -0.0046700076 -0.007213064 0.07460839
0002f0 d4 10 de 3d 8e 81 bc bd 0e 32 ce bd c4 05 a1 3e
       0.108430535 -0.09204398 -0.10068141 0.3144971
000300 b1 91 f1 bd 49 8b 24 bd f2 da 1d be 27 42 68 3d
       -0.117953666 -0.040171895 -0.15415552 0.056703713
000310 19 ea d0 bd b4 b0 68 3d 9d cb 31 be 1b 8e f2 bd
       -0.102009006 0.056809142 -0.17362829 -0.11843511
000320 44 79 44 bd 4a 92 01 bd 4e 2a c0 3d 02 3a 8d 3d
       -0.04796721 -0.031633653 0.09383069 0.0689583
000330 20 59 12 3e b8 29 06 bc 00 3c b5 bd 68 be d5 3d
       0.14291811 -0.008188657 -0.08849335 0.10436708
000340 50 dd 60 be 19 d8 94 bd ed 68 02 bd e4 d5 20 3e
       -0.21959424 -0.0726778 -0.031838346 0.15706593
000350 1a b4 d0 bd 64 60 8d 3d 35 2a e5 3d 40 f8 b5 bd
       -0.10190602 0.06903151 0.11189691 -0.088852406
000360 3b d6 62 bd 9d 50 35 3e 99 53 d2 bd 70 74 b8 bd
       -0.055380087 0.17706533 -0.10269851 -0.09006584
000370 f2 e6 8f 3e 42 dc 9b 3d 75 8d 1f be 2a a2 1f bd
       0.28105885 0.0761037 -0.15581305 -0.03897301
000380 3b 9d 00 be 5b e1 d6 3b 96 f2 82 be 3c 69 d8 bd
       -0.12559979 0.006557626 -0.25575703 -0.10566947
000390 1b 39 d6 bd d1 60 22 be e8 f1 63 bd 3c 49 b9 3d
       -0.10460111 -0.15857245 -0.05565062 0.090471715
0003a0 a1 c4 68 be 33 74 f1 bc 26 1e a6 3d c9 eb a1 bd
       -0.22731258 -0.029474353 0.08111219 -0.079063006
0003b0 37 da b3 be fb bf e3 3c 73 0f ff 3c a2 01 4a be
       -0.35127422 0.027801504 0.031135296 -0.19727185
0003c0 a0 ce 16 3e 78 e2 fe bd 89 9b ae bd c9 e0 b6 3d
       0.14727259 -0.12445539 -0.0852576 0.08929593
0003d0 b0 1d 30 bd a5 d4 a4 bd 46 c7 d0 bc 65 01 26 be
       -0.042997062 -0.08048371 -0.025485646 -0.1621147
0003e0 c3 af cd 3d 2c 30 9d be 42 b3 ce bc c2 74 c3 3c
       0.100432895 -0.30700815 -0.025231961 0.023859385
0003f0 67 10 0f 3e 14 a3 c0 bd 52 a4 87 bb 9b b6 a5 bd
       0.13971101 -0.09406105 -0.0041394616 -0.0809147

aggregator.1.weights.bias f4 [16]
000000 7d 29 f6 3b 8a 6b 74 bd 2d 74 05 3d a7 16 cf 3c
       0.00751227 -0.05967287 0.032581497 0.025279356
000010 f3 72 a3 bd 9f 25 24 bd 5e b2 2c 3c 1c 71 d7 3d
       -0.07980909 -0.04007494 0.010540573 0.10519621
000020 cb d2 93 bd 61 13 b0 bd ba bc 81 3d 91 fb 78 bc
       -0.0721794 -0.08597446 0.06334825 -0.015196697
000030 9d 6e f1 bc fa f8 cf 3c 22 68 15 3e 1d 4d fd 3c
       -0.02947169 0.025387276 0.14590505 0.03092056
