kgraph_models/model_node_8000_0.6557339349769782.pt (torch, 728580 bytes, 7 tensors)

usr.weight f4 [1872, 16]
000000 5a e4 e5 bd 4b 5c ee 3e 33 fc 01 be bf c4 c0 3d
       -0.11225195 0.4655479 -0.12693863 0.09412526
000010 e4 52 0e be 5a c2 81 bb 9b 59 57 3b be 46 47 3e
       -0.13898808 -0.003959936 0.0032859806 0.1946058
000020 89 43 ba 3d a8 ef 52 3d 5e 0f 81 3d b9 a7 10 3e
       0.090949126 0.051498085 0.06301759 0.14126481
000030 a8 8f 0c be 30 e1 eb 3d de 52 3c 3d dc 8f 05 be
       -0.13726676 0.115175605 0.045977466 -0.13043159
000040 3f 18 f5 3c 80 68 48 bd 95 97 6f 3c 5f d4 c2 bc
       0.029918788 -0.048927784 0.014623542 -0.023782907
000050 33 4e 61 bc c7 c9 db bc 8c 36 c6 3c 28 05 1c 3d
       -0.013751554 -0.026829613 0.024195932 0.038090855
000060 b0 40 02 bd 4b 33 22 bd 59 7e 92 3c 63 9b c2 3c
       -0.031799972 -0.039599698 0.017882513 0.023755735
000070 36 47 b3 bc 5f 6c 4d bd 58 43 47 3d 41 92 0a 3c
       -0.021884542 -0.05015218 0.04864821 0.008457721
000080 62 bd a7 bd 82 f0 c9 3d e3 9d 90 be f3 1e 12 3e
       -0.08190419 0.09860326 -0.28245458 0.14269619
000090 06 48 db bc 70 e0 8c bc c3 36 cb bd 2d 18 bb 3d
       -0.026767742 -0.017196864 -0.09922554 0.091354705
0000a0 29 42 2f 3e 93 29 4b 3e d9 84 e1 3c 0f 25 93 bd
       0.17115082 0.19840078 0.027529167 -0.07184803
0000b0 c0 d2 db 3d 33 af 47 3d a4 7c 04 be ca 7e ec 3d
       0.10733557 0.048751067 -0.12938172 0.115476206
0000c0 31 6a 37 be cb e4 fc 3c a7 dd a8 be 14 5c 37 bd
       -0.17911603 0.030870816 -0.32981607 -0.044765547
0000d0 66 56 2a be d0 8c 0e 3e bf 39 cb be de 76 bd be
       -0.16634521 0.13920903 -0.39692494 -0.3700475
0000e0 a6 f5 0d be 97 92 67 be d9 26 8d 3d ee 27 a7 3e
       -0.13863239 -0.22614513 0.06892175 0.3264765
0000f0 d9 8b 32 bc 52 84 44 3e 8c 6d a9 be 8e f9 1e 3e
       -0.0108976 0.19191101 -0.3309139 0.15524885
000100 d9 77 a2 bd a7 06 da 3d 53 e8 00 be c6 13 89 3c
       -0.079330154 0.106458 -0.12588625 0.016733062
000110 79 f0 98 be 93 58 64 be b8 59 c9 3d 12 cb c2 3c
       -0.29870966 -0.22299413 0.098315656 0.023778472
000120 3b 86 7e 3d 18 79 08 be 71 e7 93 3e 42 ba 99 3e
       0.06213973 -0.13327444 0.28887513 0.30024916
000130 e0 9a c1 bd 4c cf 38 3b 6e cf 57 be 9a 1f 2a 3d
       -0.09453368 0.002819973 -0.21075222 0.041534044
000140 ac 6f a6 be b1 91 92 3e 87 48 bb be b6 56 63 3c
       -0.32507074 0.2862678 -0.3657877 0.013875654
000150 b1 94 8d bd 8d 34 50 bd 76 d2 fb 3c f2 e4 1d be
       -0.06913126 -0.050831366 0.030740004 -0.15419367
000160 5d 92 9c 3d 3b b4 60 3d b5 65 18 3e ed ee 12 3e
       0.07645104 0.05485938 0.14882548 0.14348955
000170 9c da 4f bd d6 bd d8 3c 46 db b2 be d1 f7 45 be
       -0.05074559 0.026457708 -0.34932917 -0.19332816
000180 d0 b1 d7 be c2 80 c6 bd ac 75 0c 3d 46 5e ab 3d
       -0.42127848 -0.09692527 0.03429191 0.083675906
000190 89 a4 0a 3e 4b 51 27 3d 24 0b a4 bd 88 20 27 be
       0.13539328 0.04084901 -0.080099374 -0.16321003
0001a0 2a 0b 94 3c b8 a8 30 3e 10 92 58 3d 9b cf 61 3e
       0.01807173 0.17251861 0.05287367 0.22051851
0001b0 03 62 10 3e c7 2b 9f 3d 19 a0 e0 3c e6 49 40 3d
       0.14099889 0.07772022 0.02742009 0.046945475
0001c0 88 51 cf bd 22 38 2c 3e 30 82 b6 bd 55 6d fb 3d
       -0.10122973 0.16818288 -0.0891155 0.12276713
0001d0 52 89 33 be ad a8 ae bd 83 8e 45 bd 4a d7 4e 3d
       -0.17532852 -0.08528266 -0.048231613 0.050498284
0001e0 33 77 bb 3d c7 25 d4 3d 42 c1 16 3e 3c b1 f3 3c
       0.09153595 0.10358768 0.1472216 0.029747598
0001f0 a8 c8 57 bd a1 9b 91 3d 50 69 08 be d6 b1 6b bc
       -0.052681595 0.07109762 -0.13321424 -0.014385661
000200 70 4b 9d bd 01 ad a8 3d 98 3d 8b bd ef 65 37 3d
       -0.07680404 0.08236123 -0.067988575 0.044774946
000210 61 d6 6f bd 0c 0b 1b 3c 54 1a 02 bd 19 17 0e be
       -0.058554057 0.009463083 -0.03176339 -0.13875999
000220 9e 95 03 3e 2d 46 d2 3d 58 03 36 3d e3 6a 1c 3d
       0.12850043 0.10267291 0.044436783 0.038187873
000230 12 49 d6 bc 63 8d 22 bd d4 ac 24 bd 98 ae 3f 3d
       -0.02615789 -0.039685618 -0.040203884 0.046797365
000240 1d 32 1c be 71 f4 fa 3d fa 64 f8 bd 34 b8 fb 3d
       -0.15253492 0.12253655 -0.12128635 0.12290993
000250 9b bd 26 bd 86 dc 85 bd b2 48 3b be 00 90 cb bd
       -0.040708166 -0.06536202 -0.1828945 -0.09939575
000260 05 f9 16 3c ce 4b 16 bc 57 34 12 3e 4a b5 bd 3e
       0.009214644 -0.009173347 0.14277779 0.37052375
000270 b9 58 8a bd 16 09 0f 3d 39 31 2d be eb 22 96 bd
       -0.06755204 0.034920774 -0.16913308 -0.07330879
000280 d7 38 cf bd b0 7b 0f 3e 23 f0 06 be 94 95 6a bc
       -0.10118263 0.14012027 -0.13177542 -0.014317889
000290 9c 43 00 3d 6a 59 85 bc 80 03 f6 bd 8d ec d7 3d
       0.031314477 -0.016277988 -0.12012386 0.10543165
0002a0 42 19 3e 3d 61 4c 47 3e 8b 6b 9c 3d 22 2b 18 bd
       0.046410806 0.1946273 0.076377 -0.03715051
0002b0 30 56 82 3d 39 a6 2b 3e ea 9b 5e be 76 a0 0f bd
       0.06364095 0.16762628 -0.21739164 -0.035065137
0002c0 d5 8a 71 be 5e 08 af 3e 36 34 c2 be ab 4b 11 3e
       -0.23588116 0.3418607 -0.3793046 0.14189021
0002d0 f9 33 c5 3d 77 c2 15 bd b4 74 d5 be 7d 1d ad 3a
       0.096290536 -0.03656241 -0.416906 0.0013207641
0002e0 e2 1f c7 3d c9 d0 bb bd 20 49 2b 3e 04 10 c6 3d
       0.09722878 -0.09170682 0.16727114 0.096710235
0002f0 cd 6e 0c be e8 20 4d 3e fb 02 19 bf 0e ea 21 bd
       -0.13714142 0.20032084 -0.5977017 -0.039529853
000300 77 86 f6 bd 9b 23 4a 3e 06 21 4e be f4 5a 4a 3e
       -0.12037366 0.19740145 -0.20129785 0.19761258
000310 d5 ea 96 be 06 fe c5 bd a8 f5 0d be f5 fa df 3d
       -0.29476038 -0.09667592 -0.13863242 0.10936538
000320 c8 3c 2e 3e 3d 6c 3a 3e 85 59 88 3c a5 01 b5 3d
       0.17015374 0.18205352 0.016644249 0.08838204
000330 7f 89 10 be 32 43 a7 bd c0 9b 88 3c 85 bc 53 be
       -0.1411495 -0.08167113 0.01667583 -0.20677383
000340 75 79 18 3c cb a5 20 3d 4e ae 01 3e 89 33 eb 3c
       0.009306301 0.039220612 0.12664148 0.028711097
000350 e6 13 9a bd 13 21 d5 3d 39 fe 16 be 72 b1 8f bd
       -0.075233266 0.10406699 -0.14745416 -0.07016267
000360 a6 ed f9 bd 9f 89 16 be ad dc 03 3e a3 e3 e3 3e
       -0.12203531 -0.14700936 0.1287715 0.4450961
000370 0a 31 f8 be ed 0c 45 be 93 46 b0 be 2b b6 8b 3e
       -0.48474914 -0.19243212 -0.34428844 0.2728742
000380 32 1b 18 bd e5 2d 8f 3d e3 2a b1 bd fa 30 e4 3d
       -0.03713531 0.069911756 -0.08650758 0.11142154
000390 44 0b 22 be 0b 1e f7 bd c2 69 6c be d4 9d 05 bf
       -0.1582461 -0.12066277 -0.23087218 -0.5219395
0003a0 00 54 85 be 7b 26 02 3d af 99 d8 bd 8f 11 50 3d
       -0.2604065 0.03177498 -0.10576188 0.050797995
0003b0 a5 26 e4 bc dd d9 dc 3d b4 b1 00 be 71 03 b3 bc
       -0.027850458 0.107837416 -0.12567788 -0.021852227
0003c0 98 27 b8 bd c3 20 b4 3d 8d 1e a8 bd af 5e b8 3d
       -0.08991927 0.08795311 -0.08208952 0.090024345
0003d0 3a c9 bf bd a8 04 6c bd e7 11 8b bd 01 4a 06 be
       -0.09364553 -0.057621628 -0.06790524 -0.13114168
0003e0 af 5c 50 3c a4 c5 e2 3c cc d1 68 3d c5 ad 0c 3e
       0.01271741 0.027682133 0.056840703 0.13738163
0003f0 40 b1 3c bd d6 f8 0d 3d 4f c3 13 be 92 cb 39 be
       -0.046067476 0.034661137 -0.14429973 -0.18144062

ent.weight f4 [9367, 16]
000000 00 00 00 00 00 00 00 00 00 00 00 00 00 00 00 00
       0.0 0.0 0.0 0.0
000010 00 00 00 00 00 00 00 00 00 00 00 00 00 00 00 00
       0.0 0.0 0.0 0.0
000020 00 00 00 00 00 00 00 00 00 00 00 00 00 00 00 00
       0.0 0.0 0.0 0.0
000030 00 00 00 00 00 00 00 00 00 00 00 00 00 00 00 00
       0.0 0.0 0.0 0.0
000040 b6 fb fb 36 d6 1a 62 b6 16 df 92 b6 33 02 c0 b5
       7.509686e-06 -3.3692245e-06 -4.3771097e-06 -1.4305755e-06
000050 f1 5f c9 b6 6a a6 a4 b6 50 05 a9 b6 8d 62 60 b4
       -6.001436e-06 -4.906954e-06 -5.037211e-06 -2.0897478e-07
000060 6c 5e 4d 36 fb 73 88 b6 7d 51 b7 b6 ee 2f ab b6
       3.0602341e-06 -4.0666177e-06 -5.4633115e-06 -5.101777e-06
000070 a9 00 cf b6 fe 02 5d 36 da 54 d1 36 5f a1 80 b6
       -6.1691576e-06 3.2933308e-06 6.2385634e-06 -3.8334833e-06
000080 e0 5e 48 3c 48 ec 1d bc a9 34 ff 3b 90 b8 6f 3c
       0.012229651 -0.009638853 0.00778826 0.0146314055
000090 4c 08 0f bb 77 ee 47 3b da 5b a7 bc 1a 4c 83 3c
       -0.0021825014 0.0030507126 -0.02042954 0.016027499
0000a0 89 b6 c6 bc 00 dc 4b 3c cb 6b f2 3b bb 44 0d 3b
       -0.024256961 0.012442589 0.007398104 0.002155586
0000b0 6d cc fd ba ca af ec 39 8f f7 3d bc c0 e0 f9 3b
       -0.0019363292 0.000451444 -0.011594667 0.0076256692
0000c0 c7 e4 30 bb 33 43 21 37 e0 83 98 35 64 d6 d7 b6
       -0.002699183 9.611994e-06 1.1363263e-06 -6.4324577e-06
0000d0 78 bd f4 b6 72 83 09 b7 19 ce 51 38 a6 40 ec b6
       -7.2938237e-06 -8.196441e-06 5.0021426e-05 -7.040874e-06
0000e0 0f 76 98 b6 09 81 dd b6 52 eb d0 35 f4 16 fd b6
       -4.543697e-06 -6.601335e-06 1.5565695e-06 -7.5426597e-06
0000f0 6a e3 c7 36 c1 2a 13 37 42 22 81 b6 af 28 81 35
       5.9571366e-06 8.771837e-06 -3.8484877e-06 9.62309e-07
000100 c8 90 a0 3b 36 fb 83 bc 2b 04 45 3d ad 3c 13 3d
       0.004900072 -0.016110998 0.048099678 0.035946537
000110 9b ff b8 bb 7a c4 1a 3c 1e 22 59 bd 74 4f e5 3d
       -0.005645705 0.009446258 -0.053011052 0.11196795
000120 e9 c2 6c bc 52 61 04 3d 94 a4 6a bd 12 28 71 bd
       -0.014450767 0.032319374 -0.05728586 -0.058876105
000130 74 39 51 bc 84 ba 8b 3d 32 b3 70 3c a3 4b 6d 3d
       -0.012770046 0.068226844 0.014691161 0.05793346
000140 2f 71 96 b8 c0 b6 64 38 ed a2 07 38 50 44 0a 39
       -7.1736395e-05 5.4529635e-05 3.2338245e-05 0.00013186154
000150 3c 03 ca b7 6c c3 27 38 41 65 0a b9 b6 ef 1d 37
       -2.4081783e-05 3.9997904e-05 -0.00013198426 9.413741e-06
000160 b7 94 56 38 fe b3 e9 38 ba 05 6d b8 3d fc da 37
       5.1160077e-05 0.00011143832 -5.6510537e-05 2.6105083e-05
000170 72 02 57 b9 16 ff e9 b8 26 d0 9c b7 08 21 a8 b8
       -0.00020504909 -0.00011157819 -1.8693576e-05 -8.017017e-05
000180 45 52 18 b7 c8 44 b6 3e 4a df 47 38 19 16 f4 b6
       -9.079061e-06 0.3559935 4.765325e-05 -7.274339e-06
000190 ab 79 a4 36 0f b9 15 b7 ab 80 88 b7 1e a4 40 37
       4.901745e-06 -8.924179e-06 -1.6272379e-05 1.1482303e-05
0001a0 67 fc 65 39 27 1e 04 b9 f4 7c 1a 37 ee 7e af b7
       0.00021933169 -0.00012599734 9.208208e-06 -2.0920732e-05
0001b0 16 ed b3 38 ec f8 12 b7 cc c8 35 b9 b2 17 a1 38
       8.579546e-05 -8.760235e-06 -0.00017336308 7.681492e-05
0001c0 78 c5 fa 37 82 b9 38 37 ec 52 a5 36 d3 5a 87 38
       2.9894276e-05 1.10104465e-05 4.9270366e-06 6.454219e-05
0001d0 aa 87 67 b8 df cc d6 36 e0 4c ce 39 d3 e4 4c 37
       -5.520104e-05 6.401547e-06 0.00039348658 1.2212625e-05
0001e0 1b 36 0e b8 a7 d4 cf 36 2b 69 90 b7 23 e4 bb 36
       -3.3905828e-05 6.1938367e-06 -1.721511e-05 5.599593e-06
0001f0 e2 29 12 36 25 a8 bb b7 bf fb 4d b7 9f ec 5c b7
       2.1780074e-06 -2.2370436e-05 -1.2277566e-05 -1.31681145e-05
000200 b9 b0 49 37 17 a5 03 b7 10 18 cf 36 78 eb 68 b6
       1.202168e-05 -7.846646e-06 6.171882e-06 -3.4707755e-06
000210 db 2c 2d b7 4f e9 71 36 4b 8b 99 b6 03 3a 6a b6
       -1.0322047e-05 3.6047602e-06 -4.575971e-06 -3.4902484e-06
000220 0b 16 0e 36 e7 40 52 b6 47 6c d6 38 83 4a a0 35
       2.117248e-06 -3.1330217e-06 0.000102244834 1.1942615e-06
000230 ef a3 74 b6 83 07 73 bb b9 cc 6b b8 63 80 c4 b6
       -3.6454255e-06 -0.0037083335 -5.621903e-05 -5.8562014e-06
000240 a8 36 fd b6 6d 8a c0 b6 52 c3 d5 36 be b3 c6 36
       -7.5463504e-06 -5.738161e-06 6.370633e-06 5.9217846e-06
000250 31 51 f3 ba 15 0c a7 b6 2e ab d3 36 ef bd 50 37
       -0.0018563626 -4.9783944e-06 6.308218e-06 1.24419885e-05
000260 6c 70 4b 36 3a 47 ce 36 6f d0 aa 35 07 93 95 b5
       3.0314795e-06 6.1475703e-06 1.2726649e-06 -1.1144156e-06
000270 d6 b0 e1 b6 f2 db 27 37 25 d3 15 37 75 a8 8d 38
       -6.726109e-06 1.0005186e-05 8.930253e-06 6.7547815e-05
000280 57 32 4e b5 26 d4 04 b7 cf a5 7d 37 7b ce 9a 3c
       -7.6814234e-07 -7.917208e-06 1.511858e-05 0.018897286
000290 88 66 21 b7 b0 95 fd b6 1b 3b 5b b8 67 7f 4b 38
       -9.62022e-06 -7.5574135e-06 -5.2268715e-05 4.8517624e-05
0002a0 d4 bb 94 b8 d3 7f d8 b6 8c 73 a4 ba 62 c8 cb 37
       -7.092176e-05 -6.4521823e-06 -0.0012546643 2.4292796e-05
0002b0 0d 34 00 37 37 1f 99 37 b5 1b f6 35 6c cc 99 3e
       7.641514e-06 1.8253557e-05 1.8336492e-06 0.30038774
0002c0 5c b5 83 36 a8 4f b9 36 3e d1 ed b6 54 d9 4e 36
       3.9252172e-06 5.522703e-06 -7.0875094e-06 3.0822894e-06
0002d0 d9 c5 bd 36 a3 7f 59 b6 87 93 f0 b6 5d 74 9b b7
       5.6556714e-06 -3.2409814e-06 -7.169732e-06 -1.8531626e-05
0002e0 18 b4 ec b7 ca 51 96 36 6c 0c f5 3a c3 48 ce 36
       -2.8217255e-05 4.47987e-06 0.0018695719 6.147749e-06
0002f0 96 64 3a 36 8e 19 ac b6 4b 6a 9e b6 38 36 0d b7
       2.7774709e-06 -5.1289744e-06 -4.721141e-06 -8.416879e-06
000300 06 10 c3 b5 d5 44 1f 38 ed fb 80 be ab 6a 09 36
       -1.4533296e-06 3.797266e-05 -0.25192204 2.047668e-06
000310 92 53 8e 36 17 c5 04 35 98 a6 42 3a 9a b0 62 36
       4.2416586e-06 4.9460635e-07 0.0007425337 3.377942e-06
000320 56 95 d4 b6 f0 0c 14 b6 f3 a2 7d b6 e5 bf 64 b6
       -6.3354773e-06 -2.206125e-06 -3.7794787e-06 -3.4086345e-06
000330 17 61 26 36 c7 5c 39 33 b8 3a 11 b7 c9 ed 08 34
       2.4792441e-06 4.315805e-08 -8.656345e-06 1.2752493e-07
000340 89 30 a0 39 08 bf 0e bc 40 f9 43 3e a3 3c a4 39
       0.0003055374 -0.008712538 0.1913805 0.00031325695
000350 98 06 74 bd d5 72 30 3c 21 db 9f bd c3 1d af 3c
       -0.0595766 0.010769566 -0.078054674 0.021376496
000360 43 f1 34 bd 18 14 9b bc 4a e3 90 bc 80 bb c1 3d
       -0.044175398 -0.01893048 -0.017686505 0.09459591
000370 ae 5a 4c 3c b5 19 ba 3c 92 67 13 bb 0b 20 6d bc
       0.012472792 0.022717336 -0.0022492153 -0.014472972
000380 ce 1b 0b 38 cb 94 ba 36 db b8 ae b6 da 46 72 b6
       3.3166078e-05 5.5605537e-06 -5.207124e-06 -3.610205e-06
000390 6c 69 be b6 eb bd b3 b6 d7 33 9b b6 a4 04 a0 b8
       -5.674714e-06 -5.356725e-06 -4.625395e-06 -7.630259e-05
0003a0 56 d7 0a b8 95 c0 ca 37 7f e5 4c b5 88 c1 1a b4
       -3.310231e-05 2.4169954e-05 -7.6329883e-07 -1.4412774e-07
0003b0 15 a6 80 b6 98 c1 6a 36 28 f0 9a b6 8f bd 7a b6
       -3.8340318e-06 3.4981404e-06 -4.6175155e-06 -3.736324e-06
0003c0 a5 b6 55 ba 00 4b 63 39 a4 65 0f 39 5e 0b 94 ba
       -0.00081525213 0.00021676347 0.00013675407 -0.0011294892
0003d0 2f 38 76 36 76 83 00 39 2e bc 6d 3a da 7e 9a 3b
       3.668956e-06 0.00012256004 0.00090688735 0.004714829
0003e0 a4 d2 04 3a ef fa 70 ba 47 5f 08 38 34 bd f3 b7
       0.0005066788 -0.00091926655 3.251366e-05 -2.9055962e-05
0003f0 c0 93 d6 b7 26 80 ce ba bb 28 89 ba 8e ab 9c 3b
       -2.557959e-05 -0.0015754744 -0.0010464409 0.004781193

rel.weight f4 [61, 16]
000000 00 00 00 00 00 00 00 00 00 00 00 00 00 00 00 00
       0.0 0.0 0.0 0.0
000010 00 00 00 00 00 00 00 00 00 00 00 00 00 00 00 00
       0.0 0.0 0.0 0.0
000020 00 00 00 00 00 00 00 00 00 00 00 00 00 00 00 00
       0.0 0.0 0.0 0.0
000030 00 00 00 00 00 00 00 00 00 00 00 00 00 00 00 00
       0.0 0.0 0.0 0.0
000040 d4 f0 ee bd 81 28 b0 bd 58 62 0e 3e 25 0f 92 be
       -0.11667028 -0.086014755 0.13904703 -0.2852718
000050 38 71 a3 3d c8 d9 1f 3f e1 c1 b2 be 7b 63 02 bf
       0.07980579 0.6244168 -0.34913543 -0.50933045
000060 ae 70 ba be aa fa 10 bf 7b a9 04 bf 48 c7 1f 3f
       -0.36414093 -0.56632483 -0.51821107 0.62413454
000070 9c 49 9d be b3 11 81 bc ad a6 bb bf ff 90 2b 3f
       -0.30720222 -0.01575551 -1.466024 0.6701812
000080 4b 97 3f be d5 61 17 3f 71 25 26 3e 91 95 0e 3f
       -0.18710057 0.59133655 0.1622522 0.5569697
000090 59 f3 0e bf 52 92 4d bf ea 10 ff 3e 16 6c 53 3d
       -0.5584007 -0.8030139 0.49817592 0.05161675
0000a0 3e 0c 0b bf 7e 6f 02 3e 2e 5b 37 3e f5 fd 5f 3f
       -0.54315555 0.12737843 0.17905876 0.8749688
0000b0 51 b8 12 bf ec 1d 1e bf 72 ad 5e 3e 14 25 ae 3d
       -0.57312495 -0.6176441 0.21745852 0.08503166
0000c0 52 65 1e be 8a b7 ff 3d 82 f9 11 be 77 64 f4 be
       -0.15468338 0.12486179 -0.14255336 -0.477329
0000d0 5d c7 a5 bf 1f d4 95 3f 45 10 14 bf 66 b3 e7 3e
       -1.2951466 1.1705359 -0.57837325 0.45254058
0000e0 47 f9 bf 3d fc 1b 9d 3e a1 b6 a7 be 57 e6 3f 3e
       0.09373718 0.30685413 -0.32756522 0.18740211
0000f0 0c 73 47 3d bd 66 3e 3f cd e9 46 3e 29 21 18 bf
       0.0486937 0.74375516 0.19425125 -0.594256
000100 38 82 1c 3e 31 10 84 3d 8d b4 82 3e 3f fb 2c be
       0.1528405 0.06448401 0.25528374 -0.16892718
000110 7d f4 23 3e 9d d5 18 3d cd 6d 77 be 96 b3 b9 be
       0.16011234 0.037313092 -0.2416298 -0.36269826
000120 0a 2a 99 3d c7 92 6d be c5 a1 f4 3e ca 53 94 be
       0.074787214 -0.23200522 0.4777967 -0.28970176
000130 d8 6c 97 3e 26 4f 2a 3e 77 2e 2e be e4 2c f4 be
       0.2957523 0.16631755 -0.17009912 -0.476905
000140 55 b6 d9 bd 92 e7 bf bf 6b 78 b5 be 8e 53 42 3e
       -0.1063048 -1.4992545 -0.35443434 0.18977186
000150 46 fd 20 bf d6 39 6b bf b0 b8 3d bf 62 52 ca 3e
       -0.62886465 -0.91885126 -0.74109936 0.39515978
000160 d6 7b 25 bf df 0f c7 3d 38 f6 30 3e f8 d2 f1 bf
       -0.64642084 0.09719824 0.17281425 -1.8892508
000170 97 d1 04 bf 5f d6 06 3f 14 44 d2 3e 21 65 05 3f
       -0.5188231 0.52670854 0.41067564 0.52107435
000180 67 4d d4 3a bc 40 d8 b9 2e 54 01 3a 21 02 37 bb
       0.0016197384 -0.0004124696 0.0004933503 -0.0027924853
000190 33 ac 3d ba af 01 f6 ba 6e ae 53 38 8c e4 eb ba
       -0.00072354375 -0.0018768812 5.046877e-05 -0.001799719
0001a0 3c 1f 39 bb 67 e5 6f bb 72 c9 30 ba 28 4f 15 bb
       -0.0028247377 -0.003660524 -0.0006743885 -0.0022782777
0001b0 8f 88 94 bd 60 87 23 3a b8 24 f6 3a c9 7b 7d b9
       -0.07252609 0.0006238129 0.0018779254 -0.00024174074
0001c0 49 2e d5 ba 04 8d a9 b9 aa f7 7e ba f5 78 36 3b
       -0.0016264404 -0.00032339257 -0.0009726236 0.0027843092
0001d0 68 88 3d 3a 6a e8 f5 3a 15 63 49 b8 70 78 ec 3a
       0.0007230104 0.0018761281 -4.801441e-05 0.0018041264
0001e0 df 83 39 3b eb aa 72 3b dc 93 30 3a c2 6b 1f 3b
       0.002830736 0.0037028145 0.00067359 0.0024325703
0001f0 1c 30 32 bb 67 c6 1a bb 1b ca fc ba 38 46 7e 39
       -0.002718932 -0.0023616792 -0.0019286306 0.00024249486
000200 f7 4e c2 3d 20 6a 36 bd ab 00 4e 3d c6 fa ad bd
       0.094877176 -0.044534802 0.050293606 -0.08495097
000210 9c 87 c9 3d 17 97 36 3d dd f8 28 3d ff 5b 21 3c
       0.098403186 0.044577684 0.04125296 0.009848594
000220 90 38 ea bc 90 e8 ce ba 24 4a b5 bd d9 6b a1 3c
       -0.028591424 -0.0015785862 -0.08852032 0.019704746
000230 11 0c 80 3d 4a 7d af bd 35 66 03 3e 78 4f cb 3d
       0.062523015 -0.08568819 0.12831958 0.09927267
000240 a4 a2 7b 3b 71 19 aa 3b 39 b1 70 3c 3a 46 b5 3b
       0.0038396502 0.005191021 0.014690691 0.0055320533
000250 e0 b6 58 3c 99 09 e5 bc 0b 0e 97 be 4f d2 97 3b
       0.013227195 -0.027958678 -0.295029 0.004633225
000260 16 ff 56 bc bd 9a ca bb bb 07 28 3c f1 d6 c7 ba
       -0.013122341 -0.006182997 0.010255749 -0.0015246553
000270 ea d1 26 bc 23 f9 15 bc a4 62 92 3c a9 21 d9 bb
       -0.010181883 -0.009153637 0.017869301 -0.006626327
000280 ed a8 1c bf 11 f5 ca 3d 68 12 21 be de 08 84 3e
       -0.6119526 0.09910024 -0.15729678 0.25788015
000290 ff 7b 45 3e 2c 17 c7 be 8d c3 06 be d4 e2 2c 3f
       0.19285582 -0.38884866 -0.13160534 0.6753361
0002a0 c8 ed 14 3f 9a 34 5f 3f bb 25 02 3f 62 74 f2 3d
       0.58175325 0.8718964 0.5083882 0.118386045
0002b0 5e 96 61 3c 9c 7d e9 bb f9 68 5a bf d9 f2 61 be
       0.0137687605 -0.0071255695 -0.85316426 -0.22065295
0002c0 24 b5 d0 bc d6 82 0d bc 57 63 de bd 92 44 89 3b
       -0.025477 -0.008637151 -0.10858791 0.0041890824
0002d0 14 c6 1e 3e 30 3a 39 bd 50 f9 42 bd b1 87 da 3b
       0.15505248 -0.045221508 -0.047601044 0.0066690077
0002e0 02 17 5c 3d e4 57 30 bc 6b 2c d7 3a 45 7f 96 3d
       0.05373288 -0.010763142 0.0016416436 0.073484935
0002f0 98 d3 cd 3c 1a bf a8 bc 16 80 d4 bb 35 11 26 3d
       0.02512531 -0.020598937 -0.0064849956 0.040543754
000300 31 6b 8e bb a4 85 74 bc 2d 3e 48 3d 3e 84 d4 bc
       -0.0043462743 -0.0149244405 0.04888742 -0.025941964
000310 94 61 d6 3c 95 c6 27 3d 2e 27 7e bc 7d 01 61 3c
       0.026169576 0.040960867 -0.015512271 0.013733265
000320 c1 db 01 bd ec 60 05 bd 7f fa 57 3c 10 c5 2a 3d
       -0.031703714 -0.032563135 0.0131822815 0.04169184
000330 30 36 d9 3c 2e 50 df bc 05 7b 5d bc 72 77 38 bb
       0.026515096 -0.027259912 -0.0135181 -0.0028147367
000340 1a f7 f6 be 20 8b 15 bc 9a 83 a8 3c 7e dc fe 3c
       -0.482354 -0.009127408 0.020570565 0.031110998
000350 b5 27 77 bd 97 ba a9 bd aa 1d 57 3d bf 16 b3 3c
       -0.060340602 -0.08287542 0.052518524 0.021861432
000360 9b d2 d6 bb 87 f0 0f 3e 0f 61 c6 3d 77 91 55 bc
       -0.006555868 0.14056598 0.09686481 -0.01303517
000370 4b 29 33 bd 1f 9b d2 3d 53 6a 69 3d fb aa 88 bc
       -0.043740552 0.10283493 0.056986164 -0.016683092
000380 bd 81 74 bd 45 d0 9a 3c 26 fc 64 3d 44 2a 8d 3b
       -0.05969404 0.018898139 0.05590453 0.004308017
000390 75 c1 12 3d 53 59 04 bd ad 02 94 3e 3a 9c 7e bd
       0.035829026 -0.03231175 0.2890829 -0.062160708
0003a0 4d d1 f4 bc 41 d8 66 bd 20 e2 1a 3d 83 f6 e3 3b
       -0.029884959 -0.05635858 0.037813306 0.0069568767
0003b0 f7 5e a1 3c c6 c8 47 bb f3 c9 35 bc 83 92 39 bb
       0.019698603 -0.003048466 -0.011095512 -0.0028316088
0003c0 49 8a e0 bc 2a 3a 96 3e b2 b6 73 bc 02 6a 20 bb
       -0.02740969 0.2934125 -0.014875101 -0.0024477248
0003d0 37 8d 98 3d 48 2b dc 3b e5 0d 61 bd 50 06 60 3c
       0.074488096 0.0067190267 -0.05494489 0.01367338
0003e0 06 f5 85 3c cc ac 57 3b da 6d 64 bc 0c e4 e0 3c
       0.016352188 0.0032909391 -0.013942206 0.027452491
0003f0 cd ff e3 bc 79 ae 3d b9 57 41 c3 bd f2 24 60 bd
       -0.027831936 -0.0001808944 -0.09533947 -0.054722734

aggregator.0.weights.weight f4 [16, 16]
000000 83 c0 6b 3c cd 13 b7 3e e1 f9 a5 be 14 13 f8 be
       0.01438916 0.35757294 -0.32417205 -0.48452055
000010 50 0f d4 3e be 56 ce bd 4b f3 87 3e 81 17 36 be
       0.41417933 -0.100751385 0.26552805 -0.17782404
000020 f3 8b 9c 3e 72 f2 83 be a3 39 83 be 60 fb 08 be
       0.30575523 -0.2577091 -0.2562991 -0.13377142
000030 b7 4b 0b 3e 5a 92 5b bd a8 d1 cc 3e b9 11 57 bd
       0.13603102 -0.05360637 0.40003705 -0.052507136
000040 ad ae 7d 3e b9 e1 dc 3e 00 38 b1 be c6 dd ee be
       0.24773665 0.43140963 -0.34613037 -0.46653575
000050 a3 6e 95 be dc 27 3c 3e 69 d3 0e 3e 30 31 d5 bd
       -0.29185972 0.1837458 0.13947834 -0.104097724
000060 c4 aa b2 3e d3 0a 7a be 96 38 a5 3d 86 9f 45 3d
       0.3489591 -0.24418192 0.080674335 0.048247837
000070 3b 41 3a 3e 64 89 b5 bc 13 e2 23 3f fa f4 29 3e
       0.18188946 -0.02216024 0.64016837 0.16597357
000080 99 fa 80 3e 29 a6 a3 3e 0f fc d7 bd 0c 78 ad be
       0.2519119 0.31962708 -0.10546123 -0.3388065
000090 13 fb 63 be fb af 32 be 6d 23 19 3f ae b6 4e 3d
       -0.22263746 -0.17449944 0.5981968 0.050467186
0000a0 b2 93 4e 3e 96 39 c4 be f1 41 1f 3e c5 2f b3 bd
       0.20173529 -0.38325185 0.15552498 -0.08749346
0000b0 20 5b 60 3e 9d 33 93 bd 5a 26 1f bd d6 23 7a be
       0.21909761 -0.07187579 -0.038854934 -0.24427733
0000c0 43 bd c6 be a9 b9 9f be b7 e0 98 3e 01 0b 3a 3e
       -0.3881627 -0.31196335 0.29858944 0.1816826
0000d0 1e 09 d8 be 02 ab 98 3d fe c1 0f 3f 71 5d da bd
       -0.42194456 0.07454492 0.56155384 -0.10662354
0000e0 8c bd 5d be a3 70 16 bf 9a eb 12 3e 41 f4 bd 3e
       -0.21654338 -0.5876562 0.14347687 0.37100413
0000f0 3b 9e 79 3e 92 06 c3 bd 21 03 bc be 33 5d 77 be
       0.24376766 -0.095227376 -0.36721137 -0.24156646
000100 05 10 63 3e 08 20 a0 3d d1 63 82 bd be 5a a1 be
       0.2217408 0.078186095 -0.06366695 -0.31514543
000110 85 5c c6 bc f4 dc 1b be 70 d9 41 3e 02 c1 7c bd
       -0.024214039 -0.15221006 0.18930602 -0.061707504
000120 df e3 16 be e2 64 4b be 7e dc b0 be eb b4 f8 3d
       -0.14735363 -0.19862702 -0.34543222 0.12143882
000130 40 63 69 3e b8 70 93 bd d0 b5 a6 be cc 5e 62 be
       0.22791767 -0.07199234 -0.32560587 -0.22106475
000140 c1 ed 58 be 13 78 b9 be a0 05 b5 3d 14 79 b0 bd
       -0.21184446 -0.36224422 0.088389635 -0.08616844
000150 3f 41 48 bd 45 0e 09 be a3 83 2b 3e aa c4 53 be
       -0.04889035 -0.1338435 0.16749434 -0.2068049
000160 1e 48 81 3d 06 80 9e be b4 7e 08 3e 9d 43 a8 3d
       0.063125834 -0.3095705 0.13329583 0.08216021
000170 ee 37 ca bd f9 4e 0d bd 81 db 0a 3e a7 64 f8 bc
       -0.09873949 -0.034499142 0.13560297 -0.030321432
000180 75 38 01 be cb 27 0e be 7f 6c e4 bd 26 ec 82 be
       -0.12619193 -0.13882367 -0.111535065 -0.25570792
000190 93 34 15 be 88 98 0a 3c e6 f5 e4 bc 5f 11 69 3e
       -0.14570837 0.008459218 -0.027949285 0.22760533
0001a0 44 b6 4e 3e d5 61 06 be 76 83 2e 3e 55 ec c3 3d
       0.20186716 -0.13123257 0.17042336 0.09566561
0001b0 fd 9b 26 bd ac 0c f2 bd aa 69 47 3e c2 88 25 bd
       -0.040676106 -0.11818823 0.19473901 -0.040413626
0001c0 a5 96 04 3e eb 8c 49 bc 5c b8 b8 bc b7 44 95 bd
       0.12948091 -0.012301664 -0.022548847 -0.07288497
0001d0 db ea 25 3e b3 b4 04 bd 5c 59 28 be 2a 09 73 3e
       0.16202872 -0.03239889 -0.16440338 0.23733965
0001e0 ae f4 f4 3d 17 3b 65 3d 31 77 8a 3e 71 95 94 be
       0.119607314 0.055964556 0.2704406 -0.29020265
0001f0 02 10 43 3e 76 b6 86 be 1b d0 bc 3d 12 7b 1d be
       0.19049075 -0.26311082 0.092193805 -0.15378979
000200 32 05 15 be 43 19 bf 3d d6 b1 fe be 25 77 00 be
       -0.14552763 0.0933099 -0.49745053 -0.1254545
000210 31 25 5d 3e 68 b2 ed bc c8 3a 4b 3e 6f 1f c8 3e
       0.21596219 -0.029015735 0.19846642 0.39086482
000220 0d 0b 63 3d aa d8 82 be 52 5a 20 bd 6c d0 b4 bd
       0.05543046 -0.25555927 -0.039148636 -0.08828816
000230 84 10 d9 be 1a c5 b7 be 49 b4 77 3e 11 46 ec 39
       -0.42395413 -0.35892564 0.24189867 0.0004506563
000240 e4 62 40 bd b3 63 4c 3e c1 a9 4e be fa 0d 02 3e
       -0.04696931 0.19959907 -0.20181943 0.12700644
000250 47 7d d0 be 4c cd 70 3e 09 13 c2 3e 35 a1 9a 3a
       -0.4072058 0.23515815 0.37905148 0.0011797311
000260 39 27 10 3f 7c b2 fd be c2 f5 a9 3e 75 3c d0 3e
       0.5630985 -0.49550235 0.3319531 0.40671125
000270 94 b0 f8 3d b4 a5 2b be f3 66 07 3e e0 59 ac 3c
       0.121430546 -0.1676243 0.13222866 0.02103895
000280 e8 79 83 3e b1 d7 09 39 fc 29 03 3e a4 8c 77 3e
       0.25678945 0.0001314569 0.12808985 0.24174744
000290 b3 87 87 bd 52 61 e9 3e 68 17 eb be 0b a0 01 bd
       -0.066176794 0.45582062 -0.45916295 -0.03164677
0002a0 f1 55 fb 3d 47 95 e1 bd b3 c4 ee bc fd 30 90 be
       0.122722514 -0.110148005 -0.029146528 -0.28162375
0002b0 8f 5b cc bd 3d 73 fd 3e b5 86 a0 3d 4d 67 63 3e
       -0.09978401 0.49501982 0.07838193 0.22207375
0002c0 44 0e 42 3e 94 3c 37 3e d8 41 0c 3d 51 5c f0 3c
       0.18950754 0.17894202 0.03424248 0.029340895
0002d0 15 ce 1d 3e 24 4b 8d be e8 0a 2d be e5 a5 f6 3e
       0.15410645 -0.2759639 -0.16898692 0.48173442
0002e0 d8 7c be be 58 b2 09 3e f0 41 81 be b6 14 1b bd
       -0.37204623 0.13446939 -0.2524562 -0.03786155
0002f0 67 fb 6d bd 2e 45 ba 3d 0b 50 f4 3d db d8 f9 3d
       -0.058101084 0.09095226 0.119293295 0.12199565
000300 ae e6 8c be 37 eb 51 bb c2 17 cb bd 9b e9 40 3e
       -0.27519745 -0.0032031068 -0.09916641 0.18839113
000310 d7 20 9b 3e 32 68 29 3c d7 11 2f 3f 00 02 5f be
       0.30298492 0.0103397835 0.68386596 -0.21778107
000320 74 a3 20 bf eb 93 15 bf 48 f1 d7 3e cd 28 fa 3e
       -0.6274941 -0.5842883 0.4217627 0.48859254
000330 b5 04 1d 3e da d9 e5 be 7b ba c7 be 5d 93 03 bd
       0.15333827 -0.4489277 -0.3900946 -0.03212296
000340 a8 52 f1 3d c6 e8 6b 3e 8a 92 97 be f9 e3 66 be
       0.117833436 0.23038015 -0.29603988 -0.22547902
000350 2a fb 83 bd 6f b6 7a 3c 69 25 a0 3e b6 56 b5 be
       -0.0644439 0.015302285 0.31278542 -0.35417718
000360 dc 45 be 3e c6 20 7d be d3 b7 c2 3d 38 1b b3 3e
       0.37162673 -0.24719533 0.09507718 0.34981704
000370 4b ea d4 3d 7f 82 1e be d3 e1 51 3e bf 5a 15 3d
       0.1039625 -0.15479468 0.20496301 0.036463495
000380 1a 12 b5 3d b8 53 24 3e cc 84 35 3d 94 74 b8 be
       0.08841343 0.16047561 0.044316098 -0.36026442
000390 c4 a8 24 bd 79 80 81 3c bc 03 b5 3e 8e cc 3f be
       -0.04020001 0.01580833 0.35354412 -0.18730375
0003a0 69 6c 95 3d 94 4d 05 bf b1 97 bc 3d 96 6f 84 3e
       0.07296068 -0.520715 0.0920862 0.25866383
0003b0 b3 45 ff 3d aa 30 0f be fa 04 16 be f5 e6 ea be
       0.12464466 -0.13983408 -0.14650336 -0.4587933
0003c0 32 4c f8 3e e8 ca cb 3e b2 88 97 be d2 4a 87 be
       0.48495632 0.39803243 -0.29596478 -0.2642427
0003d0 b2 13 92 3d 5a bd 76 3e 43 77 02 3e 66 0e 41 3e
       0.07132663 0.2409567 0.12740807 0.18853149
0003e0 8a 44 6b be c0 80 6c bd 18 b1 01 3f cf 1f 82 3d
       -0.22975364 -0.057739973 0.5066085 0.06353723
0003f0 0b 33 1e 3f 44 8c c6 be c7 25 6d be 57 ef eb be
       0.61796635 -0.3877889 -0.23158942 -0.4608104

aggregator.0.weights.bias f4 [16]
000000 9e 9d b3 3c ec d3 ad bc c2 75 52 bd dc 28 0f 3c
       0.021925744 -0.021219216 -0.051381834 0.008737769
000010 76 77 09 3c b2 61 b8 bd 6d 4d 6f be bb b2 cd bd
       0.008390298 -0.09003009 -0.2336938 -0.10043856
000020 db 2e 05 3d 1e 4e 22 3b 35 33 eb 3e 46 c0 c7 3e
       0.032515388 0.00247658 0.45937505 0.3901388
000030 8f 63 09 bd 26 d6 4d bc b1 05 8d bc 3f 31 43 3d
       -0.033542212 -0.012563264 -0.017214628 0.047654387

aggregator.1.weights.weight f4 [16, 16]
000000 8e 12 c7 be 8f 11 b2 bd c7 b9 aa be 57 73 fa be
       -0.38881344 -0.08694755 -0.33344862 -0.48916122
000010 64 bf 18 be eb b3 31 be 11 96 93 be f3 a4 b1 be
       -0.1491676 -0.1735379 -0.2882543 -0.3469616
000020 27 5b 91 3d 29 60 24 be 27 ed 91 3e e8 80 ce 3e
       0.07097464 -0.16052307 0.28501245 0.40332723
000030 ed 01 15 bf 7f 1a 73 be b9 19 b3 be 01 1d 72 be
       -0.58206064 -0.23740576 -0.34980562 -0.23643877
000040 c8 29 40 3e 28 1a 81 3e 52 a3 b5 3e 59 18 68 3e
       0.18765938 0.25215268 0.35476166 0.22665538
000050 ea 45 3b 3e 62 08 81 3e 86 d5 0d 3b 0a 48 2c 3d
       0.18288389 0.25201708 0.0021642162 0.04206089
000060 c6 35 79 be 60 11 cd 3e 95 34 c4 be 40 86 d1 be
       -0.24336919 0.4005232 -0.38321367 -0.40922737
000070 e9 f4 01 3e 93 ee b9 3e 3f 9b 7e 3e 7d 90 9c 3e
       0.12691082 0.3631483 0.24863909 0.30578986
000080 e6 a4 6f 3d fc a2 8e be 70 da b0 be 60 a0 ca be
       0.05850687 -0.27858722 -0.34541655 -0.3957548
000090 de 58 3a 3e 55 c7 22 be e3 32 42 bd 3f 8b 61 be
       0.18197963 -0.15896352 -0.04741181 -0.22025774
0000a0 03 47 49 be 16 88 f9 be a5 15 d7 3d 23 26 d5 3e
       -0.19655995 -0.48736638 0.10502175 0.41630659
0000b0 02 f1 ea be 0f 36 81 be b9 e4 d7 be 16 d2 8d bd
       -0.45887 -0.25236556 -0.4216669 -0.06924836
0000c0 22 6e 3d 3e 68 85 6c 3d 5c 15 80 3e d2 48 be 3e
       0.18499044 0.057744414 0.25016296 0.37164932
0000d0 f9 76 a4 3e aa 88 d3 3d ea c5 65 3d ca dc cf 3d
       0.3212202 0.10328801 0.05609695 0.10149534
0000e0 1f 65 1b be ef 21 b8 3e 30 9e 8a be ea c5 9d be
       -0.15175293 0.3596339 -0.27073812 -0.3081506
0000f0 95 32 4b 3e 55 d5 4a 3e 37 d7 8b 3e e2 56 b7 bd
       0.19843514 0.19807942 0.27312633 -0.089521185
000100 35 ec 03 bf ee 44 b8 be 91 89 d6 bc d2 07 3f 3d
       -0.515323 -0.3599009 -0.026188644 0.046638317
000110 02 33 69 be 19 16 8c be 2d 54 4a 3d 43 a8 83 be
       -0.22773364 -0.2736061 0.049396683 -0.2571431
000120 b9 55 7e be 70 b0 55 3d a1 ef 8a 3d a6 2d 3c 3e
       -0.24837388 0.052170217 0.06783987 0.18376788
000130 6c c2 3a bf 1c 18 8c be 1c 0d c4 bd 67 46 4d 3c
       -0.72952914 -0.27362144 -0.09572813 0.012528992
000140 a8 ff 9f bd be 19 68 3c e6 02 b0 bc 05 45 ad be
       -0.078124344 0.014166294 -0.021485757 -0.3384172
000150 57 40 8a be 7b 98 03 3e 9b d3 32 3d e4 3f 00 be
       -0.27002212 0.12851135 0.043658834 -0.12524372
000160 33 90 98 3e 8a 62 22 3e 0e 6d bb bd 71 c0 4f 3e
       0.29797515 0.15857902 -0.0915166 0.20288254
000170 51 4d d8 3c df 37 8d 3d f2 69 0f be 68 c2 33 be
       0.026404055 0.06895422 -0.14005259 -0.17554629
000180 e2 d5 66 3e 72 4b eb bd 98 f4 a6 be 14 6a df be
       0.22542527 -0.114889994 -0.32608485 -0.4363562
000190 6c 5b c0 3c ce 83 10 be 49 ec 84 be b7 3f 5c be
       0.023481093 -0.1411278 -0.2596152 -0.2150868
0001a0 3a df 71 be 5e 85 ba be df 9a 8c 3e 74 56 d5 3e
       -0.2362031 -0.36429876 0.27461907 0.4166752
0001b0 74 bf 16 bf 9c fc 8d be b7 a7 36 be a1 88 03 be
       -0.58885884 -0.27731788 -0.17837416 -0.12845089
0001c0 88 1e 55 bd a6 6d a4 3c 21 47 87 3d 90 41 4d 3e
       -0.05203107 0.020071816 0.06605364 0.20044541
0001d0 2f 5f 70 bd 9c 0e 09 3e 7c 66 7f bd 3f 82 06 be
       -0.058684524 0.1338448 -0.062353596 -0.13135622
0001e0 9b 19 32 be d2 09 a2 3e de 40 ef 3e 10 fa 8b 3b
       -0.1739258 0.31648117 0.46729177 0.004271753
0001f0 3f 85 7d be 57 f5 1b 3c b7 85 53 be 9c 63 17 bf
       -0.2475786 0.009518943 -0.20656477 -0.59136367
000200 4c 94 55 3e 28 8b 99 3e c0 54 0c be b7 3b 39 3e
       0.20857352 0.2998898 -0.13704205 0.18089186
000210 9f ca e0 bd 6f b3 87 3d f3 4f 7f 3d 37 c4 83 be
       -0.10976147 0.06626021 0.062332105 -0.25735638
000220 7e 8c 9d 3e 86 d4 a1 3e a8 1f 2d bc a3 e2 31 be
       0.3077125 0.31607455 -0.0105666295 -0.17371611
000230 26 92 19 3e bb 5d 63 3e 3f db 62 3e fe 29 b0 be
       0.14997157 0.22203724 0.22153948 -0.34407037
000240 21 af 9d 3d f4 0c a5 3e 4a 29 eb bd 4f 6e ee 3e
       0.07699419 0.32236445 -0.11482485 0.46568534
000250 3c 9b 01 be 8f e7 40 3d 15 9c a1 bc 67 5f 79 be
       -0.12656873 0.04709583 -0.019727746 -0.243528
000260 fe 9a 53 be 8a fd 64 3e 66 78 eb bd 3d f0 bb be
       -0.20664594 0.22362342 -0.114975736 -0.36706725
000270 b0 67 20 3e 1f 8c da 3e 36 bf 02 3c 62 f0 93 be
       0.15664554 0.4268503 0.007980159 -0.28894335
000280 a8 5b 80 3e a0 31 01 3d db 3e 41 3e 1f 4c fe 3e
       0.25069928 0.031541467 0.18871634 0.4966745
000290 aa 34 90 3e da 17 7a 3e 23 cf e6 3d dd 8e 76 bd
       0.2816518 0.24423161 0.11269977 -0.06019484
0002a0 f8 ed ed bd a3 4c 93 3e 46 05 68 be 72 ff 48 bd
       -0.116176546 0.28769407 -0.22658262 -0.049071737
0002b0 d1 25 e4 3e 31 8f 21 bd f0 13 10 3f 9e c7 8c bd
       0.44560102 -0.0394432 0.5628042 -0.068740115
0002c0 65 74 5a bd be 09 de 3e 23 72 88 bd 9c 35 8f be
       -0.05333366 0.43366808 -0.06662395 -0.27970588
0002d0 8d 20 55 be ec 3e b9 bd a9 1f 40 3d 6f 85 45 3d
       -0.20813198 -0.090452045 0.046905193 0.048222955
0002e0 45 54 3a 3e 17 e9 c8 3d 62 47 5d bd 8a e8 8b 3d
       0.18196209 0.09810083 -0.054023154 0.06831463
0002f0 d4 89 39 3e c3 37 3a 3c a1 ea ed bd 2a fc 2d 3f
       0.18118984 0.011365834 -0.116170175 0.67962897
000300 f5 45 e1 be dc d5 b5 be cf b0 d9 be 13 78 1f 3e
       -0.43998685 -0.35514724 -0.42517707 0.15573148
000310 2f c3 3c be bf 2a 1b 3e 08 fd 80 be c4 7b b9 bd
       -0.18433832 0.15153025 -0.25193048 -0.090568095
000320 15 7b 85 be 5c 33 c6 bd 9f 33 05 3e 08 8c 26 3d
       -0.26070467 -0.09677765 0.13007973 0.040660888
000330 16 18 46 3e a1 08 9a be ea 11 95 be 7a 70 7f bd
       0.19345126 -0.30084708 -0.2911523 -0.062363125
000340 f5 96 cc be da 2f 4c be 60 0b b2 bd ca e4 e3 3e
       -0.3995892 -0.19940129 -0.08693576 0.4451049
000350 70 4b 3c be 2d 3b 50 3e ea f7 4c 3e 64 b0 98 bd
       -0.18388152 0.20335074 0.20016447 -0.07455519
000360 57 de c3 bd 18 ec a5 3e 2b be 5d be 41 dd 5d be
       -0.09563892 0.32406688 -0.21654575 -0.21666433
000370 8b aa 09 3f fb e3 01 3e 96 af 2b be 43 17 1d be
       0.5377585 0.12684624 -0.167662 -0.15340905
000380 ec e1 93 be cd cd e3 bd 78 96 03 bf a2 06 4f be
       -0.28883302 -0.11123238 -0.5140147 -0.20217374
000390 ed 7d 8f be 51 74 90 be e8 51 01 be 49 b3 d0 ba
       -0.2802576 -0.28213742 -0.12628901 -0.0015922572
0003a0 9f 36 dd be 61 ac 06 be 1f 85 0b 3f 7d fd 15 3e
       -0.43205735 -0.13151695 0.545 0.1464748
0003b0 7b cf 3b bf 6a b4 ed bd e2 ca 3c be fc ed c2 be
       -0.73363465 -0.11606677 -0.18436769 -0.38072193
0003c0 86 6d a5 3e 49 bc 85 be 05 f4 f2 bd 83 f4 8e 3e
       0.32310122 -0.26120213 -0.11862949 0.27920923
0003d0 d5 87 07 3e 6b 72 5e 3d 1e 91 d3 bc dc 44 2e be
       0.1323541 0.054308336 -0.025826033 -0.17018455
0003e0 8c 0f 80 3e 24 2a 15 bf 87 b7 eb bd 0f 0a 4e 3e
       0.2501186 -0.58267426 -0.115096144 0.20121025
0003f0 58 37 d3 3e a3 c3 5c be a6 2f d9 3a 16 03 7b be
       0.4125316 -0.21559004 0.0016569986 -0.24512896

aggregator.1.weights.bias f4 [16]
000000 f9 b2 62 3e 5c b2 9c be cb 57 a1 3e 4a 43 0b be
       0.22138585 -0.30604827 0.31512293 -0.13599887
000010 4b 5f a3 bb 70 7a c6 bd 68 4e 90 3e 4f ab b2 3e
       -0.004985725 -0.09691322 0.2818482 0.34896323
000020 8f 98 b1 be d4 5f 8f be 80 bb 2d 3d 70 f3 4d bd
       -0.34686705 -0.280028 0.042415142 -0.05028099
000030 4e 50 dd bd 76 a1 8a bd da 4c 1b 3f 53 e5 38 3d
       -0.108063325 -0.067690775 0.6066414 0.045140576
