kgraph_models/model_node_8000_0.7270439599171931.pt (torch, 728580 bytes, 7 tensors)

usr.weight f4 [1872, 16]
0	0xbd104bf6	-0.035228692
1	0x3ea2eabe	0.3181972
2	0xbd45cfec	-0.048293993
3	0x3be2d578	0.00692242
4	0xbe45d8f9	-0.1932105
5	0xbe49984d	-0.19687004
6	0x3d2d04cf	0.042240914
7	0x3e8054e3	0.25064763
8	0x3c61e8e2	0.013788434
9	0xbc247e5e	-0.010039894
10	0x3da7a107	0.081850104
11	0x3e1237fe	0.14279172
12	0xbe3cbab9	-0.18430604
13	0xbc8cb028	-0.017173842
14	0x3db47d3e	0.088129506
15	0xbe2fb73d	-0.17159744
16	0x3dbe4d56	0.092920944
17	0xbdd05739	-0.101728864
18	0x3daaee8e	0.08346282
19	0xbdb876d9	-0.090070434
20	0x3d886dd2	0.066615716
21	0x3d0b2169	0.03396741
22	0x3db71c51	0.08940948
23	0x3dc49170	0.095980525
24	0xbdb6343a	-0.0889668
25	0xbdc2dd7d	-0.09514902
26	0xbd84fbcb	-0.06493338
27	0xbd5997b4	-0.05312319
28	0x3d43b16c	0.047776625
29	0xbdc27763	-0.094954275
30	0x3dce94fd	0.10087011
31	0x3d65197f	0.055932518
32	0xbe216841	-0.15762426
33	0x3e4638cc	0.19357604
34	0xbea671e1	-0.32508758
35	0x3e6f8004	0.23388678
36	0xbd29a3a8	-0.04141584
37	0xbc31f285	-0.010861044
38	0xbe511c0d	-0.20420857
39	0x3d700b16	0.058604322
40	0x3ecbf114	0.39832366
41	0x3eda5116	0.4263999
42	0x3d65ea9d	0.056131948
43	0xbdd27fa8	-0.10278255
44	0x3db28dbe	0.087184414
45	0x3e8f118f	0.27943084
46	0xbe4fb826	-0.20285091
47	0x3d875b77	0.066092424
48	0xbe83d901	-0.25751498
49	0x3e27a8cc	0.16372985
50	0xbeac1940	-0.33613014
51	0x3da72bfc	0.08162686
52	0xbe57cac3	-0.21073441
53	0x3e1816ac	0.14852399
54	0xbee1da25	-0.44111744
55	0xbf1ee98f	-0.6207513
56	0x3c7ba011	0.015357987
57	0xbdcf292c	-0.10115275
58	0x3de29390	0.110633016
59	0x3eb8afd8	0.36071658
60	0xbd69507f	-0.056961533
61	0x3e6b0fd5	0.22955258
62	0xbf050f31	-0.51976305
63	0x3e7e0d11	0.24809672
64	0xbd81be5a	-0.06335135
65	0xbbdb0079	-0.006683406
66	0xbd956781	-0.072951324
67	0x3c567186	0.0130885895
68	0xbee0887f	-0.43854138
69	0xbe8f67ea	-0.28008968
70	0x3dfaeae8	0.12251836
71	0x3deb6842	0.11494495
72	0x3ca01b3e	0.01954424
73	0xbe441d42	-0.19151786
74	0x3ebff419	0.3749092
75	0x3e9b239c	0.30300605
76	0xbea8c2b5	-0.3296105
77	0xbdbd4cf9	-0.09243197
78	0xbe0db449	-0.13838305
79	0x3dee1559	0.116251655
80	0xbe9a27d1	-0.30108503
81	0x3eb071be	0.34461778
82	0xbea54514	-0.32279265
83	0x3e072bf4	0.1320036
84	0xba8963d2	-0.0010482019
85	0xbd23161a	-0.039816
86	0xbdbbbd48	-0.09166962
87	0xbebee331	-0.37282708
88	0x3dd29a3b	0.102833234
89	0x3de5e438	0.1122517
90	0x3dcfb9bf	0.1014285
91	0x3d911b3c	0.07085273
92	0x3cd1d0e7	0.025612308
93	0x3dc6757b	0.09690376
94	0xbecf9da8	-0.4054997
95	0xbe219883	-0.15780835
96	0xbed491fe	-0.41517633
97	0x3d174bce	0.036937527
98	0xbd5e28a7	-0.054237988
99	0x3e10d927	0.14145337
100	0x3d702f85	0.05863907
101	0xbca414f7	-0.020029528
102	0xbe153cad	-0.14573927
103	0xbe5680ae	-0.20947525
104	0x3d9b1e46	0.075741336
105	0x3e49b19a	0.19696656
106	0x3d8feade	0.07027219
107	0x3e01edad	0.12688322
108	0x3e0ee021	0.13952686
109	0x3deee869	0.116654225
110	0xbd2d0e1b	-0.04224978
111	0x3d9c7cf4	0.076410204
112	0xbe3aca93	-0.18241338
113	0x3e5af57c	0.21382707
114	0xbe2a70fd	-0.16644664
115	0x3e528bf2	0.20561197
116	0xbe2ad985	-0.1668454
117	0xbe64f6a6	-0.22359714
118	0xbe1342c0	-0.14380932
119	0x3bf6ace2	0.0075279335
120	0x3e10cf89	0.14141668
121	0x3e310f3f	0.17290972
122	0x3e609a30	0.21933818
123	0x3cb0c287	0.021577133
124	0xbd27d318	-0.0409728
125	0x3e104817	0.1409
126	0xbe3ff670	-0.18746352
127	0x3b9a13e2	0.0047020772
128	0xbe7ab1a6	-0.2448183
129	0x3e8497c1	0.2589703
130	0xbe613773	-0.21993808
131	0x3e722aba	0.23649111
132	0xbe3d1013	-0.18463163
133	0xbc420360	-0.011841625
134	0xbe61386f	-0.21994184
135	0xbe8bfea5	-0.27342716
136	0x3e87e305	0.2654039
137	0x3e5770c8	0.21039116
138	0x3e010bcd	0.12602158
139	0x3e1a1117	0.15045582
140	0xbe3de2d3	-0.18543558
141	0x3d6eb53d	0.05827831
142	0xbe7b691d	-0.24551816
143	0xbc765797	-0.0150355315
144	0xbe804ae5	-0.2505714
145	0x3e6ff1e6	0.2343212
146	0xbe6d3ef4	-0.23168546
147	0x3e7f855e	0.2495322
148	0xbe103246	-0.14081678
149	0xbdefa295	-0.11700932
150	0xbe8b6d6c	-0.2723192
151	0xbe2f41b3	-0.17114906
152	0x3dcfd35e	0.10147737
153	0x3ddcf371	0.1078862
154	0x3e58f06a	0.2118546
155	0x3e6fe6dc	0.2342791
156	0xbdf13dd9	-0.11779375
157	0x3e1248de	0.14285609
158	0xbe80001d	-0.25000086
159	0xbe0b6b14	-0.13615066
160	0xbe1b1998	-0.15146482
161	0x3e462462	0.19349816
162	0xbe389c3b	-0.18028347
163	0x3df835d7	0.12119644
164	0xbc0a484c	-0.0084400885
165	0xbd2c78f3	-0.042107534
166	0xbe3ded77	-0.18547617
167	0xbc76976a	-0.015050748
168	0x3e118d8f	0.14214157
169	0x3e81ebdf	0.25375268
170	0x3dc3630b	0.09540375
171	0xbd89264b	-0.06696757
172	0x3d3ac17f	0.04559469
173	0x3e660f80	0.2246685
174	0xbe44266e	-0.19155285
175	0xbd162dc4	-0.03666474
176	0xbe888569	-0.26664284
177	0x3ec1c868	0.3784821
178	0xbeb6df29	-0.35717133
179	0x3e85f862	0.26166064
180	0x3dd1b3d5	0.10239378
181	0xbd986831	-0.07441748
182	0xbee51bd4	-0.44747794
183	0xbe5da9be	-0.21646783
184	0x3e3874bc	0.1801328
185	0x3db91daa	0.09038861
186	0x3e25aa84	0.16178328
187	0x3d24bae7	0.040217306
188	0xbd84d7cb	-0.06486472
189	0x3e8c8a7b	0.27449402
190	0xbf169391	-0.5881892
191	0xbd7fd205	-0.06245615
192	0xbda288e6	-0.079362676
193	0x3de6a4ba	0.11261888
194	0xbe2a7cfe	-0.16649243
195	0x3e09f72d	0.13473196
196	0xbec69497	-0.3878524
197	0xbe789ae1	-0.24277832
198	0xbd7fdd54	-0.062466934
199	0x3e3014b9	0.17195405
200	0x3e1307f7	0.14358507
201	0x3de7c471	0.11316765
202	0x3dd2f268	0.103001416
203	0x3e1442aa	0.14478555
204	0xbe9a3b3f	-0.30123326
205	0xbe1a6849	-0.15078844
206	0x3d1f73cf	0.038928803
207	0xbe22659e	-0.15859076
208	0xbe7c38e4	-0.24631077
209	0x3e564745	0.20925625
210	0xbdd2e255	-0.10297076
211	0x3e80bf0e	0.25145763
212	0xbe1e6f8f	-0.15472244
213	0xbd758d8a	-0.059949435
214	0xbe910c16	-0.28329533
215	0xbe33d722	-0.17562535
216	0xbd09e89d	-0.033669103
217	0xbda5b522	-0.08091189
218	0x3e746a87	0.23868762
219	0x3ee2dc5e	0.44308752
220	0xbeed4cea	-0.46347743
221	0xbdf4b0ba	-0.119477704
222	0xbef1a800	-0.47198486
223	0x3e294215	0.16529115
224	0xbd8134b1	-0.06308878
225	0x3d8f2049	0.0698858
226	0xbd8a56cf	-0.06754839
227	0x3dcd0c0e	0.10012065
228	0xbe20608b	-0.15661828
229	0xbe5d62de	-0.21619746
230	0xbe5424f7	-0.20717226
231	0xbedea492	-0.43484932
232	0xbe700af0	-0.23441672
233	0xbb4c8440	-0.0031206757
234	0xbd8ea5ef	-0.06965243
235	0x3d996db3	0.074916266
236	0xbd1d1416	-0.038349234
237	0x3d71b591	0.059011046
238	0xbe0731e1	-0.13202621
239	0x3cf69957	0.030102415
240	0xbe27481f	-0.16336106
241	0x3e717497	0.23579632
242	0xbe1c8d0a	-0.15288177
243	0x3e4454e9	0.19173016
244	0xbdd516b1	-0.10404719
245	0xbccedccb	-0.025251767
246	0xbe2c25ed	-0.16811343
247	0xbe93b97d	-0.28852454
248	0x3e149c7a	0.14512816
249	0x3e150b99	0.14555205
250	0x3d8ceb02	0.06880762
251	0x3e26a325	0.16273172
252	0xbdaee8de	-0.0854051
253	0x3dde9202	0.108676925
254	0xbe7faae0	-0.24967527
255	0xbe09fd4c	-0.13475531

ent.weight f4 [9367, 16]
0	0x00000000	0.0
1	0x00000000	0.0
2	0x00000000	0.0
3	0x00000000	0.0
4	0x00000000	0.0
5	0x00000000	0.0
6	0x00000000	0.0
7	0x00000000	0.0
8	0x00000000	0.0
9	0x00000000	0.0
10	0x00000000	0.0
11	0x00000000	0.0
12	0x00000000	0.0
13	0x00000000	0.0
14	0x00000000	0.0
15	0x00000000	0.0
16	0x3c120f22	0.008914741
17	0x3dc62b53	0.09676232
18	0xbdc2ba34	-0.09508172
19	0xbdedcf93	-0.11611857
20	0x3e030654	0.12795383
21	0xbdd123b8	-0.10211891
22	0x3dab4fb3	0.08364811
23	0xbd3a05da	-0.045415737
24	0xbd8f2b70	-0.06990707
25	0xbd729eda	-0.059233524
26	0xbc084941	-0.008318246
27	0x3d33e142	0.043915994
28	0x3dda3087	0.10653787
29	0xbdd0d44e	-0.10196744
30	0xbdad9007	-0.08474737
31	0xbe090541	-0.1338091
32	0x34664d6f	2.144859e-07
33	0x33b76b37	8.541104e-08
34	0xb58b6bd6	-1.0387691e-06
35	0x3396c52c	7.020785e-08
36	0x34e365eb	4.23562e-07
37	0xb39901af	-7.124924e-08
38	0xb4ba92cf	-3.4752017e-07
39	0xb396e04b	-7.025718e-08
40	0x325c0357	1.2806445e-08
41	0x3463ca41	2.1214602e-07
42	0x31595610	3.1626577e-09
43	0x3345c624	4.6047845e-08
44	0xb430db51	-1.6471064e-07
45	0xb4fe9d14	-4.7425476e-07
46	0x3480b00b	2.3969946e-07
47	0xb397fc6c	-7.077401e-08
48	0x3d4f97a0	0.05068171
49	0x3cfcea67	0.03087349
50	0x3b568311	0.003273193
51	0xbc6f0957	-0.014589629
52	0x3d5829a7	0.052774098
53	0xbcc92e55	-0.024558226
54	0xbd222129	-0.039582405
55	0x3d2ca069	0.042145167
56	0xbc646a8f	-0.013941421
57	0x3d278d5c	0.040906295
58	0xbcf9217c	-0.030411474
59	0xbd3af8b3	-0.045647334
60	0xbc77b1b9	-0.015118056
61	0x3ce5fc36	0.028074365
62	0x3cd3cc1e	0.025854167
63	0x3c9f9f5f	0.019485174
64	0xbce02e30	-0.027365774
65	0xbc7345ed	-0.014848215
66	0xbbb73837	-0.005591418
67	0xbaef6f37	-0.0018267398
68	0xbbf74b43	-0.0075468137
69	0xbbd0893b	-0.0063640154
70	0x3c6e863c	0.014558371
71	0x3bad32d3	0.0052855997
72	0xbc8f556c	-0.017496787
73	0xbcb75899	-0.022381114
74	0x3cc9e657	0.024645967
75	0x3cf01968	0.02930899
76	0x3be1e4ea	0.0068937438
77	0xbbcbe5a9	-0.006222446
78	0xbd0f706e	-0.03501933
79	0xbcc769a1	-0.02434236
80	0xbd9c9379	-0.07645316
81	0x3cece8ef	0.028919665
82	0xbd4ed32f	-0.05049437
83	0xbd168abc	-0.0367534
84	0xbdd293aa	-0.10282071
85	0x3d718875	0.058968026
86	0x3dcdfe2c	0.10058245
87	0xbdcfd993	-0.10148921
88	0x3dd319dd	0.103076674
89	0xbdcf5714	-0.10124031
90	0x3dbc677e	0.09199427
91	0x3de13a27	0.1099742
92	0x3d6b9dd3	0.05752356
93	0xbd8fe3ac	-0.07025847
94	0xbc2ad297	-0.010426185
95	0xbd95f4c0	-0.07322073
96	0x31aef9f4	5.092483e-09
97	0x34b17788	3.305579e-07
98	0xb1ca0ab4	-5.8801906e-09
99	0x3101c045	1.8881263e-09
100	0xb010bb54	-5.2653104e-10
101	0xb07beb9e	-9.16481e-10
102	0x31189274	2.220216e-09
103	0x31b8dd3d	5.3802567e-09
104	0x312610a8	2.4165647e-09
105	0xb0bf7989	-1.3931621e-09
106	0x31abc50b	4.999156e-09
107	0xb1e774ca	-6.736262e-09
108	0xb1dac1c0	-6.366662e-09
109	0xb0390268	-6.730603e-10
110	0xb1dd4c3d	-6.440614e-09
111	0xb0b9a66b	-1.350782e-09
112	0xbbaa8bf3	-0.0052046715
113	0xbd2188e2	-0.039437182
114	0x3cbc4a2f	0.022984592
115	0x3d12b002	0.035812385
116	0xba6a2799	-0.0008932292
117	0xbc55fe77	-0.013061157
118	0xbc0527f6	-0.008127203
119	0x3c41a791	0.011819736
120	0xbd786449	-0.060642514
121	0x3c3c64f8	0.011498682
122	0xba5e00ea	-0.0008468764
123	0xbb5b64a6	-0.003347674
124	0xbc27e2ca	-0.010246942
125	0x3bec8e82	0.0072191367
126	0xbc9b66ab	-0.018969854
127	0x3c054590	0.008134261
128	0xbd232989	-0.039834533
129	0xbca98421	-0.020692887
130	0x3a145695	0.00056586537
131	0x3ab0478b	0.0013449056
132	0xbd04bf51	-0.032409016
133	0xbbb03f1f	-0.0053786184
134	0x3d58e064	0.05294837
135	0xbd350fde	-0.044204585
136	0x3d004e34	0.03132458
137	0xbd5bc467	-0.0536541
138	0x3d588536	0.052861415
139	0x3d49ef6f	0.049300607
140	0x3cc8bc05	0.024503717
141	0xbd5c1bff	-0.053737637
142	0xbcd5caab	-0.026097616
143	0xbd4a5f06	-0.049407028
144	0xbcd336d8	-0.025782987
145	0xbd805633	-0.06266441
146	0x3d8946c2	0.06702949
147	0x3d6c61c4	0.057710424
148	0xbdaff9d1	-0.085925706
149	0xbd6bfd53	-0.057614636
150	0xb9e96219	-0.00044514312
151	0xbc6d9e7f	-0.01450312
152	0x3ca37435	0.019952873
153	0x390ab6e5	0.00013228839
154	0xbcc4292e	-0.023945417
155	0x3c102433	0.008797693
156	0xbd2e6f01	-0.04258633
157	0x3c8f6d09	0.017508047
158	0xbc9d8cfb	-0.019232264
159	0x3c8d41a9	0.017243223
160	0xbcc10e32	-0.02356634
161	0xbd32dc93	-0.043667387
162	0x3c66958f	0.0140737435
163	0x3c796517	0.015221856
164	0xbce5e949	-0.02806534
165	0xbb112225	-0.0022145596
166	0x38ba96c7	8.8972556e-05
167	0xbb9e1d7c	-0.004825292
168	0xbc1f0456	-0.009705624
169	0x3a62cf59	0.0008652113
170	0x3bd0c421	0.0063710366
171	0x3be1e7e6	0.0068940995
172	0xba2c1770	-0.0006564772
173	0xb901f7cf	-0.00012394715
174	0xbca8a6e5	-0.020587394
175	0x3ab09c47	0.0013474309
176	0xbd3fe381	-0.046847824
177	0xbc412725	-0.011789118
178	0xbcd148f4	-0.025547482
179	0xbd0402f8	-0.032229394
180	0x3c676a78	0.014124505
181	0xbcd5a79c	-0.026080899
182	0x3d37c560	0.044865966
183	0xbccc8180	-0.024964094
184	0xbc05932d	-0.008152765
185	0xbd010e36	-0.031507693
186	0x3c1d4c67	0.009600735
187	0x3ca685c6	0.02032746
188	0x3bb28855	0.005448381
189	0xbd213e78	-0.039366215
190	0xbc927aff	-0.017880915
191	0xbd1565ba	-0.036473967
192	0x2f83175c	2.384536e-10
193	0x30f49571	1.779581e-09
194	0xb543b833	-7.2911206e-07
195	0xb1b044cd	-5.130096e-09
196	0xb185d050	-3.894492e-09
197	0xb189a9d3	-4.0065316e-09
198	0x31d88e05	6.302573e-09
199	0x30f51333	1.7831553e-09
200	0xb10a52f9	-2.0128808e-09
201	0xb150e45d	-3.0397793e-09
202	0x3179de17	3.6360512e-09
203	0xb1a7b4f7	-4.880913e-09
204	0x317aa1e9	3.6471823e-09
205	0x30a83dbb	1.2241154e-09
206	0x30d69ced	1.561515e-09
207	0xb0a1dcef	-1.1777085e-09
208	0xbd5778ee	-0.052605562
209	0xbd7b630a	-0.061373748
210	0x3dbec993	0.09315791
211	0x3d6cfbc5	0.057857294
212	0xbd6eda64	-0.058313742
213	0x3c02970f	0.0079705855
214	0xbc84f102	-0.016228203
215	0x3c22f4d3	0.009946066
216	0xbc8b7d6b	-0.017027577
217	0xba1c0d85	-0.00059529423
218	0x3d23e3a2	0.04001201
219	0x3d1e8732	0.03870315
220	0x3caab991	0.020840438
221	0xbc603914	-0.0136854835
222	0xbd0fe0f3	-0.035126638
223	0xbcd209d2	-0.025639448
224	0xbda7feaa	-0.0820287
225	0x3d1bf2e7	0.038073447
226	0xbd858950	-0.06520331
227	0xbd5999e4	-0.053125277
228	0xbd733987	-0.059381034
229	0x3d2dfa9c	0.042475328
230	0x3daa20b4	0.08307019
231	0xbd9998b1	-0.07499827
232	0x3d32c3f5	0.04364391
233	0xbda51999	-0.08061523
234	0x3da0cec3	0.07851937
235	0x3db1a0a2	0.086732164
236	0x3d384f8e	0.044997744
237	0xbda493d7	-0.08036011
238	0x3cb4d82a	0.022075731
239	0xbd8b1607	-0.06791311
240	0x3d0f8ae1	0.035044555
241	0xbc375340	-0.011189282
242	0x3bc99aab	0.006152471
243	0x3bc85fe3	0.006114946
244	0x3cd72356	0.026261967
245	0xbc4261f1	-0.011864171
246	0xbd4d8024	-0.050171033
247	0x3d43345e	0.047657363
248	0xbc3eec93	-0.011653083
249	0x3d416285	0.047213096
250	0xbd2d454a	-0.042302407
251	0xbd2dd400	-0.042438507
252	0xbd1bf7c1	-0.038078073
253	0x3d49e67c	0.049292073
254	0x3d7db3d6	0.061939083
255	0x3d3a5ad6	0.045496784

rel.weight f4 [61, 16]
0	0x00000000	0.0
1	0x00000000	0.0
2	0x00000000	0.0
3	0x00000000	0.0
4	0x00000000	0.0
5	0x00000000	0.0
6	0x00000000	0.0
7	0x00000000	0.0
8	0x00000000	0.0
9	0x00000000	0.0
10	0x00000000	0.0
11	0x00000000	0.0
12	0x00000000	0.0
13	0x00000000	0.0
14	0x00000000	0.0
15	0x00000000	0.0
16	0xbd31f2a0	-0.043444276
17	0xbe0adb64	-0.13560253
18	0x3e42ef5c	0.19036621
19	0xbe9eefb2	-0.31042248
20	0x3da46e7a	0.08028884
21	0x3f16da1b	0.5892655
22	0xbe736bdd	-0.23771615
23	0xbecac37a	-0.39602262
24	0xbeb37d8e	-0.35056728
25	0xbf11367a	-0.5672375
26	0xbeda2a88	-0.42610574
27	0x3efe94dd	0.4972295
28	0xbe65ffbc	-0.22460836
29	0xbe0f65fb	-0.14003746
30	0xbf93955d	-1.1529957
31	0x3f149f9c	0.58056045
32	0xbda52b3b	-0.08064886
33	0x3f09e358	0.53862524
34	0xbc7af2a4	-0.015316639
35	0x3ee0ff48	0.43944764
36	0xbee47198	-0.44617915
37	0xbef3cf2b	-0.47618994
38	0x3ee0dfae	0.43920654
39	0x3caea849	0.021320479
40	0xbe74c809	-0.23904432
41	0x3de55084	0.11196998
42	0x3deae7b5	0.11469976
43	0x3f3c0941	0.7345162
44	0xbed07d25	-0.40720478
45	0xbf151d02	-0.5824739
46	0x3e07b025	0.13250788
47	0xbdba1a48	-0.09087044
48	0xbe35a363	-0.17738108
49	0x3e4cc360	0.19996405
50	0xbde33cf4	-0.1109561
51	0xbeadf713	-0.33977565
52	0xbf950f5d	-1.1645314
53	0x3f49b1b6	0.7878679
54	0xbef36c99	-0.4754379
55	0x3e98ee1a	0.29869157
56	0x3e3b4340	0.18287373
57	0x3e96c1c6	0.29444712
58	0xbe5cfe15	-0.215813
59	0x3e5dbfc9	0.21655191
60	0x3c4c1c4a	0.0124579165
61	0x3f26b462	0.6511899
62	0x3dc9d014	0.09854141
63	0xbf08a36c	-0.5337436
64	0x3dcba7bc	0.09944102
65	0xbc8f529b	-0.017495444
66	0x3e4770f8	0.19476688
67	0xbdbf042a	-0.09326966
68	0x3e013921	0.12619449
69	0x3dc3bc03	0.09557345
70	0xbe0c6caa	-0.13713327
71	0xbe689f65	-0.22717054
72	0xbda35c0b	-0.0797654
73	0xbe4fba47	-0.20285903
74	0x3e6783e3	0.22608905
75	0xbd59f6e7	-0.05321398
76	0x3e5a0e98	0.2129463
77	0x3d8f947d	0.07010744
78	0xbdf8f6c7	-0.12156444
79	0xbe3fbaf7	-0.18723665
80	0xbe1c14f5	-0.1524237
81	0xbf9a07dd	-1.203365
82	0xbeb9c9d1	-0.36286786
83	0x3d8bfce3	0.06835344
84	0xbed28989	-0.41120556
85	0xbf26cd07	-0.65156597
86	0xbf1d7ba8	-0.6151681
87	0x3e195b0e	0.14976141
88	0xbf0b6421	-0.5444966
89	0x3d322b56	0.04349836
90	0x3d9e82c3	0.077397846
91	0xbfcae63c	-1.5851512
92	0xbec83bc2	-0.39108092
93	0x3eee3b9b	0.4652985
94	0x3e7847b0	0.24246097
95	0x3f10e2d8	0.56596136
96	0x3c3cc568	0.011521675
97	0xbae9efae	-0.0017847919
98	0xba5e92af	-0.00084904855
99	0xbaed4a98	-0.0018103896
100	0x3bb168c6	0.0054141013
101	0x3b2bf97a	0.002624123
102	0xbaf09e86	-0.001835779
103	0xbbbe6ad7	-0.005811076
104	0xbc2f2811	-0.010690705
105	0xbbb3bf7b	-0.0054854727
106	0xbbd4ebe6	-0.006497848
107	0x3b3c1694	0.002869998
108	0xbc38b974	-0.011274684
109	0xbbdd1a94	-0.006747553
110	0x3c279210	0.010227695
111	0xbbd6c771	-0.006554537
112	0xbc3cc55a	-0.011521662
113	0x3ae9d07d	0.0017838624
114	0x3a5e8cc2	0.00084896025
115	0x3aed4a50	0.0018103812
116	0xbbb167e8	-0.005413998
117	0xbb2bf890	-0.0026240684
118	0x3af09e33	0.0018357694
119	0x3bbe6aaa	0.005811055
120	0x3c2f2819	0.010690712
121	0x3bb3be58	0.005485337
122	0x3bd4eb58	0.0064977817
123	0xbb3c1738	-0.0028700363
124	0x3c38d1de	0.011280505
125	0x3bdd16b7	0.0067470926
126	0xbc279193	-0.010227579
127	0x3bd6c716	0.0065544946
128	0x3c4e1d6d	0.012580258
129	0x3c98571c	0.018596224
130	0x3d1ef769	0.038810167
131	0xbbb039d2	-0.0053779865
132	0x3d8a607b	0.067566834
133	0x3bb9ceab	0.0056703887
134	0x3bb949a1	0.005654529
135	0x3bcccd76	0.006250079
136	0xbbbaba3e	-0.0056984713
137	0xbbc64400	-0.0060505867
138	0xbd11dc43	-0.03561045
139	0x3c4422c2	0.0119711775
140	0x3bc75288	0.0060828365
141	0xbc951db8	-0.018202648
142	0x3d3714e5	0.04469766
143	0x3c6d6fad	0.014491958
144	0xbccdc45e	-0.02511805
145	0x3b7a5687	0.0038198547
146	0xbcc3d0da	-0.0239033
147	0x3cc79c61	0.02436656
148	0xbc92d1b2	-0.017922256
149	0x3b27b73f	0.00255914
150	0xbce6df90	-0.028182775
151	0xbd06a7ab	-0.032874744
152	0x3cb16023	0.021652287
153	0x3ce00623	0.027346676
154	0x3c5230f7	0.012829057
155	0x3ca158ae	0.019695606
156	0xbc967e91	-0.018370898
157	0xb9925fe0	-0.00027918722
158	0xbbb5f0c8	-0.005552385
159	0xbc5ca9d6	-0.013468226
160	0xbed5491f	-0.4165735
161	0x3e320d1a	0.1738781
162	0x3d00ebf5	0.031475026
163	0x3e3a3180	0.18182945
164	0x3e344e9e	0.17608115
165	0xbe76bbe6	-0.24095115
166	0xbcba8f18	-0.02277331
167	0x3ef1229e	0.47096723
168	0x3e8fb519	0.28067854
169	0x3f1a316b	0.60231656
170	0x3eb2c37a	0.34914762
171	0x3d461f71	0.04836983
172	0x3dce3dbd	0.100703694
173	0x3dc7fc71	0.09764946
174	0xbf1a41cc	-0.6025665
175	0xbe460049	-0.19336046
176	0xbcce8f00	-0.025214672
177	0x3b9b6e0e	0.004743344
178	0xbcdfd394	-0.027322568
179	0x3d091924	0.03347124
180	0x3dacbd32	0.08434524
181	0xbd1307d3	-0.035896134
182	0xbd85f96f	-0.06541716
183	0xbd205679	-0.039144967
184	0x3c11afd5	0.008892019
185	0x3c41df20	0.011832982
186	0x3cb276a0	0.02178508
187	0xbd9d654a	-0.07685335
188	0x3d3c911c	0.046036825
189	0x3d55d6f6	0.052206956
190	0x3c80bfa6	0.015716385
191	0x3d955b86	0.07292847
192	0x3c2693e4	0.010167096
193	0xbd519af6	-0.051173173
194	0x3e18eafa	0.14933386
195	0xbd9d5a42	-0.07683231
196	0x3d72e8f0	0.059304178
197	0xbdb14397	-0.0865547
198	0x3ccc13be	0.024911758
199	0x3ddcb2f4	0.1077632
200	0xbe417aea	-0.18894544
201	0xbe2fafb6	-0.17156872
202	0xbc5fec8d	-0.013667238
203	0x3c8fb43d	0.017541999
204	0x3b46d061	0.0030336606
205	0xbd282865	-0.04105415
206	0x3dc3c4c2	0.09559013
207	0x3bf09127	0.0073415223
208	0xbe9962d4	-0.29958212
209	0x3e11b1ca	0.14227977
210	0xbe2d9727	-0.16952191
211	0x3e2183e3	0.15772967
212	0xbe14fda0	-0.14549875
213	0xbd79ca49	-0.06098393
214	0xbd811ed2	-0.06304707
215	0xbd168d90	-0.0367561
216	0x3d2123df	0.03934085
217	0x3e138cf3	0.14409237
218	0x3e29b9eb	0.16574828
219	0x3d00b40b	0.031421702
220	0xbd6bc838	-0.05756399
221	0xbb44a0c2	-0.0030003046
222	0xbdcbf4f3	-0.0995883
223	0xbd9481eb	-0.072513424
224	0x3caa1462	0.020761672
225	0xbd300a80	-0.042978764
226	0xbbb1a5ee	-0.0054213917
227	0xbcc9cf17	-0.024634881
228	0x3b2f0648	0.0026706625
229	0xbbc01271	-0.0058615734
230	0x3d2b2c56	0.04179033
231	0x3cebe49a	0.02879553
232	0x3b128975	0.0022359763
233	0x3cf77b60	0.030210197
234	0xbd141a58	-0.036157936
235	0xbcad07bc	-0.021121852
236	0x3cda4798	0.026645467
237	0x3b9ca1d3	0.004780033
238	0x3d4d02e9	0.050051603
239	0xbbe0003b	-0.006835965
240	0xb74983e1	-1.2011239e-05
241	0x3c6eba1c	0.014570739
242	0x3bdf9877	0.006823595
243	0x3a9ae740	0.0011818185
244	0xbcedfbea	-0.029050786
245	0xbd01ca58	-0.03168711
246	0xbc905e0f	-0.017622976
247	0xbc8c4257	-0.017121477
248	0x3b9a6851	0.0047121425
249	0x3b85d2ec	0.0040839817
250	0xbaee8906	-0.0018198795
251	0xbd119266	-0.035540007
252	0x3c654367	0.013993121
253	0x3c9ceb52	0.019155178
254	0xbce477e1	-0.027889194
255	0x3d36c053	0.04461701

aggregator.0.weights.weight f4 [16, 16]
0	0x3d5471a9	0.051866207
1	0x3f09acae	0.53779113
2	0xbebd2126	-0.36939353
3	0xbf46dc11	-0.77679545
4	0x3f297979	0.6620098
5	0xbe640e1e	-0.2227101
6	0x3e9d47f3	0.30718955
7	0xbea4aaf0	-0.32161665
8	0x3eb34038	0.35009933
9	0xbec3ff90	-0.38280916
10	0xbece6a8b	-0.4031566
11	0xbe300cf5	-0.17192443
12	0x3d9722e0	0.07379699
13	0xbe2b979c	-0.16757053
14	0x3f098dc2	0.5373193
15	0xbd889a89	-0.066701
16	0x3eccad2b	0.39975867
17	0x3f39d13a	0.7258488
18	0xbef7a8c6	-0.4837095
19	0xbf132e6b	-0.57492703
20	0xbeb9241b	-0.3616036
21	0x3ed4a2c3	0.41530427
22	0x3e2f8135	0.17139132
23	0xbe0eff38	-0.13964546
24	0x3ed62223	0.4182292
25	0xbedf7e45	-0.43651024
26	0x3e3e69f2	0.18595102
27	0x3da513de	0.0806043
28	0x3e76eee5	0.24114569
29	0xbdbce3bc	-0.092231244
30	0x3f74376e	0.9539708
31	0x3e3e4440	0.18580723
32	0x3e8c8f32	0.27453
33	0x3f007abe	0.5018729
34	0xbdfffe99	-0.124997325
35	0xbef9505c	-0.48694122
36	0xbe99526d	-0.29945698
37	0xbe87abaf	-0.26498172
38	0x3f0c329b	0.5476472
39	0xbc7bc81b	-0.015367533
40	0x3e8dc809	0.27691677
41	0xbf0086c0	-0.5020561
42	0x3e4fa000	0.20275879
43	0xbd170a7d	-0.036875237
44	0x3ea38fa5	0.3194553
45	0xbe7c782c	-0.24655217
46	0xbda93a1f	-0.08263039
47	0xbec4ec47	-0.38461515
48	0xbf334116	-0.7002119
49	0xbf04a265	-0.51810294
50	0x3ec63eb0	0.38719702
51	0x3ebd8b76	0.37020463
52	0xbf17a2f1	-0.59233004
53	0x3d6a03fa	0.0571327
54	0x3f449203	0.76785296
55	0xbebfee80	-0.3748665
56	0xbe5f6fc0	-0.21819973
57	0xbf401531	-0.75032336
58	0x3de13f5f	0.10998415
59	0x3f07ca46	0.5304302
60	0x3e65250b	0.22377412
61	0xbe425980	-0.18979454
62	0xbeec9a67	-0.4621155
63	0xbe93cb77	-0.2886617
64	0x3ea0bd09	0.31394222
65	0x3e010d33	0.12602691
66	0x3c94e695	0.018176356
67	0xbf2e1f27	-0.68016285
68	0x3dc45aa3	0.095876
69	0xbee07d69	-0.4384568
70	0x3e7c5a41	0.24643804
71	0xbe8cd1d7	-0.27503845
72	0xbe1997a5	-0.14999254
73	0xbe982985	-0.29719177
74	0xbf1569ca	-0.58364546
75	0x3a7cfa4d	0.0009650335
76	0x3ed278f4	0.41107905
77	0xbdef9264	-0.11697844
78	0xbf0027c9	-0.5006071
79	0xbed1176b	-0.4083818
80	0xbefe725e	-0.4969663
81	0xbeb3c70d	-0.351128
82	0x3d949c08	0.07256323
83	0x3be79818	0.0070676915
84	0xbe01b535	-0.12666781
85	0xbde14d5c	-0.11001083
86	0x3eb2f768	0.3495438
87	0xbe9dd7f2	-0.30828816
88	0x3dffa54b	0.12482699
89	0xbed9b55d	-0.42521182
90	0x3e12b3fe	0.14326474
91	0x3e98550a	0.2975238
92	0xbe3b63a6	-0.18299732
93	0xbe747256	-0.2387174
94	0x3caad4dc	0.020853452
95	0xbe182bbf	-0.14860438
96	0xbe16a7b4	-0.14712411
97	0x3d40d4c3	0.047077905
98	0xbde9e68c	-0.114209265
99	0xbe8f8a14	-0.28035033
100	0xbd9f9071	-0.07791222
101	0x3b83af9b	0.0040187365
102	0x3e3d57ea	0.18490568
103	0x3dcb9298	0.0994007
104	0x3e260d7c	0.16216081
105	0xbea953ef	-0.3307185
106	0x3eac772d	0.33684674
107	0x3e51187c	0.20419496
108	0x3cf7f580	0.03026843
109	0xbe99aaa1	-0.30012992
110	0x3e063fbe	0.13110253
111	0xbe026be8	-0.12736475
112	0x3ec65d9e	0.387433
113	0x3dd3b727	0.10337668
114	0xbde8b9db	-0.11363574
115	0xbe889f1e	-0.26683897
116	0x3e303ab1	0.17209889
117	0xbc6e22b3	-0.01453464
118	0xbe23aca7	-0.1598383
119	0x3e3c207d	0.18371768
120	0x3c6cedcb	0.014460991
121	0xbd043155	-0.03227361
122	0x3eb9e266	0.3630554
123	0xbe813b1e	-0.25240415
124	0x3eddb9dc	0.43305862
125	0xbeb032f4	-0.34413874
126	0x3d200502	0.039067276
127	0xbea7b81d	-0.32757655
128	0xbe95bb19	-0.29244307
129	0x3e3ec63a	0.18630305
130	0xbf48b1ff	-0.783966
131	0xbe6599e7	-0.2242199
132	0x3f0c55b7	0.5481829
133	0xbe071e39	-0.13195123
134	0x3e55d8d9	0.20883502
135	0x3f07d0d9	0.5305305
136	0xbdc76d40	-0.09737635
137	0xbed565e7	-0.41679308
138	0xbc96b20d	-0.018395448
139	0xbd7510e4	-0.05983056
140	0xbf25e177	-0.6479716
141	0xbeee2c72	-0.46518284
142	0x3eec9c16	0.46212834
143	0x3de6727b	0.11252304
144	0xbe07e4a6	-0.13270816
145	0x3e9c4af8	0.30525947
146	0xbe4aa7d0	-0.19790578
147	0x3e815974	0.2526356
148	0xbf2ceba7	-0.67547077
149	0x3ec67e45	0.3876821
150	0x3eeb9988	0.46015573
151	0xbd90063f	-0.07032441
152	0x3f26db37	0.65178245
153	0xbf313e53	-0.69235724
154	0x3ee65e19	0.44993666
155	0x3f0add71	0.5424414
156	0x3dd0aead	0.10189567
157	0xbe872d0f	-0.26401564
158	0x3e83ae65	0.2571899
159	0xbce24e00	-0.027625084
160	0x3f0b2d37	0.5436587
161	0x3d479839	0.048729155
162	0x3e84cf93	0.25939617
163	0x3eb2f18a	0.34949905
164	0xbe1886c1	-0.14895155
165	0x3f12b054	0.57300305
166	0xbf0b89c8	-0.5450711
167	0x3d5aecbe	0.05344843
168	0x3e5c5f36	0.21520695
169	0xbc827115	-0.015923062
170	0xbd1f5617	-0.03890046
171	0xbeb4839a	-0.35256654
172	0xbddbdc66	-0.10735397
173	0x3f2faa8f	0.68619627
174	0x3d469ee8	0.04849139
175	0x3ebf72f0	0.37392378
176	0x3edd0029	0.43164185
177	0x3ea7d1f5	0.32777372
178	0x3e1b7815	0.15182526
179	0x3d869eb9	0.06573243
180	0x3e989281	0.29799274
181	0xbecf1af0	-0.4045024
182	0xbe99391a	-0.29926378
183	0x3f41426c	0.75491977
184	0xbeedb46f	-0.46426722
185	0x3eb98382	0.36233145
186	0xbeaf94e6	-0.34293288
187	0xbded6afb	-0.115926705
188	0xbe26e1a9	-0.1629702
189	0x3e5ae6d9	0.21377124
190	0x3d393521	0.045216683
191	0x3e96f0dc	0.29480636
192	0xbed30909	-0.4121783
193	0x3d08589e	0.033287637
194	0xbe65b7d3	-0.22433405
195	0x3e026398	0.12733305
196	0x3eeb78d7	0.4599063
197	0xbd39d54a	-0.045369424
198	0x3f4c524c	0.79813075
199	0xbe9e7cf1	-0.30954698
200	0xbf4df91f	-0.80458254
201	0xbf343a85	-0.70401794
202	0x3efb76ae	0.49113983
203	0x3f12b78a	0.5731131
204	0x3d5dd886	0.05416157
205	0xbf11fa8c	-0.5702293
206	0xbf0883dc	-0.533262
207	0xbe079bfe	-0.132431
208	0xbc06d95b	-0.0082305325
209	0x3ee8f36e	0.45498222
210	0xbeb42b45	-0.35189262
211	0xbea38cab	-0.3194326
212	0xbdb4181d	-0.08793662
213	0x3dfc9d19	0.123346515
214	0x3ef45776	0.47722977
215	0xbee27255	-0.44227853
216	0x3ee75a31	0.45185998
217	0xbed2421b	-0.4106606
218	0x3e1e8202	0.15479282
219	0x3efdacb0	0.49545813
220	0x3dbe36a5	0.09287766
221	0xbeb55719	-0.35418013
222	0x3e955f3b	0.29174218
223	0xbd8cef24	-0.0688155
224	0x3d85a035	0.06524698
225	0x3ea723f3	0.32644615
226	0xbdb7983f	-0.089645855
227	0xbf096a22	-0.5367757
228	0xbd712f7c	-0.058883175
229	0x3d57346d	0.05254023
230	0x3ef4a197	0.47779533
231	0xbea29353	-0.31753024
232	0x3dd31431	0.103065856
233	0xbf348dc0	-0.70528793
234	0x3e4dcd36	0.20097813
235	0x3e96d889	0.29462078
236	0x3e0e87d9	0.1391901
237	0xbe92e60c	-0.28691137
238	0xbe2d95a0	-0.16951609
239	0xbf0f8612	-0.5606395
240	0x3f6fa346	0.9360851
241	0x3f2680fe	0.65040576
242	0xbef79948	-0.48359132
243	0xbee911fc	-0.45521533
244	0x3e5f3b34	0.21799928
245	0x3ecbf42e	0.39834732
246	0x3dec5760	0.11540103
247	0x3ed59cd9	0.41721228
248	0xbee3b5e6	-0.44474715
249	0xbda6554e	-0.08121739
250	0x3f47e552	0.7808429
251	0x3d85054c	0.06495151
252	0x3f4794bc	0.77961326
253	0xbf091fab	-0.53563946
254	0xbe807e2a	-0.25096256
255	0xbf16c993	-0.5890133

aggregator.0.weights.bias f4 [16]
0	0x3e32796b	0.1742913
1	0x3e04d037	0.12970053
2	0xbd4b5399	-0.04964027
3	0x3e8211db	0.25404248
4	0x3e4a3bac	0.19749326
5	0x3dc15914	0.094408184
6	0xbe1739a7	-0.14768086
7	0x3d9c0c5b	0.07619544
8	0x3e39544d	0.18098564
9	0x3ddeaf77	0.10873311
10	0x3f493f55	0.7861226
11	0x3f2617ea	0.6488024
12	0x3d29bf01	0.04144192
13	0x3c3e1296	0.011601111
14	0xbcc87208	-0.024468437
15	0x3e33fb4f	0.17576335

aggregator.1.weights.weight f4 [16, 16]
0	0xbebdd3dc	-0.37075698
1	0xbcfc6c7e	-0.030813452
2	0xbedff29e	-0.4373979
3	0xbf1624e1	-0.5865002
4	0xbe6487a5	-0.2231737
5	0xbe4e67ac	-0.20156735
6	0xbe7cd122	-0.24689153
7	0xbea8f7ee	-0.33001655
8	0x3e2f5c92	0.17125157
9	0xbe068b1a	-0.13139
10	0x3ef09c92	0.46994454
11	0x3f1c98ce	0.6117066
12	0xbf2bffaf	-0.6718702
13	0xbe9c73d1	-0.3055711
14	0xbeff210f	-0.4982991
15	0xbe8dab89	-0.27669933
16	0x3e05f73e	0.13082597
17	0x3e816e43	0.25279436
18	0x3f045a87	0.51700634
19	0x3e3512cd	0.17682953
20	0x3e2ec952	0.17068985
21	0x3e3eaa95	0.1861976
22	0x3e66f31d	0.22553678
23	0x3d95da45	0.07317022
24	0xbea68b17	-0.32527992
25	0x3ed73ebd	0.42040053
26	0xbf21734f	-0.6306657
27	0xbf3114d1	-0.6917239
28	0x3d8ba050	0.068176866
29	0x3eede8af	0.46466586
30	0x3ecce72f	0.4002013
31	0x3eb84463	0.35989675
32	0x3cdb67d0	0.0267829
33	0xbed89703	-0.42302713
34	0xbedc6cdb	-0.430518
35	0xbeddc2c9	-0.43312672
36	0x3e7726a0	0.24135828
37	0xbe91c4c2	-0.28470427
38	0xbdff70eb	-0.12472709
39	0xbe2e7cd6	-0.17039809
40	0xbe754112	-0.23950604
41	0xbf2d8592	-0.6778194
42	0x3e4969c8	0.19669259
43	0x3f1e337e	0.6179732
44	0xbeffd10f	-0.49964187
45	0xbed0bf27	-0.40770838
46	0xbf0e47d7	-0.5557837
47	0xbd903e70	-0.07043159
48	0x3e299568	0.165609
49	0x3d2ac1bb	0.041688662
50	0x3ee931eb	0.45545897
51	0x3f0a7dd5	0.54098254
52	0x3ed68215	0.4189612
53	0x3e883602	0.26603705
54	0x3e25003e	0.16113374
55	0x3dd1600a	0.10223396
56	0xbe0de425	-0.13856561
57	0x3ef60e87	0.48057958
58	0xbf0e1bd6	-0.55511224
59	0xbf1434ac	-0.5789287
60	0x3ebee14d	0.37281266
61	0x3ebd8a56	0.37019604
62	0x3f07a954	0.5299275
63	0xbdb89866	-0.09013443
64	0xbf594ffc	-0.8488767
65	0xbf0beb54	-0.5465596
66	0xbc9fae11	-0.019492181
67	0x3e420cf9	0.18950261
68	0xbeab19e3	-0.33418187
69	0xbe3bde78	-0.18346584
70	0xbca96213	-0.020676648
71	0xbea6804b	-0.32519755
72	0xbecc6d71	-0.39927247
73	0x3e063c0f	0.13108848
74	0x3e7b3763	0.24532847
75	0x3ebe34f7	0.37149784
76	0xbf51dae4	-0.81974626
77	0xbee9b488	-0.45645547
78	0xbe2c560a	-0.16829696
79	0xbdc58de1	-0.09646202
80	0xbda2e468	-0.07953721
81	0xbcd59169	-0.026070314
82	0xbe7e3ef6	-0.24828705
83	0xbf128c77	-0.5724558
84	0xbf2541ce	-0.64553535
85	0x3da4a4b8	0.0803923
86	0x3ce83804	0.028347023
87	0xbe8fcab1	-0.2808433
88	0x3f2735d8	0.65316534
89	0x3dff9570	0.12479675
90	0xbd9b7b23	-0.07591846
91	0x3eba73e6	0.36416548
92	0xbd254520	-0.040349126
93	0xbd44ac2a	-0.04801575
94	0xbec9dbcd	-0.39425507
95	0xbee46ddb	-0.44615063
96	0x3ea23fd3	0.3168932
97	0xbcd95cb4	-0.026533462
98	0xbedc20a5	-0.42993656
99	0xbf23d9ce	-0.6400422
100	0x3d295019	0.041336153
101	0xbea6592b	-0.32489905
102	0xbe96f1e8	-0.29481435
103	0xbe5dacf8	-0.21648014
104	0xbe554da9	-0.20830406
105	0xbede8476	-0.43460435
106	0x3eee184b	0.4650291
107	0x3f238fbb	0.6389119
108	0xbf43f5b1	-0.7654677
109	0xbea95979	-0.33076075
110	0xbebb44e8	-0.3657601
111	0xbe2f1cc7	-0.17100821
112	0xbe15e71f	-0.14638947
113	0x3d21e2b6	0.03952285
114	0xbddee911	-0.10884298
115	0x3ea9e0b1	0.33179238
116	0xbe69fd21	-0.22850467
117	0x3e31db0e	0.17368719
118	0xbe2f614d	-0.17126961
119	0xbe66fc52	-0.2255719
120	0xbea96161	-0.33082107
121	0x3ed95c71	0.4245334
122	0x3f6b4235	0.918979
123	0x3e7ecb3a	0.24882212
124	0xbee384f2	-0.44437367
125	0xbd9a2e94	-0.07528415
126	0xbec5d351	-0.38637784
127	0xbf5b0e61	-0.85568815
128	0x3ecffd4e	0.40622944
129	0x3f0cb295	0.54959995
130	0xbe0006db	-0.12502615
131	0x3e416ad3	0.18888406
132	0xbebbbc56	-0.36667126
133	0x3eb416f8	0.35173774
134	0x3e6a61bc	0.22888845
135	0xbec14729	-0.37749603
136	0x3f0c45d1	0.5479403
137	0x3f0fe75f	0.5621242
138	0xbe5c5d73	-0.21520023
139	0xbef33463	-0.47500905
140	0x3e8824dd	0.26590624
141	0x3f04fa4e	0.51944435
142	0x3e9e78b8	0.30951476
143	0xbf074586	-0.5284046
144	0x3df8ff2d	0.12158046
145	0x3eeffbbf	0.46871755
146	0xbd680ef5	-0.05665489
147	0x3f268f16	0.6506208
148	0xbe80d85b	-0.25165066
149	0x3e87b4c7	0.2650511
150	0x3e23e769	0.16006245
151	0xbec0aa18	-0.3762977
152	0xbe801c52	-0.25021607
153	0x3eefd26c	0.46840227
154	0xbe617894	-0.22018653
155	0xbf2732c7	-0.65311855
156	0x3e63e289	0.22254385
157	0x3f231212	0.6369945
158	0x3dee5f6c	0.11639294
159	0xbeddab15	-0.43294588
160	0x3ea87968	0.32905126
161	0x3d7d28cd	0.06180649
162	0x3e91b8a3	0.2846118
163	0x3f57059b	0.8399293
164	0x3f020add	0.50797826
165	0x3ed8dfcd	0.42358246
166	0x3d573ed7	0.052550163
167	0xbde2bc45	-0.11071066
168	0xbe7cf31c	-0.24702114
169	0x3ec27d7b	0.3798636
170	0xbec058a7	-0.37567636
171	0xbe8bc84a	-0.27301246
172	0x3f246a45	0.64224654
173	0x3db31ee7	0.087461285
174	0x3f389cab	0.72114056
175	0xbdeb8b91	-0.115012296
176	0xbdad9093	-0.08474841
177	0x3f41927a	0.7561413
178	0xbb06c74a	-0.0020565563
179	0xbf0323e8	-0.51226664
180	0xbebcd381	-0.36880115
181	0xbeb5f8b8	-0.3554132
182	0x3def0fc0	0.11672926
183	0x3ea0935f	0.31362435
184	0x3e3079a1	0.17233898
185	0x3e1160b4	0.14197046
186	0xbe5d0067	-0.21582185
187	0xbd1e894d	-0.03870516
188	0x3e86ab9a	0.26302797
189	0x3e10210f	0.14075111
190	0xbd811c5d	-0.06304238
191	0x3f943bdb	1.1580766
192	0xbf582082	-0.84424603
193	0xbf28c1e8	-0.6592088
194	0xbf189f25	-0.59617835
195	0x3ebbc7c5	0.3667585
196	0xbe9f8893	-0.31158885
197	0x3e6b4845	0.22976787
198	0xbe562744	-0.20913416
199	0xbe29f5f9	-0.16597737
200	0xbef4740a	-0.4774478
201	0xbd863bbb	-0.065543614
202	0x3e96e9ec	0.29475343
203	0x3e459729	0.19295944
204	0x3e976586	0.29569644
205	0xbf0475cf	-0.5174226
206	0xbeb7f9d7	-0.359328
207	0xbdd479aa	-0.10374768
208	0xbf15afa7	-0.5847115
209	0xbec63744	-0.3871404
210	0xbe0f8e5a	-0.14019147
211	0x3f57f939	0.8436466
212	0xbe979138	-0.2960298
213	0x3ef40d97	0.47666618
214	0x3e49ae09	0.19695295
215	0xbe5bce36	-0.21465382
216	0xbdd7f860	-0.10545421
217	0x3eece303	0.46266946
218	0xbe8d4045	-0.27588096
219	0xbeaa07ba	-0.3320902
220	0x3f4b11d8	0.793241
221	0x3e234739	0.15945138
222	0xbdd6f363	-0.10495641
223	0xbe497ced	-0.19676562
224	0xbe9c3f7c	-0.30517185
225	0xbd5fd05a	-0.05464206
226	0xbf0e475f	-0.55577654
227	0xbda7dd9a	-0.08196564
228	0xbeab8d81	-0.33506396
229	0xbe53900f	-0.20660423
230	0xbe677a81	-0.22605325
231	0x3c7fbed2	0.01560946
232	0xbef13b44	-0.4711553
233	0xbc91ca1f	-0.017796574
234	0x3f51a395	0.8189023
235	0x3ea11eaa	0.31468707
236	0xbf43142b	-0.7620265
237	0xbded689f	-0.115922205
238	0xbe8703f5	-0.26370206
239	0xbebfb570	-0.37443113
240	0x3ef4dd46	0.47825068
241	0xbf1d6119	-0.61476284
242	0xbe876a5f	-0.26448342
243	0x3eb6afb0	0.35680914
244	0x3ea4528e	0.32094234
245	0x3e73ad85	0.23796661
246	0xbe0bb260	-0.13642263
247	0xbe9dfbb5	-0.308561
248	0x3ee1e859	0.4412258
249	0xbf68d999	-0.9095703
250	0xbe49a8b2	-0.19693258
251	0x3ea0cb3c	0.31405056
252	0x3f20bb2f	0.6278562
253	0xbec24b90	-0.37948275
254	0xbd19194d	-0.037377644
255	0xbeea1a3c	-0.4572314

aggregator.1.weights.bias f4 [16]
0	0x3e98fade	0.29878896
1	0xbee5af45	-0.44860283
2	0x3ec6e5dc	0.38847244
3	0xbe896c5a	-0.26840478
4	0x3dca4d77	0.098780565
5	0xbdc09b14	-0.09404579
6	0x3eb7d0de	0.3590154
7	0x3f095df0	0.5365896
8	0xbeeb53e8	-0.45962453
9	0xbeb0eb76	-0.34554642
10	0xbcf8028d	-0.030274654
11	0xbe43dc6c	-0.19127053
12	0xbba687b6	-0.005082096
13	0xbd16b5a1	-0.03679431
14	0x3f3bb5b8	0.73324156
15	0x3d91654e	0.070994005
