kgraph_models/model_node_8000_0.5041602531498732.pt (torch, 728580 bytes, 7 tensors)

usr.weight f4 [1872, 16]
000000 82 02 59 3d 67 1b dd 3f a3 8d 1f bf c3 e5 9e 3c
       0.052980907 1.7273988 -0.62325495 0.019396668
000010 7d 2f 85 3e a9 3d a7 3e 45 ce 53 3e be fe 22 3f
       0.26012793 0.3266423 0.20684154 0.63669956
000020 88 15 29 3f 45 db 39 bd 4f 56 b0 be ac 3d 3e 3f
       0.6604848 -0.045375127 -0.34440848 0.74312854
000030 77 da f0 3d 22 c5 60 3f 5e 41 b0 3e dd 2c c9 be
       0.11760419 0.878008 0.3442487 -0.3929204
000040 a3 8e 84 bb 63 8a 1f 3e 85 33 3e 3e 07 16 24 3d
       -0.004045324 0.15580134 0.1857434 0.04006007
000050 22 4b 35 3c 3f 05 c1 3b 2a 1b d3 3e f6 11 82 bf
       0.011065276 0.005890518 0.41231662 -1.0161731
000060 56 a3 a7 bc e5 3c f9 3d 7e 3b 86 ba 76 82 1f 3b
       -0.020463627 0.12169818 -0.0010241119 0.0024339235
000070 32 23 06 3c 85 01 3c 3f e2 10 e4 bb bc 9c 25 bf
       0.008187102 0.7343982 -0.0069600204 -0.6469228
000080 42 8c b1 3d ea e9 94 3e ed d3 60 bf 43 10 38 ba
       0.0866933 0.29084712 -0.87823373 -0.0007021466
000090 4d ae 49 3e 55 f8 eb 3c f7 af d4 3d 59 c6 40 bd
       0.19695397 0.028804937 0.10385125 -0.04706416
0000a0 8a d0 bf 3e 07 92 9a 3d b1 5a 43 be 76 b6 e2 3e
       0.3746379 0.07547384 -0.19077565 0.44279832
0000b0 fd 20 11 3f 64 d3 31 bf 7f 40 d8 bd 98 80 71 be
       0.5669096 -0.6946318 -0.10559177 -0.23584211
0000c0 0a f9 04 be dd 4d 49 be 86 e0 3c be 6b 80 bf 3d
       -0.12985626 -0.19658609 -0.18445024 0.09350666
0000d0 3c 24 47 3e 5b 14 8f be 2b 4b ef be de 3c b0 bd
       0.19447416 -0.27945217 -0.46737036 -0.086053595
0000e0 1a 8c 71 bf cb fb 56 bf e8 6d bb bb 4a fc 51 bc
       -0.94354403 -0.83977956 -0.005719889 -0.012816498
0000f0 36 f9 ca be 57 f1 94 3e 3a f4 30 3f ce e2 4f 3e
       -0.39643258 0.29090378 0.6912266 0.20301363
000100 27 6a 59 3f 9b 30 0e bf 67 1d 41 3e b4 74 7e bf
       0.849276 -0.55542916 0.18858872 -0.99396825
000110 a8 fa 31 bc 10 c4 a0 bf 17 b7 b5 3f 95 52 da bd
       -0.010862984 -1.2559834 1.41965 -0.106602825
000120 95 16 f0 be cb 65 51 bf 4d 90 cc 39 49 0f 8e 3f
       -0.4689223 -0.8179595 0.00039017425 1.1098415
000130 81 7c 61 3f cd c7 82 be bb f5 79 be 31 0d d2 3d
       0.880806 -0.2554306 -0.24410145 0.10256422
000140 39 a4 c4 be 7c 70 8a 3c af 2f df be 3a c0 3b bd
       -0.38406542 0.01689934 -0.43591067 -0.04583762
000150 cf d4 bf bc 40 62 29 bd b0 35 a5 3f ab 5f 61 3e
       -0.023416905 -0.041353464 1.2907009 0.2200915
000160 fd 0e b4 3d 21 51 23 3d 6c e9 61 3f de e4 16 bd
       0.08791921 0.039872292 0.882468 -0.03683936
000170 d4 15 d4 be 0e 80 df bd 75 ba f0 3d 11 d4 0e bf
       -0.41422904 -0.10913096 0.11754314 -0.5579234
000180 03 ab ba bf 90 5f 7d bf cf 55 24 3f f9 10 62 3f
       -1.4583439 -0.9897394 0.64193434 0.8830715
000190 ba 8a 37 3f 4b c1 d1 3e a2 4c 79 be d8 0a f8 3e
       0.71696055 0.40967783 -0.2434564 0.48445773
0001a0 59 33 f9 3e 43 05 78 3f 78 aa a1 be 77 75 6f 3f
       0.48671988 0.9688303 -0.3157537 0.9353861
0001b0 47 31 8c 3e 82 23 77 be 70 6d 46 3f 57 3f 87 3e
       0.27381346 -0.24134639 0.7751074 0.26415512
0001c0 f9 68 ad 3e 9e 53 ad 3e b4 a0 f2 3e 33 e1 80 be
       0.3386915 0.33852857 0.47388232 -0.25171813
0001d0 1f 70 6b bf 07 f7 ac 3e b7 fb 27 3f 62 8d be be
       -0.9196796 0.33782217 0.6561846 -0.37217242
0001e0 48 2d 7f bd 3f 79 bf 3d 7c 86 97 3e c1 f7 47 bd
       -0.062299043 0.09349298 0.2959479 -0.04882026
0001f0 41 0c 94 be af 33 18 3d 3f 71 45 bf 5d 0c 84 3d
       -0.289156 0.037158664 -0.77125925 0.064476706
000200 43 ae 58 3d d1 89 04 3f 00 9f 88 3e fd 5b ec bc
       0.052900564 0.5177279 0.26683807 -0.028852457
000210 6e c9 ec 3e a8 89 3f 3d c6 38 35 3f 6a 8f ff 3d
       0.4624743 0.04676214 0.70789754 0.12478526
000220 6c 24 ef 3e 0b 0d 63 3f b5 57 2d 3e a0 92 98 be
       0.46707475 0.88691777 0.16927989 -0.29799366
000230 32 06 f8 3e 2d d9 da be 97 c9 18 3f 4e 69 3c 3e
       0.48442227 -0.42743817 0.596826 0.18399546
000240 b5 16 df be 29 cb 47 be c8 b4 a4 bd 2b b0 e1 be
       -0.43572012 -0.19511093 -0.08042294 -0.44079718
000250 df 5c 0a 3f 16 27 ed be dd 5f 21 bf 4f 72 a7 3d
       0.5404796 -0.46318883 -0.630369 0.081760995
000260 4f 8f e9 3d 76 8e 12 bf a9 86 2b 3f 07 2c 51 3f
       0.11404287 -0.5724863 0.6700235 0.81707805
000270 25 88 13 3e d0 12 16 3f a6 3b 6c be f5 87 e1 3d
       0.14407404 0.58622456 -0.23069629 0.1101226
000280 b0 9d 35 3f d9 ac 4a 3c 3f ef b6 3e 43 bd b1 bf
       0.7094374 0.012370312 0.35729405 -1.3885883
000290 86 29 80 3d 88 a6 4b bd e1 0a 14 bf f6 52 94 3f
       0.0625792 -0.049719363 -0.578291 1.1587818
0002a0 13 ea 0c 3e e2 b4 af bc 26 8e f8 bd 4f bd 9a 3d
       0.13761167 -0.021448556 -0.12136488 0.07555639
0002b0 ee b9 c6 3c 05 db 9e 3e 14 eb a8 3e 97 43 0e be
       0.02425858 0.31026474 0.3299185 -0.13892971
0002c0 00 f2 b5 3e be 1f 30 3f 32 a2 7d bd d7 40 c5 be
       0.35536194 0.68798435 -0.06192226 -0.3852603
0002d0 34 11 3a 3f 9c 5d 3a 3e cf cf f3 be 78 8c 10 3f
       0.726825 0.18199772 -0.47619483 0.5646434
0002e0 c3 43 2b 3e 51 50 36 bf 98 84 65 3d 80 64 ce be
       0.16725068 -0.71216303 0.056034654 -0.4031105
0002f0 9c 7b 69 be ed 84 16 3f 24 1b 44 bf 9a e3 58 3e
       -0.2280106 0.5879658 -0.76603913 0.21180573
000300 75 4a 7b bc 83 a7 b9 be b0 23 21 be d2 6f 07 3f
       -0.015337576 -0.36260614 -0.1573627 0.52905
000310 98 60 30 bf 0d ff cb be c9 d2 82 be 72 dd 76 3e
       -0.6889739 -0.39843026 -0.2555144 0.24107912
000320 cd 2a f1 3e 0c fc a9 3e 93 d0 08 bf 97 53 fc be
       0.47102967 0.3320011 -0.5344326 -0.49282524
000330 33 a9 0d 3e 72 01 26 be 95 19 c9 3e c3 6d e9 3c
       0.13834076 -0.16211489 0.3927733 0.028494721
000340 b6 c3 38 3e d2 aa 83 3d 63 99 74 3f ec cd 96 3b
       0.18043408 0.06429066 0.9554655 0.0046021845
000350 c9 e9 1c be 7f 48 d6 3e f0 19 9d 3d d7 3d 99 be
       -0.15323557 0.41852185 0.07670963 -0.29929993
000360 27 30 50 bf 1c 5c 37 3e b3 69 e0 3d 8d 27 a9 3f
       -0.81323475 0.1790623 0.109576605 1.3215195
000370 b5 e4 94 bf f5 06 83 be f8 ee 7e be 5e c1 73 3f
       -1.1632296 -0.25591245 -0.24895847 0.9521693
000380 06 83 56 3f 64 7e e7 bd 1c 4c c9 3d 50 bf 83 3e
       0.83793676 -0.11303404 0.0982897 0.25731897
000390 55 ff fe 3e 30 11 c1 bd c1 a9 f1 be 03 d2 d6 bf
       0.49804178 -0.094271064 -0.47199824 -1.678284
0003a0 b6 15 ab bf 14 19 4a 3e 48 8c 6d bf 0e 00 9e be
       -1.3366001 0.19736129 -0.9279218 -0.30859417
0003b0 34 68 47 be 46 7d 8c 3d 61 ed 81 3e 6d 24 28 bf
       -0.19473344 0.068598315 0.25376418 -0.6568058
0003c0 57 0f a9 3b 56 70 a9 be bc cf 56 3d 28 15 c4 bc
       0.0051592994 -0.33093518 0.052444205 -0.02393587
0003d0 25 3b ec bd b6 cc 54 3e f7 fd c6 3d a6 d0 47 3e
       -0.115347184 0.20781216 0.09716409 0.19513187
0003e0 17 2d 8a bd e4 a0 84 bd 97 b8 3d 3e d7 fd 80 be
       -0.067468815 -0.06476 0.18527447 -0.25193664
0003f0 f4 b8 1d 3e 83 bd e0 3c d0 a7 08 3f 1a 4c b0 bf
       0.15402585 0.027434116 0.5338106 -1.3773224

ent.weight f4 [9367, 16]
000000 00 00 00 00 00 00 00 00 00 00 00 00 00 00 00 00
       0.0 0.0 0.0 0.0
000010 00 00 00 00 00 00 00 00 00 00 00 00 00 00 00 00
       0.0 0.0 0.0 0.0
000020 00 00 00 00 00 00 00 00 00 00 00 00 00 00 00 00
       0.0 0.0 0.0 0.0
000030 00 00 00 00 00 00 00 00 00 00 00 00 00 00 00 00
       0.0 0.0 0.0 0.0
000040 58 dc dc bc 63 70 80 bc dd bd a9 3a 0c 21 89 ba
       -0.026960537 -0.01567859 0.001295026 -0.0010462119
000050 57 8a c1 3c 78 1a 2c 3c 48 5e 6f b9 b8 37 49 3b
       0.023625536 0.0105043575 -0.00022827939 0.0030703377
000060 c9 b3 3f 3e bd 54 e5 b9 ac 69 72 b8 79 85 05 3d
       0.18720926 -0.0004374142 -5.779571e-05 0.032597993
000070 1c 49 d5 ba 65 9b 3a 3a f6 c6 88 3e 43 bd dd b8
       -0.0016272399 0.00071184925 0.26714295 -0.00010573354
000080 6e b9 a1 bd 62 5e ea bb 3c 4f 81 37 aa 7a e3 ba
       -0.07896696 -0.0071523646 1.5414895e-05 -0.0017355282
000090 0d e0 0f 3e 3d c8 cc 3a 9b 8d be be 47 ca 72 3e
       0.14050312 0.001562364 -0.3721741 0.23709975
0000a0 8e 9f fc bb 90 7f 8a 3e 92 2c af b9 d2 c5 f7 3e
       -0.00770945 0.27050447 -0.00033411809 0.48393112
0000b0 f4 8f 9c 3d 1a 0e 6a 3b d0 23 86 ba b5 a2 6a 3e
       0.076446444 0.0035713972 -0.0010234062 0.2291363
0000c0 57 5b b1 bf 33 ee b7 b7 0a f6 b0 3d e8 c7 1d be
       -1.3856 -2.192622e-05 0.08640678 -0.1540829
0000d0 c9 45 7a 3b 1d 39 b8 bd 9a 5d 24 bf 94 d0 6a 3b
       0.0038188568 -0.089952685 -0.64205325 0.0035829889
0000e0 23 86 24 ba 23 99 14 be 27 4d 15 be 28 37 63 be
       -0.00062760914 -0.14511542 -0.14580213 -0.22189009
0000f0 37 79 60 bb 61 ca 05 ba f2 a7 e6 3b 30 ad 23 3d
       -0.0034251937 -0.0005103704 0.0070390636 0.039960086
000100 89 df e8 bd 99 ff b7 bd 85 cc 96 3e 38 96 95 3c
       -0.11370761 -0.08984298 0.2945291 0.018260106
000110 c9 97 bf 3d 55 28 63 3e e2 37 c3 3e e8 91 d9 3f
       0.093551226 0.22183354 0.38128573 1.6997652
000120 35 7c a9 3d d1 76 c2 3e e6 bd 45 bd 41 4f fa 3c
       0.08275644 0.37981275 -0.048276804 0.03055537
000130 89 0c ec bd fd 42 38 bd 65 fc 8e 3d b2 92 c5 ba
       -0.115258284 -0.04498576 0.06981734 -0.0015073626
000140 22 6f e6 3d da 02 a9 3c f7 ea d2 bc 13 b9 a7 3c
       0.11251666 0.020631243 -0.025746806 0.020473992
000150 14 f6 ee 3a 33 0c e3 be 03 6e 1f be cc 5e 14 3d
       0.0018231296 -0.44345245 -0.1556931 0.036223218
000160 c0 32 1d be d2 5c f1 3c 4e 57 ae bd 67 f0 ef be
       -0.15351391 0.029463205 -0.08512746 -0.468631
000170 26 db 3f 3d 54 38 53 3f 67 0e bf bb 01 a2 b4 3e
       0.046839856 0.82507825 -0.0058305743 0.3527985
000180 c1 ca 42 be b3 fb 09 40 80 dc 07 bf f2 db de ba
       -0.19022657 2.1559875 -0.5307083 -0.0017002805
000190 01 44 02 3e 22 50 0e be 00 eb 2f be f8 dd b6 3d
       0.12721254 -0.13897756 -0.17179489 0.08929056
0001a0 f2 62 07 bf 5f 03 47 bf 28 0b d8 be 7f 93 3b 3e
       -0.52885354 -0.7773952 -0.42196012 0.18317984
0001b0 2b bf 13 bf bf fa 86 bc f4 80 de 3e b7 3b 06 bf
       -0.57713574 -0.016476987 0.43457758 -0.5243487
0001c0 58 2f 48 bd 29 3e 06 3d c4 f7 96 3e fa 41 5a 3f
       -0.048873276 0.032774124 0.29485905 0.8525692
0001d0 f6 9b b9 3e 61 41 7b be 7f 9d 91 bf 13 cf 0c 38
       0.362518 -0.24536659 -1.1376189 3.3571454e-05
0001e0 05 64 3c bd 27 ad e6 bb 2b 6b 92 be 50 ba 9e be
       -0.045993824 -0.0070396843 -0.28597388 -0.3100152
0001f0 b7 2c ef bd e9 53 84 bc d3 b6 19 3b 53 24 5a 3e
       -0.116784506 -0.016153293 0.002345492 0.21302919
000200 86 8a 92 3e 6b eb b8 3e 82 8f 6b 3b 0a 5e 0f 3b
       0.2862131 0.3611711 0.0035943692 0.002187612
000210 b8 ee 8d be 46 66 9a bb 16 7d 8e bd b6 be 39 ba
       -0.2772119 -0.004711899 -0.06957452 -0.0007085608
000220 b9 e7 7f 3d fa 7f 86 bc cc d3 55 bf c4 fd 4e be
       0.062476847 -0.016418446 -0.835263 -0.20213991
000230 95 8b 17 3b e0 f0 b2 bf 3b 97 3b bf f9 15 9b 3c
       0.002312397 -1.3979759 -0.73277634 0.018931376
000240 2b 67 aa be e3 59 ad 3b 98 5c 50 3b ce 6e cb be
       -0.33281836 0.0052902563 0.0031793471 -0.39732975
000250 cf 29 a2 3f 08 26 b3 be 79 5a 18 bc 20 78 7c 3e
       1.2669009 -0.34989953 -0.009298914 0.24655199
000260 2f da b7 ba 73 1c 84 38 48 fd 77 bb 7b 90 c3 39
       -0.0014026816 6.2995496e-05 -0.0037840176 0.00037300945
000270 21 8f cc 39 28 c1 73 3e c6 4b 57 be 19 fb 45 3f
       0.0003901655 0.23804152 -0.21024999 0.7733627
000280 f3 3e b7 bc 83 db 5c b9 e6 aa ee b9 91 56 be 3f
       -0.022368884 -0.0002106261 -0.00045522227 1.4870168
000290 78 fd 77 3b 50 51 9f bd c0 ad 11 be 15 63 ec be
       0.0037840288 -0.07779181 -0.14226437 -0.46169344
0002a0 a2 56 71 3d e2 a1 9c 38 7a 0f 9c 3f bf e5 66 3b
       0.05892051 7.468813e-05 1.2192223 0.0035232154
0002b0 87 2f 33 3d 47 20 a0 b8 72 a8 24 ba c7 f8 06 40
       0.043746497 -7.635407e-05 -0.0006281204 2.1089342
0002c0 47 cd 6c 3b 62 b8 79 3c 2e e1 35 be 35 28 7d bb
       0.0036133097 0.015241714 -0.1776168 -0.0038628702
0002d0 99 0d 34 b8 a4 5f 27 ba 9c 22 4d bd 44 6a da be
       -4.2928008e-05 -0.0006384796 -0.050081834 -0.426592
0002e0 8c 2f fe 3e d3 ec da b7 fa 41 a4 bf c6 96 6c 3b
       0.4964565 -2.6097905e-05 -1.2832634 0.003610061
0002f0 c5 c9 ba 34 ce 66 46 35 8c e5 8b 3c 18 d5 65 3e
       3.4792006e-07 7.391035e-07 0.01707723 0.2244457
000300 76 df 29 bd 55 ae 06 bf 7e dd 01 c0 8f 83 00 b9
       -0.041472875 -0.5260976 -2.0291438 -0.0001225604
000310 33 c0 69 b9 49 0e 91 b6 00 41 8c 3f 35 55 2a 3a
       -0.00022292211 -4.3229998e-06 1.0957336 0.0006497682
000320 8b 27 96 be 55 8c ca b9 3e 1f 34 3b 46 1f 43 3b
       -0.29327044 -0.00038632998 0.0027484442 0.002977328
000330 0b 97 02 b9 98 2e 3c 3d dd 45 f3 3d c3 70 62 bb
       -0.00012454034 0.045942873 0.1187856 -0.0034552075
000340 1a a9 49 3e 41 32 1c 3f 7c e8 d4 3f e7 eb e3 3b
       0.19693413 0.6101418 1.6633449 0.006955612
000350 31 84 57 bf 98 3c a8 bc 35 cb 95 bf dc de b7 bb
       -0.84186083 -0.020536706 -1.1702639 -0.0056112837
000360 52 89 20 3e 9a 4a f4 be 82 f8 30 bf 13 c5 80 3f
       0.15677384 -0.47713166 -0.6912919 1.0060142
000370 ad 17 1e be e0 4a 64 3e 21 6f 18 be d3 42 88 be
       -0.15438719 0.22294188 -0.14886142 -0.26613483
000380 60 d3 10 bf 78 68 3c bc 12 fb e8 39 41 3b c3 3d
       -0.5657253 -0.011499517 0.0004443755 0.09532786
000390 c4 d4 56 39 bd 1d b8 b9 30 35 b0 3d 97 bd 6b bf
       0.00020487892 -0.00035117372 0.08603895 -0.92086166
0003a0 88 5f 06 3f a0 ae fa be 0e d7 bb b7 a5 4c 25 bf
       0.5248952 -0.48961353 -2.239228e-05 -0.64570075
0003b0 02 39 22 3b c5 02 3a bf b4 68 74 bb 28 0f 12 3a
       0.0024753218 -0.72660476 -0.0037293853 0.00055717165
0003c0 1e c3 ee 3d 00 16 f3 bd a4 84 18 3f e8 5c 9d be
       0.116583094 -0.118694305 0.59577394 -0.30734944
0003d0 4c a2 73 3c e5 cf 1a bb 6b af 13 be 1a e2 a8 3d
       0.014870238 -0.002362245 -0.14422385 0.082462505
0003e0 7a f6 2d 3d 36 0b a3 3d be 40 59 3d 0b 28 6b 3e
       0.042471386 0.07961123 0.05304026 0.22964494
0003f0 9d 1b 59 be 5f f8 32 3e a2 02 78 3e 44 61 72 3f
       -0.2120194 0.17477559 0.24219754 0.94679666

rel.weight f4 [61, 16]
000000 00 00 00 00 00 00 00 00 00 00 00 00 00 00 00 00
       0.0 0.0 0.0 0.0
000010 00 00 00 00 00 00 00 00 00 00 00 00 00 00 00 00
       0.0 0.0 0.0 0.0
000020 00 00 00 00 00 00 00 00 00 00 00 00 00 00 00 00
       0.0 0.0 0.0 0.0
000030 00 00 00 00 00 00 00 00 00 00 00 00 00 00 00 00
       0.0 0.0 0.0 0.0
000040 f8 2b 3a be a7 f5 7c bd a5 f4 1c 3e d9 bd d4 be
       -0.18180835 -0.06175771 0.153277 -0.41551092
000050 e4 50 41 3e 72 d5 49 3f 6a e9 e9 be a9 d0 f9 be
       0.18878514 0.78841317 -0.45685893 -0.48792008
000060 39 c4 1d bf 7b 36 c6 be 56 f2 3a bf 2d 60 40 3f
       -0.61627537 -0.3871344 -0.73026025 0.7514675
000070 fe a4 b1 be 78 1f f2 bc 27 4f 06 c0 bc d8 8c 3f
       -0.34696192 -0.029556021 -2.098581 1.1003642
000080 6a 77 2c be 62 97 13 3f f0 45 01 3f bb 26 4e 3f
       -0.16842428 0.57652867 0.5049734 0.8052785
000090 33 c7 30 bf 88 7d 9f bf e8 2e 86 3f de aa 35 3e
       -0.69053954 -1.2460184 1.0483065 0.17740962
0000a0 9e b8 71 bf 22 79 65 3e 9b ce 82 3e f0 0e 9c 3f
       -0.9442233 0.2240949 0.25548252 1.2192059
0000b0 1e 3b 4c bf dd 41 54 bf 06 76 16 3f e0 b7 de 3e
       -0.79777706 -0.82913 0.5877384 0.4349966
0000c0 59 d4 75 3d 3b 8d 44 be 02 ba 32 3e ef 40 8c bf
       0.060016964 -0.191945 0.17453769 -1.0957316
0000d0 ce 0a 04 c0 57 fe e8 3f bd 15 49 bf ae a2 5b 3f
       -2.0631595 1.8202618 -0.78548795 0.85795105
0000e0 78 e6 28 3e d8 7c 91 3e 14 b5 2f bf 56 ff 4f 3d
       0.16494167 0.2841556 -0.6863568 0.050780617
0000f0 98 00 3a 3e 2e 25 a1 3f 1a 67 15 3f a3 80 42 bf
       0.18164289 1.2589471 0.58360445 -0.75977534
000100 d0 6e c7 3e 18 5f 2c 3f 07 0b f6 3e 08 06 23 bf
       0.3895173 0.673326 0.48055288 -0.6368108
000110 1a 99 0c 3f e8 a8 89 3e e0 00 8e bf b3 4d a8 bf
       0.54921114 0.26886678 -1.1094017 -1.3148712
000120 eb 60 d1 3e 5d f2 39 bf 42 ea c9 3f b8 f7 8a bf
       0.40894255 -0.7263544 1.5774615 -1.0856848
000130 36 c0 8a 3f b9 8a 36 3f 10 40 4d bf c5 fc f6 bf
       1.0839908 0.71305424 -0.80175877 -1.9295889
000140 a7 58 d0 be 85 d9 06 c0 6c a5 37 bf fe 81 d8 3e
       -0.40692636 -2.1070263 -0.7173679 0.42286676
000150 01 67 91 bf e0 91 c6 bf 7c 8e bf bf d8 2c 21 3f
       -1.1359559 -1.5513268 -1.4965358 0.6295905
000160 78 af 84 bf 86 cd 35 3e f0 4d b9 3e 87 70 2b c0
       -1.0366049 0.17754182 0.36192274 -2.6787431
000170 a5 c9 95 bf 2e 30 12 3f 5e 41 43 3e e3 70 c1 3e
       -1.1702162 0.57104766 0.19067904 0.37781438
000180 ad 32 81 be 65 86 60 3f 56 4d 51 bf 39 89 18 bc
       -0.25233975 0.8770507 -0.8175863 -0.00931006
000190 f1 ff 82 3a 7c a7 73 3b ec b0 b6 3b a4 dc 22 be
       0.0009994489 0.0037178686 0.00557529 -0.1590448
0001a0 6f 7c 23 bc 00 e0 59 3e 4c 09 58 ba 8f 05 61 3d
       -0.009978398 0.21276855 -0.00082411314 0.05493694
0001b0 b2 3d d5 bf c8 ad 91 3f a4 ad 2e be 75 1e a4 bb
       -1.6659453 1.1381159 -0.17058426 -0.0050085136
0001c0 00 7c 32 bc 02 1d 36 bf 45 3c dd 3d 93 1a 4e 3b
       -0.010893822 -0.7113801 0.10802511 0.0031448945
0001d0 97 60 0b bc 90 5d 38 3e 4d e7 2d bb 2f 50 8b 3d
       -0.0085069155 0.18004441 -0.002653557 0.06802403
0001e0 3c 7f 45 3d a6 f9 01 bf af f2 16 3b 5e 90 35 3a
       0.048217043 -0.5077156 0.0023032834 0.00069261144
0001f0 63 70 1f bf 46 eb e4 3b f3 11 a9 bb 11 f8 ff bd
       -0.62280864 0.0069860546 -0.0051596104 -0.12498487
000200 02 cf f0 3e 94 ab 28 be 5f 31 bf be 85 05 34 bf
       0.47032934 -0.16471702 -0.37342355 -0.7032092
000210 31 24 a7 3e 55 81 f5 3e 39 ff ef 3e d5 cb 63 3e
       0.326448 0.47950235 0.46874407 0.22245724
000220 a4 b1 06 bf 5f c1 8e 3d e3 e3 0a 3d fc 22 87 3f
       -0.5261481 0.06970476 0.033908736 1.0557551
000230 de c4 05 be d2 41 92 bd 2f 36 03 3f 3d 2b 9d 3f
       -0.1306338 -0.071414605 0.5125455 1.227882
000240 f6 24 3a 3c eb bd 27 3f 89 1b 79 3f ef d7 be be
       0.011361351 0.65524167 0.9730764 -0.3727412
000250 d9 08 5a bf 96 22 4b 3e 1b b4 fe bf f9 0b 2d 3c
       -0.8516975 0.19837412 -1.9898714 0.010561937
000260 ed 8b 8a 3d 20 7d f3 3e 24 0c a3 be c0 29 03 bc
       0.0676497 0.475564 -0.318452 -0.008005559
000270 3e 8f 59 bf fd 61 09 bf 1a 3b 90 3f d5 0e a2 3e
       -0.84984195 -0.53665143 1.1268036 0.3165194
000280 4e c1 a3 bf ec a0 92 be ae 6a 59 be b8 64 4b 3f
       -1.2793367 -0.286384 -0.21232101 0.7945056
000290 ce 37 37 3f f8 43 7c bf f7 f8 df bd 70 25 b0 3f
       0.71569526 -0.9854121 -0.10936158 1.3761425
0002a0 6a b3 a0 3f 05 dc e2 3f 8b 36 93 3f 45 c8 8b 3e
       1.2554753 1.7723395 1.150102 0.2730123
0002b0 48 d7 90 bd 62 bb 85 be 3b fd d4 bf 94 78 67 be
       -0.07072312 -0.26119524 -1.663978 -0.2260459
0002c0 8c 8a 3c 3e 59 a7 98 bd 27 ad a1 bf d7 c7 f6 3e
       0.18412226 -0.07453794 -1.2630967 0.4819934
0002d0 86 9f a5 3f 48 f8 89 be a8 49 a4 3e 47 e2 51 3d
       1.2939308 -0.26947236 0.32087445 0.051241186
0002e0 15 27 9c 3f 4f 97 11 3f b2 e8 6c bd b5 76 61 3f
       1.2199427 0.56871504 -0.057839103 0.8807176
0002f0 9b cf 38 bd 33 7c 67 3e 34 7b 0b 3e 00 44 83 3f
       -0.045119863 0.22605972 0.13621217 1.0255127
000300 60 f0 50 3e 9a b8 ab bc 68 6c 34 be 25 f1 71 3e
       0.20404196 -0.020962048 -0.17619479 0.23627146
000310 a5 f9 8e be 20 5b a4 bb 8a 0b c5 bd 8d a7 5b bf
       -0.2792484 -0.0050157458 -0.096213415 -0.8580254
000320 01 bd 83 bd 98 3c 05 be c3 45 b8 3e b2 c6 1e be
       -0.06432534 -0.13011396 0.35990724 -0.15505484
000330 2b 84 a9 3f d6 b3 e1 be 1f 00 59 3e dc ec d0 bc
       1.324346 -0.44082516 0.21191452 -0.025503568
000340 74 5c 03 c0 f0 27 13 bf 57 4d 25 3f 91 8d 90 be
       -2.052518 -0.57482815 0.64571136 -0.28233007
000350 16 29 95 3e 75 e2 43 bf 48 3a f2 3e 4a 47 b7 bd
       0.2913291 -0.7651742 0.4731009 -0.08949144
000360 0b d5 76 be 57 a3 be 3e a4 09 29 3d 14 18 9f 3e
       -0.24104707 0.37233993 0.04126896 0.31073058
000370 9e 23 0f bf 16 2e 9b 3f b5 10 69 3d 1a 71 0a 3f
       -0.5591372 1.2123439 0.0569007 0.5407883
000380 f7 a4 8d bf 31 78 d9 bd 59 72 a3 3f 6b 50 2e bf
       -1.1065968 -0.10618628 1.2769271 -0.6809146
000390 04 42 04 3f 8b 86 58 bf 4c 89 d1 3f 06 db 95 bf
       0.5166323 -0.84580296 1.6370025 -1.1707466
0003a0 1a 0c 5f 3e 17 35 3d be e0 20 62 3f 6a 87 b7 be
       0.2178196 -0.18477283 0.88331413 -0.358455
0003b0 4a 10 a5 3e 32 e7 3b 3e c2 08 d1 be ac a5 ff 3e
       0.3223899 0.18349913 -0.40826994 0.49931085
0003c0 c4 b5 5d 3f 06 c7 a8 3f 84 0e 8f 3f 18 b9 d7 3e
       0.8660548 1.3185737 1.1176305 0.42133403
0003d0 77 eb 5a 3f 16 51 00 3f a3 e1 f3 be a3 81 29 3f
       0.8551554 0.5012373 -0.47633085 0.66213435
0003e0 fd 68 07 bf ae be 67 3e 72 ee 04 bf 2e 3c 49 bd
       -0.52894574 0.22631332 -0.5192634 -0.049129657
0003f0 1d a6 a6 bd cc 0c 1c be 67 d9 2d 3f e0 a6 0b 3f
       -0.08137152 -0.15239257 0.67909855 0.54551506

aggregator.0.weights.weight f4 [16, 16]
000000 4d 26 e1 bb 9a ca 1d 3e a0 26 f0 bd 4d fc cc bd
       -0.006871021 0.15409318 -0.11726117 -0.1000906
000010 15 d2 10 3e 61 65 d2 bc 80 1a 72 bc a1 91 40 bd
       0.1414264 -0.025683107 -0.014776826 -0.047013883
000020 67 a7 26 3e e2 69 53 bc 0d 66 6e bd 14 02 dd bc
       0.16274796 -0.012903662 -0.058202792 -0.02697853
000030 1a 6f 62 3c 75 69 56 ba de b1 24 3e 67 06 7a bb
       0.013820434 -0.00081791665 0.16083476 -0.0038150789
000040 c4 43 7b 3d a1 36 d9 3d be 09 a9 bd 74 cf 06 be
       0.061343923 0.10606123 -0.08253811 -0.13165075
000050 30 32 ea bd d0 d7 86 3d 6f 91 17 bd 23 5c ba bd
       -0.11435354 0.06584132 -0.03700393 -0.09099605
000060 43 35 d7 3d e1 8f 8c bc d5 db 5c 3b ef f1 57 bd
       0.10508206 -0.01715845 0.0033700366 -0.05272096
000070 ea 7c f8 3d 71 37 30 3d 8e 0f 5f 3e f0 9e d0 3d
       0.121332005 0.043021623 0.21783277 0.10186565
000080 a1 aa d9 3d 27 25 8d 3d 0b 69 ec 3c 36 5f c8 bd
       0.10628248 0.06891852 0.028858682 -0.09783785
000090 4b 07 d4 bd f2 ea 03 be 47 22 3d 3e ae 13 80 3d
       -0.103529535 -0.12882593 0.18470107 0.062537536
0000a0 5b 6e 4d bd 05 e1 bd bd c1 69 00 3d dc be 23 be
       -0.05015407 -0.09271435 0.031350855 -0.15990776
0000b0 64 0e e6 3c 01 9f 0a 3d 47 02 14 bd 4c a2 59 bd
       0.028083034 0.033843044 -0.036134984 -0.053133294
0000c0 a4 40 cc bd 9f a2 88 bd 53 0d 12 3e 5c 57 12 3e
       -0.09973267 -0.066716425 0.14262895 0.14291137
0000d0 51 7b 4d be 7c dc c2 bc 80 bc e9 3d 7f 71 2c 3d
       -0.20066573 -0.023786776 0.11412907 0.042100426
0000e0 d4 6b 72 bd ed 5e 1b be 66 d3 93 bc 53 26 c4 3d
       -0.059184864 -0.1517293 -0.018045139 0.09577622
0000f0 2b da 1f 3e 04 73 04 3e 73 e2 c4 bd da 25 7b bd
       0.15610568 0.129345 -0.09613504 -0.061315395
000100 a6 be bc 3d b1 e2 53 3d e2 b4 78 bd 66 eb e6 bc
       0.09216051 0.05172986 -0.06071938 -0.028188419
000110 dd 4f b3 bc d7 c6 b4 bd 3d 90 8f 3c db df 8b 3d
       -0.021888668 -0.08826988 0.017524833 0.068298064
000120 1d f5 e5 bd 30 d3 19 3b 2b 0f 2b be 17 90 c6 3d
       -0.11228392 0.0023471825 -0.16705005 0.09695452
000130 08 6e 1d 3e 73 06 1d bd 19 13 22 be 02 69 ae bc
       0.15374005 -0.03833623 -0.15827598 -0.021290306
000140 0f 7d ff bd f1 82 4b be 72 fa b0 3c 75 ba cc bc
       -0.12475025 -0.19874169 0.021603797 -0.024991253
000150 ec e3 b9 bc a6 53 09 3d ee 4d 9c bc c6 93 c5 bc
       -0.02269169 0.03352704 -0.019080129 -0.024118315
000160 27 b0 97 3c 8e 2a d3 bd 7e 59 5c 3d af 84 65 3d
       0.018516613 -0.10310851 0.053796284 0.05603474
000170 c9 1f c0 bd 8e ca 09 3d d4 ca 9d 3d b6 3d de 3c
       -0.093810625 0.033640437 0.07704702 0.027129035
000180 ff 46 fa bd 82 89 07 be d8 25 36 bc c2 25 19 be
       -0.12220573 -0.13236049 -0.011117421 -0.1495581
000190 3b ed a7 bd 4c 09 64 3d 87 eb 43 bc 45 96 18 3e
       -0.08199545 0.05567293 -0.01195801 0.14901073
0001a0 8b 79 bc 3d 2e eb 9d bd c6 67 73 3d ea 37 4a 3c
       0.0920287 -0.077108726 0.059425138 0.0123424325
0001b0 61 08 db bc 2d 4a 54 3c b8 12 75 3d 21 e0 e4 ba
       -0.026737394 0.012957138 0.059832305 -0.0017461815
0001c0 59 02 7b 3d a7 17 8d bd 9c 73 59 bd a7 17 31 3d
       0.061281536 -0.06889277 -0.05308877 0.043235447
0001d0 a4 77 ac 3d 64 e2 e3 bc 28 41 ba bd cd 62 e6 3d
       0.08421257 -0.027817912 -0.09094459 0.112493135
0001e0 8b 0c bb bc dd 63 03 3e 8b d3 a0 3d a2 07 93 bd
       -0.02283313 0.12831064 0.078528486 -0.0717919
0001f0 94 76 fd 3c b2 5c a7 bd a3 93 4c 3d 9d e7 2e bc
       0.030940332 -0.08171977 0.049945485 -0.010675338
000200 ac 1d bb bd bf af 98 bc 6a c7 37 be 7e 47 88 bc
       -0.09136519 -0.01863849 -0.17947164 -0.016635653
000210 c7 7a 33 3d 3b 41 99 3a 78 55 36 bb 1f a7 ba 3d
       0.04381826 0.0011692414 -0.002782194 0.09113907
000220 87 2b 9e 3d c1 30 4b bc c8 6e 3b bd 53 fd 37 bd
       0.07723146 -0.012401761 -0.045759946 -0.044919323
000230 b5 2d 31 be ca 3f bb bd 1d a0 a9 3d 69 8f 16 3d
       -0.17302592 -0.09143026 0.08282492 0.03675786
000240 1c 54 9f bc e7 c9 48 3d 0e 84 c8 bd 74 94 f4 3d
       -0.019449286 0.049020674 -0.097908124 0.11942378
000250 7f 50 0a bd 19 35 a8 3d 4d 6e f2 3d 83 53 4d 3d
       -0.033768173 0.082132526 0.118374445 0.05012847
000260 f3 22 38 3e 85 a3 d4 bd 99 4e 63 3d 6f e3 4c 3e
       0.17982082 -0.103827514 0.05549488 0.20008634
000270 2e b9 bf bc 3f e0 47 bd 05 09 47 3d f9 24 bc 3d
       -0.02340373 -0.048797842 0.048592586 0.091867395
000280 8f c0 08 3d 27 5b c1 3b 0f 78 f5 bc ac b2 55 bd
       0.033386763 0.005900759 -0.029964475 -0.052172348
000290 1a 56 0b 3d 31 64 4e 3e dd c5 9a bd a1 4f 85 3c
       0.03401766 0.20155407 -0.07557271 0.016273322
0002a0 de 99 67 3d 85 3f 4e be 75 62 32 3d f9 0b 81 bd
       0.056543224 -0.20141418 0.043550927 -0.06301112
0002b0 98 bd 17 bc 6c 85 04 3e 40 ab 88 3d 3a ee 89 3d
       -0.009261511 0.12941521 0.06673288 0.06734891
0002c0 6f 0e 86 3d cb c0 52 3d 20 28 8f 3d 3a b8 2a 3d
       0.06545722 0.051453393 0.06990075 0.0416796
0002d0 37 50 84 bb 49 b0 07 be 37 97 f9 3c 03 41 3d 3e
       -0.0040378827 -0.13250841 0.030467613 0.18481831
0002e0 c5 c3 52 bd 55 61 93 bd 73 32 6c bd ca ef c3 3d
       -0.05145623 -0.07196299 -0.0576653 0.095672205
0002f0 44 18 1d 3d c3 24 0b 3e c7 13 35 3c a6 6c be 3d
       0.03835322 0.13588242 0.011052079 0.09298067
000300 7f 79 6f 3d 26 aa a9 bb c1 cb d2 bd 7d 7c 19 3d
       0.058465477 -0.005177754 -0.10292769 0.037472237
000310 31 1e d4 3d 8f 3c 77 bc e4 a2 2c 3e 3a 03 4c bd
       0.10357321 -0.015090122 0.16859013 -0.049807765
000320 32 30 63 be 41 57 ac bd f0 d5 5d 3d d2 af 2e 3e
       -0.22186354 -0.0841508 0.054159105 0.17059258
000330 58 d7 80 3c 10 05 7b bd 0c 7f 1e be 92 8b 64 3c
       0.015727684 -0.061284125 -0.15478152 0.013949292
000340 21 9d ad 3d 06 43 c2 3d 73 1d af bd d5 7d 92 bd
       0.084772356 0.0948544 -0.08550539 -0.07152907
000350 16 b2 f0 3c c7 47 e6 bd fd 4e 5c 3d 47 df 25 be
       0.029381793 -0.11244159 0.053786267 -0.16198455
000360 b4 3a 1e 3e bb 78 16 3c 8d 52 e1 bd eb 7f 36 3e
       0.15452081 0.009184058 -0.110020734 0.17822234
000370 9e 9b 98 bd 74 f8 07 3c 3f 25 f1 3c cd df 80 3c
       -0.074515566 0.008298982 0.029436706 0.015731717
000380 e0 e3 ed 3d a6 87 ee bc 58 c9 fa 3c 12 f0 58 bd
       0.11615729 -0.029117417 0.030613586 -0.052963324
000390 b5 b3 24 bd d4 34 49 3c 5f de a2 3d 17 4d 17 be
       -0.040210444 0.012280662 0.0795257 -0.14775501
0003a0 b6 71 e6 bb 87 8c 20 be c6 97 2d 3c d7 de a7 3d
       -0.0070325984 -0.15678607 0.010595268 0.081968
0003b0 65 fb 99 bb 1a b8 2e 3c 4f 2d 95 bd 46 1e 1a be
       -0.004699158 0.01066401 -0.072840326 -0.15050611
0003c0 79 ad bd 3d 6f 8c 9a 3d 58 e5 55 bd 51 2b df bc
       0.09261603 0.07546317 -0.052220672 -0.027242335
0003d0 20 0b 3d 3d 04 77 8d 3d 2c 34 40 bd 94 ac 9d bc
       0.046153188 0.06907466 -0.046924755 -0.01924733
0003e0 34 40 01 be 59 3c 46 3c 3f f3 b1 3d 90 51 cb 3c
       -0.12622148 0.012099349 0.08688974 0.024819165
0003f0 8f b3 40 3e 7c 2f 89 bd 8b b3 aa bd a6 fc 3f be
       0.18818496 -0.0669851 -0.08335026 -0.18748721

aggregator.0.weights.bias f4 [16]
000000 ce cb cf bd c4 98 50 be af f9 22 be b9 76 5e be
       -0.101462945 -0.20370775 -0.15915559 -0.21724977
000010 84 93 7e be 5e b6 6c be d1 55 b7 be 73 3d 8b be
       -0.2486096 -0.23116443 -0.3580766 -0.2719532
000020 c1 b1 ff bd 20 f1 92 be c2 a0 fb bd 63 e3 5b bd
       -0.12485076 -0.2869959 -0.122865215 -0.05368365
000030 02 f7 85 be 1f 00 f1 bd 50 90 6c bd 77 65 cc bd
       -0.26165015 -0.11767601 -0.057754815 -0.099802904

aggregator.1.weights.weight f4 [16, 16]
000000 6a 8f 54 be a1 e1 d8 3c 08 36 aa bd 23 6d 4b be
       -0.20757833 0.026474776 -0.08311087 -0.19865851
000010 a6 76 97 3d b5 9d a7 3c 20 2b 6c be 47 48 3b be
       0.07395677 0.020460943 -0.23063326 -0.1828929
000020 7d 18 c4 3d 68 39 74 b9 ec d1 42 3d 10 72 10 3e
       0.09574983 -0.00023291039 0.04756348 0.14106011
000030 c9 6b e7 bd a5 89 61 3b fc f2 0f bd da fc 19 bd
       -0.11299855 0.0034414318 -0.035143837 -0.037594654
000040 49 15 0a 3e f9 83 c4 3d a3 16 fa 3d e2 1f 44 3d
       0.13484682 0.09595484 0.12211349 0.04788197
000050 4c 4f 9f 3d ff 37 10 3e 5a c9 b4 bc 52 65 96 3d
       0.077787966 0.14083861 -0.022068668 0.07343544
000060 db 45 ad bd f5 b3 06 3e 7f ed f0 bd 5d 9a ca bd
       -0.084605895 0.13154586 -0.11764049 -0.09892724
000070 90 ee fc bd 21 11 95 3d 9f 40 2a 3d 26 e7 e0 3d
       -0.1235019 0.07278658 0.041565534 0.10981588
000080 61 ff 02 3e 2f 05 50 bd e0 36 ad bd 0c 99 81 bd
       0.12792732 -0.050786193 -0.08457732 -0.063280195
000090 66 3e 20 3e 4f d0 0a 3d 49 4c 1a bd e1 5b 1a be
       0.15648803 0.033890065 -0.037670407 -0.15074112
0000a0 9c c4 20 be b7 58 11 be 75 65 4f bd 1b 1a 8c 3d
       -0.157 -0.14193998 -0.050633866 0.06840917
0000b0 ae 97 87 bd 9d 26 de bb df 21 ba bd 09 81 45 3c
       -0.066207275 -0.0067795054 -0.09088492 0.01205469
0000c0 3f 93 d3 3d cd 9d 6e bc 59 1f b7 3c fe 67 9c 3d
       0.10330819 -0.01456399 0.022353815 0.076370224
0000d0 14 fa 0b 3e 1a 9e 5a bc 81 e8 a1 bc 05 81 99 3d
       0.13669616 -0.013343358 -0.019764187 0.07495312
0000e0 23 12 eb bd f3 65 f9 3d ed 85 27 bd db 3e 69 bd
       -0.11478069 0.121776484 -0.040899206 -0.05694471
0000f0 f7 0b 8e 3b 63 ac e2 bc cd 68 97 bd d2 49 06 be
       0.0043349224 -0.027670091 -0.07393036 -0.13114098
000100 86 d3 48 be 02 50 69 bd fc 60 8d 3d 3f 82 b8 3d
       -0.1961194 -0.056961067 0.06903264 0.090092175
000110 0b 0b 8c bc 2b 60 fb bd 52 7d 28 3e 1f 24 27 be
       -0.01709511 -0.12274202 0.16454056 -0.16322373
000120 f9 83 e7 3c a8 a1 c1 3d e0 f6 3a 3d 8c 19 d2 3c
       0.028261172 0.094546616 0.045645595 0.025646947
000130 fe 8b 5c be 3e d5 06 3d 5e 77 79 3d f6 21 b3 3d
       -0.21537778 0.032918207 0.060904853 0.08746712
000140 3f 3f 83 bd 9c f6 51 3c 10 a5 8d 3d f1 2b 31 be
       -0.064085476 0.012815144 0.06916249 -0.17301919
000150 5e 6c f6 bd 89 69 b2 3d 76 64 51 bd d9 a2 07 bd
       -0.12032388 0.087115355 -0.051121198 -0.033114288
000160 4f ff 17 3e 8c c7 e5 3d b6 e9 bc bd 68 e7 d5 3d
       0.14843486 0.11219701 -0.09224264 0.10444528
000170 ea b0 6d 3d 15 40 81 b9 c5 97 0f 3c cd 9d bd 3c
       0.058030047 -0.00024652542 0.008764212 0.023146534
000180 64 74 4c 3e 8a 5a b6 bc a6 39 bf bd 8c 8c 0a be
       0.19966274 -0.02225997 -0.093371674 -0.13530177
000190 98 c2 31 3c d5 c4 af 3d 5f db 0d be 87 20 60 bd
       0.010849617 0.085824646 -0.13853215 -0.05471852
0001a0 b8 f2 0d be ee 55 44 bd 78 dc 83 bc cc 56 d3 3d
       -0.13862121 -0.04793351 -0.016096339 0.103192896
0001b0 ca 60 dd bd fc 57 04 be 38 6a 51 3d 47 09 03 bd
       -0.10809477 -0.12924188 0.05112669 -0.03199127
0001c0 d4 d7 2c bc 4c 7b 52 bd f0 79 d0 3d 67 78 8d 3d
       -0.010549504 -0.051387116 0.10179508 0.069077305
0001d0 0a 3e 93 3d 9d 0f 43 3d a3 bb 90 bd 0b 71 fd 3c
       0.071895674 0.04762231 -0.07067039 0.030937692
0001e0 e0 13 bb bd 80 f0 27 3e 58 4c 4d 3d 29 43 0b be
       -0.0913465 0.16400337 0.050121635 -0.13599838
0001f0 b1 b1 e3 bd 03 e5 d6 bc 46 95 d8 bd 44 08 48 be
       -0.11117876 -0.026232248 -0.10575347 -0.19534403
000200 3e 51 5c 3d 3f 39 40 3d d3 cd f2 bd 2f 64 94 3d
       0.053788416 0.046929594 -0.11855664 0.07245671
000210 16 d2 4c 3d 5f c5 c5 bc 3c 39 d5 3a b6 1f f5 bd
       0.05000504 -0.024141965 0.0016267668 -0.11968939
000220 59 74 00 3e fc 9b cc 3c 75 e1 da 3d 13 ac eb 3c
       0.12544383 0.024976723 0.10687534 0.028768575
000230 c0 95 8e bd 65 eb 3c 3c b3 04 07 3e 22 7a 89 bd
       -0.06962156 0.011530732 0.13185386 -0.06712748
000240 67 b0 e5 3a 91 87 e6 3d 4a 96 dd 3b 7e 44 7f 3e
       0.0017523885 0.11256326 0.0067623006 0.24928471
000250 68 02 81 bd 24 39 21 bd bf de 74 bd af 33 0e be
       -0.06299287 -0.039361134 -0.05978274 -0.13886903
000260 e8 c0 80 bd f0 ab 46 3b 60 be 03 3d 77 b7 c9 bd
       -0.06286794 0.0030314885 0.032163978 -0.09849446
000270 e8 c1 9f 3d 99 b7 35 3e ae 0c 95 bd a0 37 ec 3b
       0.078006566 0.17745818 -0.07277809 0.0072087795
000280 62 c3 13 3e 24 a2 82 bd 96 55 99 3a 9f e7 a2 3c
       0.14430001 -0.06378582 0.001169848 0.019885836
000290 d4 70 09 3c e7 99 d5 3c 0b 87 96 3d 2d 44 c4 bd
       0.008388717 0.026074363 0.07349976 -0.09583316
0002a0 63 f8 0a bd 96 c0 97 3d a2 ba d5 bd 9e 2d dd 3c
       -0.033928286 0.0740978 -0.10435988 0.026999291
0002b0 39 a4 2b 3d c5 0d 0d be 33 a2 2c 3e 6e 5a 84 bd
       0.04190466 -0.13774784 0.16858749 -0.064625606
0002c0 a5 2a 14 be 1b 82 0a 3e 3c fe 68 bd a9 21 b0 bd
       -0.14469393 0.13526194 -0.05688308 -0.0860017
0002d0 ae 1f 35 be 7f 00 4e bd bf 2e 3e 3c d2 dc 32 bd
       -0.17687866 -0.05029344 0.011607825 -0.043667622
0002e0 a2 da 9a 3d 35 99 bb b9 1e ee fe bc e5 b2 93 3d
       0.07561232 -0.00035781568 -0.031119402 0.07211856
0002f0 0b fe 01 3e 09 96 7e bd 16 e8 9d bd fa 9d 7f 3e
       0.12694566 -0.062154803 -0.077102825 0.24962607
000300 01 c9 95 bd ea cf 62 3c e7 4d d5 bd ac b3 04 3d
       -0.07313729 0.013843516 -0.10415249 0.03239791
000310 0a 30 b9 bd dc 9b 56 3d 7e 10 46 be f9 08 08 be
       -0.09042366 0.052394733 -0.19342229 -0.13284673
000320 74 81 06 bd 78 9e 41 bd 6e ba ca 3d 74 29 93 3d
       -0.0328383 -0.04727027 0.0989884 0.07185641
000330 fb bc f1 3d 64 4d cc 3c 19 6c ac bd 9b 08 e3 3d
       0.11803623 0.024939246 -0.084190555 0.11085626
000340 c9 08 30 be 8e b8 64 bd c6 69 aa bb de 24 cb 3d
       -0.17190851 -0.055840068 -0.0052005975 0.09919141
000350 9a c4 9f bd 1f 36 4e 3d 2a 8a e4 3d 20 f2 25 bd
       -0.07801171 0.050344583 0.11159165 -0.04051411
000360 91 3e 4b bc 3f 0a 22 3e 53 47 d5 bd 89 6f ab bd
       -0.012405054 0.15824221 -0.10413995 -0.08370883
000370 12 32 55 3e b7 5d 80 3d 90 c2 14 be af c6 34 bd
       0.20819882 0.06267875 -0.14527345 -0.044134792
000380 a5 87 12 be 99 74 40 3c cc d0 5c be b7 5b 56 bd
       -0.14309557 0.011746549 -0.21564025 -0.05233356
000390 82 19 d1 bd ac 01 19 be 9c 41 a9 bd b9 d3 de 3d
       -0.10209943 -0.14942044 -0.08264467 0.10880227
0003a0 6d d7 4c be c1 c4 51 bd f4 90 57 3d 9f 98 4d bd
       -0.20004053 -0.05121303 0.052628472 -0.05019438
0003b0 5c 22 68 be bc b8 ce 3c 04 fc 59 3d 87 08 c5 bd
       -0.22669357 0.025234573 0.053218856 -0.09620767
0003c0 5a 2e 08 3e 4b 44 cf bd f4 9d c0 bd 46 d1 7f 3d
       0.13298932 -0.10120448 -0.09405127 0.062455438
0003d0 7f 2a 38 bd 45 6f d0 bd a6 e3 08 bd c4 c9 39 be
       -0.044962402 -0.10177473 -0.033420227 -0.18143374
0003e0 e1 bb ba 3d 97 34 7d be 3e 81 bf 3c ca 4d 07 3d
       0.09117866 -0.24727093 0.023377057 0.03303317
0003f0 47 1b de 3d 5a 4d ad bd 4f ee cf 3c 37 70 07 bd
       0.108450465 -0.08462019 0.02538219 -0.033066

aggregator.1.weights.bias f4 [16]
000000 e2 6a 32 3c 72 3a b6 bd 66 6a ac 3d dd 43 39 3d
       0.010889741 -0.08897866 0.084187314 0.045230735
000010 08 db c3 bd df b8 9c bc 71 ae 22 3d 55 7a c5 3d
       -0.09563261 -0.019131122 0.03971714 0.096424736
000020 3e ed 88 bd 70 cc 6e bd 7b f0 a7 3d df d5 88 bc
       -0.06685875 -0.058300436 0.08200165 -0.016703544
000030 de 35 e9 3b 08 64 05 3d fd fe 05 3e 04 24 80 3d
       0.007117017 0.0325661 0.13085552 0.062568694
