kgraph_models/model_node_8000_0.5422589131152514.pt (torch, 728580 bytes, 7 tensors)

usr.weight f4 [1872, 16]
-0.06701006 0.5812296 -0.1259186 0.056485202 -0.047498945 0.010212775 0.061734647 0.20371717
0.060229383 0.01518711 0.009114177 0.13562997 -0.056744106 0.18267417 0.082163006 -0.10055889
-0.06132287 -0.0008630777 -0.002129808 -0.019358527 -0.07244446 -0.09095529 0.029783452 -0.11162725
-0.07240401 -0.06471186 0.034589913 0.082749635 -0.043516424 0.008507726 0.06888022 -0.040354036
-0.057626873 0.06719478 -0.2854209 0.12345304 -0.027725698 -0.015629526 -0.074933454 0.04470389
0.14864257 0.18444578 -0.0037689004 -0.06974784 0.14673418 0.006233047 -0.09926969 0.13841814
-0.10533389 -0.09990353 -0.24322125 -0.15516943 -0.12528245 0.16993685 -0.30959168 -0.26386073
-0.2810207 -0.296413 -0.0004658583 0.28377682 0.008055532 0.16717212 -0.19337407 0.11122401
0.10856058 -0.10355426 -0.052646067 -0.22430067 -0.25966978 -0.3472193 0.3336692 0.1016771
-0.03925574 -0.24806307 0.25026917 0.29181206 0.08379268 0.010742393 -0.1333659 0.19367492
-0.31283188 0.25108442 -0.36355197 -0.05463859 -0.034488235 -0.07345781 0.1453576 -0.16202427
0.04015996 0.023339173 0.13785961 0.17712326 -0.05706178 -0.014255175 -0.32112503 -0.19927949
-0.4407674 -0.24081036 0.09703023 0.06663326 0.1643956 0.12385667 -0.03315448 -0.11427344
0.057648048 0.18720128 0.019976681 0.27019885 0.14877102 0.025193328 0.09991931 0.026721613
-0.13804176 0.1557729 -0.11906317 0.10887222 -0.23672049 -0.08848551 -0.057442926 0.059647586
0.0058217547 0.085901424 0.1732228 0.00688386 -0.10206153 0.08567994 -0.18995173 -0.050214104
0.014742005 -0.004830833 0.05957378 -0.044887528 0.015465332 -0.034540694 0.119667925 -0.048335724
0.06713683 0.11833878 -0.042105928 -0.030041823 0.06383125 -0.07480131 0.12702177 0.08399429
-0.14670728 0.020804517 -0.10506171 -0.06710535 0.1348057 -0.037379883 -0.17942387 -0.038212173
-0.05595795 -0.15847513 0.1582832 0.4649626 -0.06459958 0.027767953 -0.1511435 -0.08122995
-0.095585026 0.16646473 -0.16211508 -0.26032475 -0.034640964 -0.045779523 -0.16587448 0.35180956
0.00211847 0.11624497 0.19507907 0.10945863 -0.06185602 0.099185176 -0.21372148 -0.09812104
-0.19469577 0.3038667 -0.37967303 0.028418096 0.19929515 0.0077156126 -0.4111314 0.22543874
0.11282192 -0.17120391 0.15467665 0.07903732 -0.13395658 0.23853746 -0.5667313 -0.09701006
-0.04500986 0.08614856 -0.12246766 0.13846816 -0.26545605 -0.10562079 -0.05124369 0.10591379
0.10140849 0.12548329 -0.080520935 -0.010157448 -0.07533237 -0.07167337 0.14163312 -0.13468835
0.10159366 -0.021223962 0.2849106 -0.055847514 0.022724053 0.19693792 -0.056044105 -0.04641504
-0.2052947 -0.12692524 0.06306217 0.44583207 -0.47316644 -0.22254069 -0.2592756 0.33456475
0.062196214 0.034649767 -0.017430868 -0.01884994 -0.11134095 -0.053439286 -0.18297167 -0.63490754
-0.44360626 0.049250487 -0.2681371 0.025424242 0.035290767 0.13853885 -0.099340685 -0.024273718
-0.08322467 0.071000494 -0.07004202 -0.0572754 -0.103320055 0.0598641 -0.051516797 -0.09153009
-0.10506344 -0.07129799 0.0061101317 0.16007261 0.01539843 0.046404615 -0.113650165 -0.33834335
00000000: 923c 89bd 77cb 143f cef0 00be 075d 673d
00000010: 418e 42bd 7c53 273c 78dd 7c3d 3c9b 503e
00000020: 16b3 763d 5bd3 783c a153 153c 95e2 0a3e
00000030: 826c 68bd f00e 3b3e 1445 a83d d2f1 cdbd
00000040: b12d 7bbd 2a40 62ba 4094 0bbb c695 9ebc
00000050: c35d 94bd c446 babd 6dfc f33c d49c e4bd
00000060: 8e48 94bd a787 84bd 27ae 0d3d a478 a93d
00000070: 473e 32bd fd63 0b3c 1311 8d3d 464a 25bd
00000080: 280a 6cbd 6b9d 893d b022 92be f3d4 fc3d
00000090: 0121 e3bc 7e09 80bc b676 99bd 6d1b 373d
000000a0: c235 183e 5bdf 3c3e a8ff 76bb f5d7 8ebd
000000b0: 7c41 163e 973e cc3b e84d cbbd 7cbd 0d3e
000000c0: 4bb9 d7bd 399a ccbd fe0e 79be bce4 1ebe
000000d0: 0b4a 00be ed03 2e3e cd82 9ebe c118 87be
000000e0: f2e1 8fbe 72c3 97be 713e f4b9 324b 913e
000000f0: 5afb 033c 2b2f 2b3e da03 46be 6ac9 e33d
00000100: 0255 de3d 4214 d4bd 67a3 57bd 13af 65be
00000110: 70f3 84be bac6 b1be b0d6 aa3e 153c d03d
00000120: a0ca 20bd 3f04 7ebe 4823 803e 6468 953e
00000130: 7f9b ab3d dd00 303c 1291 08be b852 463e
00000140: 802b a0be 238e 803e 7c23 babe b7cc 5fbd
00000150: 8943 0dbd 0c71 96bd 9fd8 143e b1e9 25be
00000160: c57e 243d cb31 bf3c 122b 0d3e cd5f 353e
00000170: 9db9 69bd 8a8e 69bc 806a a4be ec0f 4cbe
00000180: 44ac e1be fe96 76be c9b7 c63d 0577 883d
00000190: 5257 283e 91a8 fd3d fecc 07bd 3108 eabd
000001a0: 5c20 6c3d b1b1 3f3e 23a6 a33c 8157 8a3e
000001b0: 6e57 183e 3d62 ce3c 7fa2 cc3d 49e7 da3c
000001c0: d25a 0dbe ee82 1f3e 64d7 f3bd 66f8 de3d
000001d0: db66 72be e437 b5bd 4649 6bbd 0751 743d
000001e0: 6bc4 be3b 16ed af3d 5161 313e 0192 e13b
000001f0: a305 d1bd f778 af3d b582 42be 4ead 4dbd
00000200: 7388 713c f74b 9ebb a303 743d fcdb 37bd
00000210: 4e62 7d3c 8b7a 0dbd 7514 f53d aefb 45bd
00000220: 097f 893d 9a5b f23d 4477 2cbd 451a f6bc
00000230: f5b9 823d 6e31 99bd ff11 023e 3305 ac3d
00000240: 6f3a 16be 3c6e aa3c 982a d7bd 886e 89bd
00000250: 810a 0a3e a61b 19bd e4ba 37be 5e84 1cbd
00000260: 2a34 65bd 4e47 22be fe14 223e 940f ee3e
00000270: c94c 84bd 9e79 e33c 5dc5 1abe e35b a6bd
00000280: 15c2 c3bd bb75 2a3e 7f01 26be 4949 85be
00000290: afe3 0dbd 4f83 3bbd 00db 29be 6220 b43e
000002a0: 07d6 0a3b d811 ee3d cfc2 473e d92b e03d
000002b0: bd5c 7dbd 9921 cb3d ced9 5abe aff3 c8bd
000002c0: 545e 47be 6b94 9b3e 8164 c2be 11cd e83c
000002d0: 0714 4c3e 40d3 fc3b d17f d2be 6ad9 663e
000002e0: 2e0f e73d 1450 2fbe 8e63 1e3e 52de a13d
000002f0: ea2b 09be 2a43 743e 4d15 11bf 36ad c6bd
00000300: 425c 38bd a86e b03d 53d0 fabd 99ca 0d3e
00000310: dbe9 87be b64f d8bd e7e4 51bd 54e9 d83d
00000320: 41af cf3d b17e 003e 29e8 a4bd 6d6b 26bc
00000330: dc47 9abd 7dc9 92bd 4608 113e beeb 09be
00000340: 5610 d03d e0dd adbc cddf 913e 5dc0 64bd
00000350: cb27 ba3c 18aa 493e 818e 65bd b21d 3ebd
00000360: c638 52be b1f8 01be bd26 813d 1a44 e43e
00000370: df42 f2be b5e1 63be c5bf 84be 124c ab3e
00000380: 75c1 7e3d eaec 0d3d 2ecb 8ebc 306b 9abc
00000390: b906 e4bd 27e3 5abd ed5c 3bbe 4d89 22bf
000003a0: 5c20 e3be e1ba 493d 4449 89be 8046 d03c
000003b0: 0d8d 103d 21dd 0d3e 2173 cbbd add9 c6bc
000003c0: b271 aabd b568 913d 3172 8fbd 9c99 6abd
000003d0: 7799 d3bd 0f34 753d 4703 53bd 2174 bbbd
000003e0: 802b d7bd ae04 92bd 8037 c83b 13ea 233e
000003f0: b249 7c3c c412 3e3d 6bc1 e8bd 573b adbe

ent.weight f4 [9367, 16]
0.0 0.0 0.0 0.0 0.0 0.0 0.0 0.0
0.0 0.0 0.0 0.0 0.0 0.0 0.0 0.0
3.498915e-07 7.88242e-08 5.601844e-08 -2.7404068e-08 -3.1224863e-07 9.044319e-08 -1.7460428e-08 1.1015477e-07
3.434125e-05 -5.2165023e-09 -1.2234972e-09 -3.037816e-07 -3.9776307e-08 3.325765e-08 0.0005836721 -9.819445e-11
-8.844932e-07 -1.4813733e-07 4.1647688e-10 -6.791665e-08 -8.861603e-06 -1.915518e-08 -0.003359244 0.00027128012
-1.4322276e-07 0.0006290095 6.6497803e-09 0.010565627 1.0352503e-06 4.422477e-08 -3.515404e-08 0.00021315849
-0.30067965 0.0017425471 -0.002655153 -0.0016187407 -0.0016395467 -0.00042013405 -0.030399023 -0.000989691
0.0027023929 -0.00046192997 -0.0010977635 -0.0020926783 0.0004917063 -0.00011428147 -0.0010327599 1.8167952e-06
2.5586721e-06 -1.3475855e-06 0.003927568 -7.20848e-07 4.0144656e-07 7.824835e-05 0.0056788637 0.48768106
5.968433e-07 0.0029241913 -5.021662e-07 3.592729e-08 5.674924e-06 3.0613833e-07 1.4472986e-06 -1.4244458e-07
0.039826833 0.037034377 -0.011558666 -0.042791784 0.046687983 -0.030634146 0.04273834 -0.0028794736
-0.030370964 -0.041019656 0.020813357 -0.008844819 0.06553121 0.062168445 -0.037848856 -0.04907264
0.0013673173 0.8213383 -0.03926232 -0.00062823226 0.005878035 0.008426971 -0.00605284 -0.00019512944
-0.068838395 -0.056058466 -0.003451771 0.019215595 -0.028911965 -0.0006771383 0.07154477 -0.028020317
0.01272051 0.005959015 -0.00022828771 0.09973745 0.02004651 0.0037824775 -0.20447284 0.000856127
-0.013374293 -0.0014198571 0.009150027 -0.010773731 0.007387855 -0.007913964 -0.0008442709 -0.016414665
0.00087246107 0.002913811 4.1552365e-08 8.082637e-08 -0.00072643737 -1.4206881e-07 -1.2281581e-06 9.491616e-09
1.1355819e-06 1.05285615e-07 -0.07387216 -7.707261e-05 8.262287e-08 -0.3061162 -0.048495065 -1.9123965e-07
-0.002103006 2.9752193e-06 5.9009226e-06 -0.005252609 0.24222615 -0.0025616256 -2.2617265e-07 0.00033307166
-4.2653605e-06 2.5132476e-06 -2.3102634e-06 1.1005441e-05 -2.5860063e-06 0.00028191198 -0.00011452939 0.05778611
-0.0010701264 -0.0021877345 0.004852182 0.35927653 -0.0018254467 -0.0009818788 0.019931706 -0.019812396
-0.024011247 0.0027312727 0.22150603 0.010287429 0.0020467443 0.0062353257 0.0065160347 0.75837684
-5.520366e-08 -6.315505e-08 -1.6179709e-05 3.286766e-08 -2.6590419e-09 -1.0347861e-08 -5.2368006e-07 -0.0062206206
0.011713717 -5.0603177e-10 -0.2474979 3.9630866e-08 -6.280382e-11 2.1165156e-09 -1.2858051e-07 0.00018309857
-2.7056446e-08 -0.014730996 -0.70204186 1.0185112e-08 2.509524e-10 3.7346246e-10 0.16326147 2.2970589e-08
-0.0009998757 -1.1932206e-08 8.367634e-08 7.985931e-08 -8.3026706e-09 2.7536487e-07 -6.3075477e-06 5.024482e-08
0.0030578703 0.035975117 0.45226595 0.00047759732 -0.104701206 -0.0004643309 -0.20444517 0.0022078108
0.0031773814 -0.029882224 -0.06009073 0.18706033 -0.0061846715 0.0024578518 7.984242e-05 -0.0010958577
-0.01944851 -6.278274e-08 8.850023e-09 -1.1832609e-06 2.8768397e-09 2.4792024e-09 2.1892684e-07 -0.099417344
0.0146002015 -0.011077304 3.8824985e-10 -0.031467125 8.4065476e-08 -0.047150947 -2.1633207e-08 -4.0461767e-09
-0.001746589 0.0010219185 0.0809017 -0.00017503585 -0.0015637792 0.0002905398 -3.5092085e-05 0.001425099
0.0031533395 -0.00034481895 0.0022068366 0.0015120811 -0.008072571 0.011786468 0.012260685 0.14008196
00000000: 0000 0000 0000 0000 0000 0000 0000 0000
00000010: 0000 0000 0000 0000 0000 0000 0000 0000
00000020: 0000 0000 0000 0000 0000 0000 0000 0000
00000030: 0000 0000 0000 0000 0000 0000 0000 0000
00000040: b9d8 bb34 1046 a933 ed98 7033 2f66 ebb2
00000050: 20a3 a7b4 ab39 c233 e3fb 95b2 3a8e ec33
00000060: a309 1038 d73c b3b1 fb27 a8b0 6d17 a3b4
00000070: 83d6 2ab3 2cd7 0e33 9201 193a 90ee d7ae
00000080: e96d 6db5 ae0f 1fb4 e9f5 e42f 93d9 91b3
00000090: 4cac 14b7 b08a a4b2 c326 5cbb 9a3a 8e39
000000a0: c6c8 19b4 1de4 243a 167c e431 741b 2d3c
000000b0: eef2 8a35 a6f1 3d33 47fc 16b3 4c83 5f39
000000c0: aff2 99be 2e66 e43a 1302 2ebb ed2b d4ba
000000d0: 0fe6 d6ba 7045 dcb9 5f07 f9bc 85b8 81ba
000000e0: a11a 313b 312f f2b9 d5e2 8fba 5125 09bb
000000f0: dae5 003a 66aa efb8 ac5d 87ba 9cd8 f335
00000100: a7b5 2b36 afde b4b5 d4b2 803b 4c80 41b5
00000110: 6586 d734 4319 a438 c315 ba3b 55b1 f93e
00000120: c236 2035 caa3 3f3b 99cc 06b5 794e 1a33
00000130: 3a6b be36 555b a434 cd40 c235 def2 18b4
00000140: 7621 233d 5cb1 173d 8f60 3dbc 7046 2fbd
00000150: e63b 3f3d 76f4 fabc 660e 2f3d 8db5 3cbb
00000160: 87cc f8bc 3a04 28bd c680 aa3c dce9 10bc
00000170: 3a35 863d 57a4 7e3d 6707 1bbd 6400 49bd
00000180: 8e37 b33a 3a43 523f 87d1 20bd f4af 24ba
00000190: 889c c03b 4711 0a3c e756 c6bb a99b 4cb9
000001a0: 25fb 8cbd 909d 65bd 1c37 62bb 066a 9d3c
000001b0: c9d8 ecbc fb81 31ba 1086 923d dd8a e5bc
000001c0: b069 503c d743 c33b 8460 6fb9 2643 cc3d
000001d0: 9438 a43c 71e3 773b 5461 51be b66d 603a
000001e0: da1f 5bbc 801a baba ffe9 153c 4e84 30bc
000001f0: d215 f23b 92a9 01bc 1052 5dba 0c78 86bc
00000200: dfb5 643a a3f5 3e3b 4f77 3233 c492 ad33
00000210: 636e 3eba 948b 18b4 31d7 a4b5 9210 2332
00000220: 4c6a 9835 6119 e233 494a 97bd 0ba2 a1b8
00000230: 676e b133 43bb 9cbe c3a2 46bd 8e57 4db4
00000240: 96d2 09bb e1a9 4736 8a00 c636 141e acbb
00000250: 220a 783e f2e0 27bb ddd9 72b4 1fa0 ae39
00000260: 2b1f 8fb6 44a9 2836 060a 1bb6 02a4 3837
00000270: 408b 2db6 96cd 9339 802f f0b8 21b1 6c3d
00000280: 7c43 8cba 1860 0fbb 0eff 9e3b 18f3 b73e
00000290: d443 efba 63b2 80ba d147 a33c 9b4d a2bc
000002a0: 3cb3 c4bc 27ff 323b 7ad2 623e 9b8c 283c
000002b0: ac22 063b b451 cc3b 7684 d53b fc24 423f
000002c0: 1119 6db3 db9f 87b3 a9b9 87b7 602a 0d33
000002d0: 5cba 36b1 60c6 31b2 0593 0cb5 59d6 cbbb
000002e0: e4ea 3f3c d218 0bb0 1770 7dbe 9936 2a33
000002f0: 681b 8aae 2372 1131 f10f 0ab4 26fe 3f39
00000300: c169 e8b2 475a 71bc 04b9 33bf 99fa 2e32
00000310: 69f6 892f 2b50 cd2f 042e 273e dc50 c532
00000320: 430e 83ba 66fe 4cb2 8eb1 b333 1f7f ab33
00000330: 88a3 0eb2 dcd5 9334 6ca5 d3b6 c4cc 5733
00000340: 8d66 483b a55a 133d 678f e73e 0766 fa39
00000350: 966d d6bd 7071 f3b9 135a 51be ebb0 103b
00000360: 9d3b 503b 91cb f4bc b321 76bd be8c 3f3e
00000370: c9a8 cabb e913 213b 1371 a738 e2a2 8fba
00000380: 7b52 9fbc 2dd3 86b3 d00a 1832 89d0 9eb5
00000390: e6b1 4531 975e 2a31 2712 6b34 529b cbbd
000003a0: af35 6f3c 957d 35bc 4f71 d52f ace3 00bd
000003b0: 7c87 b433 5a21 41bd edd3 b9b2 8c06 8bb1
000003c0: cded e4ba e5f1 853a caaf a53d d489 37b9
000003d0: b9f7 ccba 9853 9839 d72f 13b8 63ca ba3a
000003e0: 42a8 4e3b d1c8 b4b9 93a0 103b 0631 c63a
000003f0: d142 04bc 081c 413c 0ae1 483c a571 0f3e

rel.weight f4 [61, 16]
0.0 0.0 0.0 0.0 0.0 0.0 0.0 0.0
0.0 0.0 0.0 0.0 0.0 0.0 0.0 0.0
-0.11350467 -0.04204701 0.117938325 -0.4543355 0.075702116 0.7113818 -0.38749745 -0.61657435
-0.5039868 -0.53967714 -0.6846043 0.79728913 -0.30328274 -0.062219936 -1.6994171 0.8343436
-0.12582953 0.5212529 0.36443165 0.68032044 -0.55591863 -0.9872169 0.7532921 0.12726371
-0.8147198 0.15930724 0.16154554 1.0052321 -0.61643577 -0.7359815 0.4412904 0.26254556
0.02206254 -0.07102833 0.049159266 -0.82142967 -1.5232633 1.4824182 -0.6832152 0.7101726
0.14752446 0.32232803 -0.54935884 0.10428008 0.13356338 0.96023035 0.42934623 -0.63126534
0.21609414 0.21958582 0.30986542 -0.31251585 0.18782136 0.12490526 -0.5267423 -0.6647119
0.17932706 -0.343816 0.7850391 -0.482003 0.5472573 0.27782708 -0.31897432 -0.8397452
-0.33713603 -1.6967248 -0.5444136 0.37995207 -0.9005475 -1.3100355 -1.0989677 0.4752805
-0.8537432 0.16954806 0.32155702 -2.2451935 -0.8471499 0.5744546 0.2408496 0.46842
3.5049394e-05 0.090535335 -0.075604394 0.0006854131 -0.018142965 0.00042756565 0.005219399 -0.0016150799
0.002375321 0.0034803553 -0.0015619247 -0.00064447295 -0.46434906 0.18040875 -0.00310437 -0.0009458598
-0.0050979014 -0.049108762 0.0076585887 -0.0010095978 0.017107978 -0.0005064075 -0.004253576 0.0018328072
-0.0028371885 -0.015344568 0.0019831522 -0.00043814286 -0.026915113 -0.0023715277 0.0015832966 0.0010233569
0.10291213 -0.048968013 -0.048317194 -0.11646228 0.04403622 0.13677095 0.1647418 0.04763445
-0.043044142 0.00030282352 0.02391464 0.26854637 -0.018074611 -0.012117864 0.1280088 0.41135308
0.0035345517 0.08234198 0.1320677 -0.007315188 -0.12182462 0.008682278 -0.7523163 -0.0021472436
-0.0011791581 0.06873596 -0.019665947 0.0029366922 -0.15245642 -0.024052529 0.19169158 0.015753472
-0.871816 -0.03772461 -0.19703579 0.52290577 0.53132904 -0.57706976 -0.12853436 1.0498946
0.91456926 1.2213048 0.83112323 0.10710232 -0.009094864 -0.037120935 -1.2204915 -0.19257025
0.025507104 -0.0016526874 -0.40134034 0.078418925 0.40206587 -0.072841585 0.0641621 0.0409074
0.40183434 0.08235722 -0.01873143 0.14367223 -0.014982269 0.09397202 0.03391668 0.27011624
-0.008905245 0.0050892187 0.0032640502 -0.015579226 -0.011895924 -0.0025613809 -0.007485575 -0.089333445
-0.0027192507 -0.012432661 0.004976698 0.0066783847 0.30339244 -0.007856254 -8.147201e-05 0.0044855736
-0.8684906 -0.253575 0.20145337 -0.077897586 0.110331416 -0.35518867 0.23418432 0.016942661
-0.12133497 0.16884324 0.033131655 0.07302096 -0.20150562 0.35406533 0.03156114 0.26919663
-0.40440345 -0.031244239 0.39355683 -0.25109926 0.16535723 -0.31265357 0.7241175 -0.39235345
0.054672223 -0.08673198 0.29780674 -0.123555616 0.16797158 -0.00271852 -0.114412956 0.2361603
0.24780755 0.66243386 0.33324736 0.041872554 0.38959587 0.1748017 -0.09423263 0.059553493
-0.06525965 0.007770905 -0.16486514 0.012991212 -0.03775569 -0.026479263 0.058779713 0.08560075
00000000: 0000 0000 0000 0000 0000 0000 0000 0000
00000010: 0000 0000 0000 0000 0000 0000 0000 0000
00000020: 0000 0000 0000 0000 0000 0000 0000 0000
00000030: 0000 0000 0000 0000 0000 0000 0000 0000
00000040: 2375 e8bd 7c39 2cbd a689 f13d aa9e e8be
00000050: b609 9b3d 1e1d 363f 1166 c6be d1d7 1dbf
00000060: 4705 01bf 4828 0abf 3a42 2fbf 241b 4c3f
00000070: e047 9bbe 55da 7ebd 8086 d9bf 8b97 553f
00000080: 75d9 00be d470 053f c996 ba3e 7b29 2e3f
00000090: af50 0ebf 3fba 7cbf c0d7 403f 6b51 023e
000000a0: 7a91 50bf 7021 233e 326c 253e 72ab 803f
000000b0: bcce 1dbf 4969 3cbf d1f0 e13e 5f6c 863e
000000c0: 80bc b43c 4d77 91bd 3a5b 493d 3749 52bf
000000d0: 4bfa c2bf e1bf bd3f 31e7 2ebf dfcd 353f
000000e0: a710 173e 2e08 a53e c8a2 0cbf cb90 d53d
000000f0: d7c4 083e a8d1 753f 45d3 db3e 9b9a 21bf
00000100: c847 5d3e 1bdb 603e aea6 9e3e 1402 a0be
00000110: 3e54 403e 54ce ff3d 95d8 06bf 8f2a 2abf
00000120: 83a1 373e a708 b0be 53f8 483f 19c9 f6be
00000130: 0e19 0c3f 5a3f 8e3e 9a50 a3be 8bf9 56bf
00000140: 189d acbe 472e d9bf b15e 0bbf 1489 c23e
00000150: 488a 66bf 3eaf a7bf f9aa 8cbf f757 f33e
00000160: ea8e 5abf 029e 2d3e 1fa3 a43e 40b1 0fc0
00000170: d1de 58bf 750f 133f 47a1 763e bfd4 ef3e
00000180: 0002 1338 976a b93d 7ad6 9abd 4bad 333a
00000190: 8ea0 94bc e42a e039 7e07 ab3b 17b1 d3ba
000001a0: 46ab 1b3b ac16 643b 7fb9 ccba d9f1 28ba
000001b0: 29bf edbe 12bd 383e b072 4bbb 94f3 77ba
000001c0: 4c0c a7bb 4526 49bd e6f4 fa3b 7b54 84ba
000001d0: 0826 8c3c 6fc0 04ba 9561 8bbb ce3a f03a
000001e0: 20f0 39bb c867 7bbc c6f7 013b 8ab6 e5b9
000001f0: 157d dcbc a26b 1bbb 9e86 cf3a 2922 863a
00000200: 98c3 d23d af92 48bd 40e8 45bd c783 eebd
00000210: 535f 343d af0d 0c3e 13b2 283e 571c 433d
00000220: 0e4f 30bd 49c4 9e39 a3e8 c33c e97e 893e
00000230: 3511 94bc 018a 46bc bd14 033e df9c d23e
00000240: f0a3 673b e9a2 a83d c13c 073e 3fb4 efbb
00000250: 307f f9bd 1d40 0e3c cd97 40bf c5b8 0cbb
00000260: fb8d 9aba 70c5 8c3d 7b1a a1bc 8575 403b
00000270: 891d 1cbe cf09 c5bc cc4a 443e 6d0d 813c
00000280: 552f 5fbf 1f85 1abd c0c3 49be 27dd 053f
00000290: 2e05 083f d8ba 13bf 839e 03be f262 863f
000002a0: 3621 6a3f b753 9c3f 7ec4 543f 7658 db3d
000002b0: a002 15bc 1f0c 18bd 1139 9cbf 2331 45be
000002c0: 46f4 d03c fd9e d8ba 7b7c cdbe 1a9a a03d
000002d0: 94db cd3e f82d 95bd 6b67 833d 858e 273d
000002e0: 3bbd cd3e e7aa a83d a872 99bc d01e 133e
000002f0: 3178 75bc 6774 c03d 37ec 0a3d ad4c 8a3e
00000300: 4ee7 11bc 76c3 a63b ade9 553b 0340 7fbc
00000310: 1fe7 42bc d7dc 27bb 8e49 f5bb 74f4 b6bd
00000320: 7535 32bb 5cb2 4bbc 9213 a33b 5ad6 da3b
00000330: 4156 9b3e 84b7 00bc f4db aab8 b8fb 923b
00000340: 6655 5ebf 95d4 81be cb49 4e3e c588 9fbd
00000350: 70f5 e13d 4adb b5be 04ce 6f3e 56cb 8a3c
00000360: 787e f8bd 3ee5 2c3e 0fb5 073d 038c 953d
00000370: 7d57 4ebe 0d48 b53e 4146 013d 24d4 893e
00000380: f80d cfbe ebf3 ffbc 4880 c93e 1590 80be
00000390: 6853 293e 2114 a0be c45f 393f 8de2 c8be
000003a0: fbef 5f3d 89a0 b1bd 207a 983e ba0a fdbd
000003b0: be00 2c3e 3229 32bb 5751 eabd 01d4 713e
000003c0: 43c1 7d3e 4495 293f 669f aa3e 8e82 2b3d
000003d0: 1c79 c73e 38ff 323e 0afd c0bd 5dee 733d
000003e0: daa6 85bd 13a3 fe3b 68d2 28be 18d9 543c
000003f0: b6a5 1abd 0aeb d8bc ffc2 703d 724f af3d

aggregator.0.weights.weight f4 [16, 16]
-0.03806772 0.22514457 -0.1755064 -0.21278049 0.21681952 -0.067533106 0.020809544 -0.0820473
0.24686058 -0.038509868 -0.1146904 -0.15883066 0.06309441 0.003910987 0.23167686 0.01288936
0.15636429 0.26304522 -0.19941959 -0.23725462 -0.2617498 0.123659186 -0.024891043 -0.053515166
0.21840382 -0.040547226 0.057801425 -0.05668066 0.15533367 0.037448242 0.40959847 0.17542684
0.18273535 0.115153745 0.015996981 -0.14473306 -0.23604867 -0.17775206 0.36537763 0.04451631
0.03920264 -0.2121661 0.0749582 -0.2327987 0.1517821 0.040783003 -0.06803668 -0.13432102
-0.14662793 -0.20156929 0.23731495 0.22215869 -0.31476122 0.025284281 0.31587318 -0.012517251
-0.16852719 -0.34723127 0.013068759 0.14777504 0.22657515 0.11911191 -0.14739758 -0.120686784
0.13038576 0.05532004 -0.07678933 -0.0874983 -0.018675689 -0.12214464 0.025456693 0.05738212
-0.15899292 -0.0074504507 -0.26782826 0.095753156 0.1656026 -0.057683017 -0.23384465 -0.018598424
-0.11646827 -0.24370123 0.09393816 -0.02599675 -0.012396937 -0.01741401 0.025291506 -0.076252855
-0.02344234 -0.15373315 0.049536567 0.037312593 -0.121188246 0.03319454 0.11067861 0.053173978
-0.07434403 -0.12754585 -0.013781878 -0.15533283 -0.12590064 0.026230527 -0.033203896 0.21805511
0.13461532 -0.089097306 0.15627035 -0.0030328399 -0.020610213 0.0015440288 0.067031756 -0.04212117
0.11048842 -0.035464134 -0.03588505 0.011471265 0.11566088 -0.030295923 -0.1873867 0.23810023
0.07270015 0.1478164 0.22439826 -0.23721813 0.12728842 -0.15424119 0.022427183 -0.104938
-0.1474666 0.0263547 -0.3078442 -0.011667359 0.09048882 -0.031078538 0.041344322 0.2877957
0.10864742 -0.089545585 -0.055363238 -0.07280461 -0.32715517 -0.21667404 0.12336457 0.0015317688
0.040360633 0.11828116 -0.11959412 0.25549662 -0.24359089 0.17413536 0.18875314 0.0123061985
0.37675494 -0.29785067 0.16681354 0.30850416 0.012312013 -0.024022808 0.068015866 0.12023918
0.100372665 0.03581935 -0.028256755 0.0042780754 -0.0052209473 0.30192733 -0.15750574 -0.029161397
0.115598775 -0.20405394 0.06799791 -0.1086147 -0.056680724 0.19068542 0.08567306 0.0855554
0.07402454 0.084428415 0.023215158 0.0076960386 0.047505625 -0.21053359 0.02303045 0.29696837
-0.13002072 -0.058711268 -0.08999598 0.15107864 -0.0046317056 0.0792129 0.06063132 0.09306396
-0.07992283 -0.020237945 -0.06920908 0.18405548 0.13609111 -0.030178472 0.43824944 -0.12408016
-0.48755527 -0.36038262 0.1743702 0.26131317 0.097928345 -0.24768016 -0.20864914 0.012058254
0.13826065 0.09550666 -0.12234125 -0.061306678 0.024827138 -0.0810797 0.075541034 -0.29566082
0.20180698 -0.0015229132 -0.044962898 0.23348473 -0.06384608 0.007909367 0.028366975 0.04838947
0.11914819 -0.04555952 0.10976224 -0.11061205 -0.04228563 -0.009632587 0.15867266 -0.17321536
-0.04620596 -0.25634605 0.014764357 0.10752065 0.01662343 0.013357028 -0.11818541 -0.2652183
0.26171088 0.19922103 -0.20021553 -0.09955949 0.04371107 0.15417871 -0.012642558 0.106870085
-0.17932981 -0.016058514 0.27400625 0.051866576 0.4205525 -0.21099156 -0.12905294 -0.26768062
00000000: e6ec 1bbd 4c8c 663e f3b7 33be 21e3 59be
00000010: f005 5e3e cc4e 8abd c778 aa3c 6a08 a8bd
00000020: 05c9 7c3e 86bc 1dbd cde2 eabd 81a4 22be
00000030: a437 813d bd27 803b b33c 6d3e e52d 533c
00000040: f61d 203e ddad 863e a634 4cbe e0f2 72be
00000050: 1204 86be 0741 fd3d 4de8 cbbc b832 5bbd
00000060: 40a5 5f3e d914 26bd 30c1 6c3d fb29 68bd
00000070: ca0f 1f3e 5463 193d e4b6 d13e 18a3 333e
00000080: fa1e 3b3e bad5 eb3d 1a0c 833c e734 14be
00000090: beb6 71be a304 36be c712 bb3e bc56 363d
000000a0: f392 203d 1242 59be af83 993d c862 6ebe
000000b0: c46c 1b3e 140c 273d d156 8bbd 738b 09be
000000c0: a225 16be 2e68 4ebe b102 733e 917d 633e
000000d0: 6228 a1be fb20 cf3c 21ba a13e 2815 4dbc
000000e0: 6492 2cbe 4cc8 b1be 591e 563c 5752 173e
000000f0: 5103 683e f2f0 f33d 64ef 16be a22a f7bd
00000100: d883 053e 4497 623d b943 9dbd 4f32 b3bd
00000110: c2fd 98bc f826 fabd 8e8a d03c 8409 6b3d
00000120: 0acf 22be e922 f4bb c920 89be 3b1a c43d
00000130: ba93 293e 0745 6cbd f974 6fbe b95b 98bc
00000140: eb86 eebd d18c 79be a662 c03d 23f7 d4bc
00000150: 861c 4bbc d3a7 8ebc 2230 cf3c 752a 9cbd
00000160: 260a c0bc 396c 1dbe dbe6 4a3d 17d5 183d
00000170: 8b31 f8bd fff6 073d 78ab e23d f5cc 593d
00000180: af41 98bd 619b 02be 63cd 61bc 920f 1fbe
00000190: 19ec 00be 67e1 d63c cf00 08bd d749 5f3e
000001a0: 99d8 093e a678 b6bd 5605 203e 9cc2 46bb
000001b0: c0d6 a8bc 0261 ca3a f247 893d 3f87 2cbd
000001c0: c147 e23d d742 11bd 34fc 12bd f9f1 3b3c
000001d0: 9ddf ec3d 282f f8bc 4de2 3fbe 8cd0 733e
000001e0: d1e3 943d 2f5d 173e a8c8 653e 4fe9 72be
000001f0: e557 023e 67f1 1dbe 36b9 b73c bce9 d6bd
00000200: 7c01 17be d0e5 d73c c19d 9dbe 7328 3fbc
00000210: 3452 b93d 6b98 febc aa58 293d f559 933e
00000220: 8a82 de3d ad63 b7bd 90c4 62bd 951a 95bd
00000230: e280 a7be cddf 5dbe 90a6 fc3d a2c5 c83a
00000240: 3151 253d 653d f23d c3ed f4bd 74d0 823e
00000250: e46f 79be 8a50 323e 8148 413e f09f 493c
00000260: 06e6 c03e e27f 98be 2bd1 2a3e 42f4 9d3e
00000270: 53b8 493c 7bcb c4bc e74b 8b3d f63f f63d
00000280: 2f90 cd3d 50b7 123d b67a e7bc 192f 8c3b
00000290: 7b14 abbb 3896 9a3e 2f49 21be e2e3 eebc
000002a0: 0dbf ec3d 84f3 50be 7d42 8b3d 6271 debd
000002b0: 0c2a 68bd 0a43 433e 5b75 af3d ab37 af3d
000002c0: 2e9a 973d cee8 ac3d b72d be3c 0d2f fc3b
000002d0: 4295 423d 1e96 57be 5baa bc3c 3d0c 983e
000002e0: 2724 05be 3a7b 70bd d04f b8bd 5cb4 1a3e
000002f0: 90c5 97bb 5f3a a23d 8c58 783d 5198 be3d
00000300: 95ae a3bd 0cca a5bc 7dbd 8dbd 0a79 3c3e
00000310: 785b 0b3e d838 f7bc 3b62 e03e bd1d febd
00000320: d8a0 f9be 1284 b8be 1a8e 323e d7ca 853e
00000330: a88e c83d de9f 7dbe 1fa8 55be fc8f 453c
00000340: 3394 0d3e ff98 c33d 0d8e fabd b61c 7bbd
00000350: 4862 cb3c 1d0d a6bd 42b5 9a3d db60 97be
00000360: 7da6 4e3e 7d9c c7ba 042b 38bd 9f16 6f3e
00000370: bcc1 82bd 4a96 013c dc61 e83c 0934 463d
00000380: f703 f43d 9f9c 3abd 06cb e03d 9288 e2bd
00000390: b233 2dbd 00d2 1dbc 167b 223e 5e5f 31be
000003a0: 7642 3dbd ca3f 83be 34e6 713c c933 dc3d
000003b0: dc2d 883c 70d7 5a3c 310b f2bd b1ca 87be
000003c0: f8fe 853e 9900 4c3e 4d05 4dbe d9e5 cbbd
000003d0: 610a 333d 06e1 1d3e bb22 4fbc b4de da3d
000003e0: 3ca2 37be 258d 83bc 8c4a 8c3e 0c72 543d
000003f0: a852 d73e 2c0e 58be 7426 04be 6f0d 89be

aggregator.0.weights.bias f4 [16]
0.019231852 -0.029039504 -0.033889 -0.02940539 -0.112065 -0.1820917 -0.27810803 -0.12957422
-0.00759711 -0.023552693 0.05099545 0.042836323 -0.07805146 -0.03961858 0.015901878 0.03657939
00000000: 1e8c 9d3c 41e4 edbc 31cf 0abd 93e3 f0bc
00000010: 5682 e5bd 3f76 3abe 2d64 8ebe 1baf 04be
00000020: 2df1 f8bb 94f1 c0bc 9be0 503d 2475 2f3d
00000030: 72d9 9fbd 1847 22bd a844 823c 45d4 153d

aggregator.1.weights.weight f4 [16, 16]
-0.25447935 0.011767096 -0.1528214 -0.29958004 0.06214959 0.02272399 -0.23599108 -0.2968808
0.10320619 -0.09663191 0.043902725 0.15412267 -0.37123248 -0.025882388 -0.0946085 -0.13902883
0.16789636 0.1526311 0.21836343 0.091849834 0.11553184 0.15694654 -0.0053690863 0.07406324
-0.20452048 0.23447855 -0.16606301 -0.12718308 0.011045817 0.112039685 0.09003443 0.21163233
0.10591908 -0.1690863 -0.18305904 -0.21980458 0.20883153 -0.006506622 -0.035748027 -0.24846536
-0.17165744 -0.3305957 -0.10573876 0.12173863 -0.26681802 -0.07118549 -0.20586996 -0.03727471
0.1318727 -0.009228272 0.06454318 0.13082848 0.16451816 0.0024796436 -0.019315891 0.07736966
-0.11902937 0.17919971 -0.02940175 -0.0709218 0.042859737 -0.012656306 -0.004887574 -0.15378363
-0.29318812 -0.17259164 0.07103111 0.08933255 -0.066076785 -0.17412362 0.1579295 -0.19583938
-0.102751315 0.094313525 -0.006320718 0.070217 -0.5263684 -0.035431366 0.029790968 0.08460809
-0.09332217 0.005398288 0.019126944 -0.26045153 -0.15978347 0.106534764 -0.051133048 -0.13853972
0.20483755 0.13032526 -0.07897319 0.1507572 0.018316863 0.016936045 -0.06266777 -0.11267801
0.2234247 -0.042122424 -0.17026414 -0.20453374 0.04596738 0.04934864 -0.1596268 -0.14409171
-0.18964532 -0.17759396 0.00684123 0.13052806 -0.33506843 -0.13998118 0.014268962 -0.046420377
-0.034063693 0.0039293794 0.13777177 0.14748147 0.083200835 0.07226596 -0.069829844 -0.04291825
-0.14398843 0.22050865 0.12906308 -0.1432397 -0.15113258 -0.0037685484 -0.14329441 -0.3633895
0.103137635 0.15480645 -0.14476475 0.1267298 0.025563303 0.0013682286 0.006748894 -0.15378997
0.21655165 0.15165602 0.19796972 0.06261246 0.075908296 0.044996027 0.19617198 -0.22683896
0.016114183 0.17517295 -0.09846726 0.35584018 -0.0446825 -0.038596123 -0.069326736 -0.19070181
-0.1495316 0.07342019 0.032820474 -0.117462926 0.10386352 0.23966807 -0.015235425 -0.17245238
0.12949683 -0.057409927 0.052105118 0.1891559 0.04384027 0.07286389 0.081383735 -0.065522864
-0.115874395 0.17544372 -0.106102 0.03387223 0.19942378 -0.15788871 0.2976359 -0.106669076
-0.13429968 0.26003978 -0.0830991 -0.15811013 -0.18464735 -0.055725295 0.019588446 -0.03525723
0.13149884 0.032102443 0.011983605 0.09442441 0.12121361 -0.10010371 -0.107759625 0.45977753
-0.19143626 -0.10940496 -0.22972517 0.07095186 -0.11585738 0.0539989 -0.1797223 -0.14452367
-0.10526088 -0.05158504 0.089025036 0.058603477 0.15711954 -0.039166722 -0.12594375 0.05364873
-0.28235084 -0.11238524 -0.052854795 0.2104859 -0.11132675 0.080081776 0.10867519 -0.11253172
-0.0985903 0.22081608 -0.13820206 -0.10855402 0.35518995 0.0727229 -0.16435772 -0.104455
-0.18801205 -0.031820312 -0.35744995 -0.17480744 -0.12843795 -0.16180241 -0.06552909 0.041787136
-0.3216048 -0.07629193 0.13013546 -0.11471753 -0.5506368 0.02710669 -0.026903855 -0.3080344
0.19317843 -0.15349732 -0.051922034 0.1532578 -0.017461421 -0.059534013 -0.025084084 -0.15688416
0.1561435 -0.43921033 -0.041084524 0.062368542 0.25326088 -0.12566726 0.0016515589 -0.14238212
00000000: 1e4b 82be c7ca 403c 377d 1cbe 8e62 99be
00000010: 9290 7e3d a927 ba3c a5a7 71be c300 98be
00000020: c45d d33d f3e6 c5bd 58d3 333d 55d2 1d3e
00000030: 2f12 bebe 4d07 d4bc 1ac2 c1bd 935d 0ebe
00000040: 06ed 2b3e 544b 1c3e aa9a 5f3e c41b bc3d
00000050: f59b ec3d 98b6 203e 29ef afbb 78ae 973d
00000060: d16d 51be 251b 703e 6c0c 2abe 483c 02be
00000070: 84f9 343c 1075 e53d f963 b83d 25b6 583e
00000080: 1aec d83d f624 2dbe d473 3bbe 7414 61be
00000090: efd7 553e 8035 d5bb 866c 12bd b46d 7ebe
000000a0: f8c6 2fbe d743 a9be 908d d8bd 1a52 f93d
000000b0: 5f9c 88be b3c9 91bd 93cf 52be 5ead 18bd
000000c0: a309 073e 2e32 17bc 372f 843d e7f7 053e
000000d0: 7377 283e 8481 223b 5c3c 9ebc fc73 9e3d
000000e0: acc5 f3bd 2180 373e f0db f0bc 733f 91bd
000000f0: b18d 2f3d 655c 4fbc f127 a0bb 7579 1dbe
00000100: c11c 96be ddbb 30be c278 913d fcf3 b63d
00000110: 4453 87bd 764d 32be 45b8 213e 1e8a 48be
00000120: 486f d2bd 7327 c13d 071e cfbb eecd 8f3d
00000130: 14c0 06bf 7b20 11bd 300c f43c 0247 ad3d
00000140: b21f bfbd 1fe4 b03b 1cb0 9c3c e759 85be
00000150: 479e 23be e62e da3d e370 51bd 5bdd 0dbe
00000160: efc0 513e fc73 053e b2bc a1bd 1860 1a3e
00000170: 3f0d 963c 76bd 8a3c f657 80bd bac3 e6bd
00000180: 72c9 643e 9088 2cbd b959 2ebe 4b71 51be
00000190: 4b48 3c3d cd21 4a3d 3575 23be c78c 13be
000001a0: 6232 42be 31db 35be 662c e03b 26a9 053e
000001b0: 178e abbe 3a57 0fbe 5dc8 693c 4b23 3ebd
000001c0: 5f86 0bbd 06c2 803b 0b14 0d3e 6205 173e
000001d0: 3365 aa3d 2d00 943d f302 8fbd 0ccb 2fbd
000001e0: b471 13be 05cd 613e 1d29 043e 6ead 12be
000001f0: 80c2 1abe c0f9 76bb c5bb 12be 300e babe
00000200: d339 d33d 9585 1e3e 363d 14be 75c5 013e
00000210: 226a d13c 2256 b33a d425 dd3b 1e7b 1dbe
00000220: b7bf 5d3e b74b 1b3e 93b8 4a3e f63a 803d
00000230: cf75 9b3d c14d 383d 4fe1 483e 7948 68be
00000240: e401 843c 8a60 333e 34a9 c9bd af30 b63e
00000250: ff04 37bd f816 1ebd 2dfb 8dbd 5647 43be
00000260: d01e 19be 535d 963d c36e 063d 6790 f0bd
00000270: 66b6 d43d 8c6b 753e 019e 79bc 5b97 30be
00000280: d19a 043e ac26 6bbd 2d6c 553d 16b2 413e
00000290: db91 333d aa39 953d 84ac a63d da30 86bd
000002a0: 8e4f edbd 85a7 333e 014c d9bd 9cbd 0a3d
000002b0: bf35 4c3e 94ad 21be bc63 983e 5175 dabd
000002c0: db85 09be ef23 853e dc2f aabd 9fe7 21be
000002d0: 3214 3dbe 3540 64bd f377 a03c e369 10bd
000002e0: a2a7 063e da7d 033d e256 443c 9661 c13d
000002f0: d73e f83d 2d03 cdbd 14b1 dcbd f667 eb3e
00000300: de07 44be b50f e0bd 133d 6bbe 354f 913d
00000310: a246 edbd f32d 5d3d 1f09 38be 03fe 13be
00000320: 0493 d7bd d64a 53bd c252 b63d 330a 703d
00000330: f2e3 203e 496d 20bd 66f7 00be c5be 5b3d
00000340: 4a90 90be 3c2a e6bd 457e 58bd 9e89 573e
00000350: 47ff e3bd ea01 a43d 1991 de3d 0877 e6bd
00000360: b6e9 c9bd 9c1d 623e d784 0dbe 9251 debd
00000370: 75db b53e beef 943d 644d 28be 81ec d5bd
00000380: 3b86 40be 0456 02bd ae03 b7be b900 33be
00000390: 3d85 03be 88af 25be 1e34 86bd fd28 2b3d
000003a0: 62a9 a4be f23e 9cbd 3b42 053e 06f1 eabd
000003b0: 89f6 0cbf d90e de3c 7965 dcbc afb6 9dbe
000003c0: 91d0 453e 672e 1dbe 33ac 54bd 9def 1c3e
000003d0: 410b 8fbc f0d9 73bd 237d cdbc 3ea6 20be
000003e0: 15e4 1f3e 2de0 e0be 3f48 28bd 2876 7f3d
000003f0: 69ab 813e ebae 00be 1f79 d83a 9ecc 11be

aggregator.1.weights.bias f4 [16]
0.048855044 -0.123075 0.09175697 0.0040613026 -0.08194874 -0.08854395 0.06430732 0.16489774
-0.14205599 -0.124058284 0.087915026 -0.008545458 -0.069835104 -0.028706506 0.31751764 0.02464339
00000000: 3a1c 483d bf0e fcbd 14eb bb3d ad14 853b
00000010: bed4 a7bd 8856 b5bd 8eb3 833d f4da 283e
00000020: 2077 11be 4512 febd cb0c b43d 4002 0cbc
00000030: b505 8fbd e829 ebbc ac91 a23e efe0 c93c
