kgraph_models/model_node_8000_0.7542129276421459.pt (torch, 728580 bytes, 7 tensors)

usr.weight f4 [1872, 16]
0	0xbdc74bb5	-0.09731237
1	0x3eab6f03	0.33483133
2	0xbe0367c0	-0.12832546
3	0x3d7b6f75	0.06138559
4	0xbe89b1f1	-0.2689357
5	0xbe7f7073	-0.2494524
6	0xbbb38d5c	-0.005479498
7	0x3e6bdc0e	0.23033163
8	0x3db66943	0.08906796
9	0x3d6c01a2	0.057618745
10	0x3e2c651f	0.1683545
11	0x3e3720fb	0.17883675
12	0xbe7e2300	-0.24818039
13	0x3b810776	0.003937657
14	0x3d41e2c0	0.047335386
15	0xbe530e77	-0.20610987
16	0x3dc01c30	0.09380376
17	0xbe06b54d	-0.13155098
18	0x3dd88c2d	0.105736114
19	0xbde06c01	-0.109581
20	0x3d8302ba	0.063970044
21	0xbd4441e3	-0.047914397
22	0x3ddca3da	0.1077344
23	0x3e02fff7	0.12792955
24	0xbdf8bb21	-0.12145067
25	0xbdf57fdc	-0.11987278
26	0x3c40d65a	0.011769855
27	0xbdcef993	-0.10106196
28	0x3dc8972b	0.09794458
29	0xbd2a2b52	-0.04154522
30	0x3e026dcb	0.12737195
31	0x3dde475e	0.10853456
32	0xbe2959c7	-0.16538154
33	0x3e5adbc7	0.21372901
34	0xbea07544	-0.31339467
35	0x3e7a1c39	0.24424829
36	0xbd3f055b	-0.046635967
37	0xbc3dcc5e	-0.0115843695
38	0xbe6050db	-0.21905844
39	0x3d7658de	0.060143344
40	0x3ed8a347	0.4231207
41	0x3ee5304c	0.4476341
42	0x3d7c9230	0.061662853
43	0xbdcd0986	-0.10011582
44	0x3d8dd1b4	0.06924763
45	0x3e9f78cf	0.31146857
46	0xbe50aa00	-0.2037735
47	0x3d1947ef	0.037422117
48	0xbe67b97d	-0.22629352
49	0x3e1a2c01	0.15055849
50	0xbe8d3175	-0.27576795
51	0x3d73419a	0.059388734
52	0xbe4acf82	-0.1980572
53	0x3e4181fd	0.18897243
54	0xbec9ab0c	-0.3938831
55	0xbf2ef219	-0.6833816
56	0x3995e7c2	0.00028592168
57	0xbdfc6453	-0.12323823
58	0x3d9826cb	0.07429274
59	0x3ebe2275	0.37135664
60	0xbd8051cf	-0.06265604
61	0x3e591b3d	0.21201797
62	0xbf18b20e	-0.5964669
63	0x3e9cfa92	0.3065992
64	0xbdb47fa4	-0.08813408
65	0xbcd134d4	-0.025537886
66	0xbd4de8a7	-0.050270703
67	0x3c7c63a9	0.01540462
68	0xbef91533	-0.48648986
69	0xbebafbda	-0.36520272
70	0x3e1273e8	0.14302027
71	0x3ddc3738	0.1075272
72	0xbcd88fe8	-0.026435807
73	0xbe6c734f	-0.23090862
74	0x3ec11cb1	0.37717202
75	0x3ea24887	0.3169596
76	0xbec7995f	-0.389842
77	0xbe0318b1	-0.12802388
78	0xbe0d13dd	-0.13777108
79	0x3e31d081	0.17364694
80	0xbe8f0707	-0.2793505
81	0x3eb9bec7	0.36278364
82	0xbe8fade7	-0.28062364
83	0x3e1c8dc4	0.15288454
84	0x3bd756c2	0.0065716216
85	0xbbdb7445	-0.00669721
86	0xbddbd377	-0.10733693
87	0xbee6dec2	-0.45091826
88	0x3d779ef9	0.060454343
89	0x3d8f6b61	0.07002903
90	0x3d83dd9e	0.064387545
91	0x3db7aa5a	0.08968039
92	0x3cac818f	0.021057872
93	0x3d278e7f	0.04090738
94	0xbef0355d	-0.46915713
95	0xbe0ff14d	-0.14056893
96	0xbec71038	-0.3887956
97	0x3d6b0d66	0.057385825
98	0xbd8e8994	-0.06959835
99	0x3e1dc035	0.15405352
100	0x3d97f610	0.074199796
101	0xbdc464b2	-0.095895186
102	0xbe1e0173	-0.1543024
103	0xbe36efe9	-0.17864956
104	0x3dbe255f	0.09284472
105	0x3e509295	0.20368417
106	0x3ddb26f9	0.10700793
107	0x3db7466d	0.089489795
108	0x3e358534	0.17726594
109	0x3e0f4bd5	0.13993771
110	0xbd423a14	-0.04741867
111	0x3d9b6fe4	0.07589701
112	0xbe3549e4	-0.17703968
113	0x3e48fb4f	0.19627117
114	0xbe2d966b	-0.16951911
115	0x3e4d6943	0.20059685
116	0xbe15da65	-0.14634092
117	0xbe96771a	-0.29387742
118	0xbe10d021	-0.14141895
119	0x3c88c8b0	0.016697258
120	0x3e0ede9a	0.13952103
121	0x3e2f6811	0.17129542
122	0x3e894e9c	0.26817787
123	0xbcd22bb6	-0.025655609
124	0xbcc087a7	-0.023502184
125	0x3e10c529	0.1413771
126	0xbe3ceb4a	-0.1844913
127	0x3d04caed	0.032420088
128	0xbe66279c	-0.22476047
129	0x3e931be8	0.28732228
130	0xbe56f866	-0.20993194
131	0x3e7c50fb	0.24640267
132	0xbe5818fc	-0.21103281
133	0xbd2a5a4c	-0.04159002
134	0xbe39581b	-0.18100016
135	0xbe7c55b7	-0.24642073
136	0x3e7d0dcf	0.24712299
137	0x3e495a30	0.1966331
138	0x3e0b6619	0.13613166
139	0x3e3d7900	0.18503189
140	0xbe82b14a	-0.25525886
141	0x3c2bab5b	0.010477866
142	0xbe5d1550	-0.21590161
143	0xbdb54f9a	-0.088530734
144	0xbe8677b3	-0.26263198
145	0x3e81181e	0.25213712
146	0xbe7b6192	-0.24548939
147	0x3e867985	0.26264587
148	0xbe1cb615	-0.15303834
149	0xbe04e51b	-0.12978022
150	0xbe8d1f1a	-0.2756279
151	0xbe3d9479	-0.18513669
152	0x3df0fa0a	0.11766441
153	0x3e00d974	0.12582952
154	0x3e5e0d91	0.21684863
155	0x3e41111b	0.18854181
156	0xbe09c9fb	-0.13455956
157	0x3e1c9df5	0.15294631
158	0xbe877c23	-0.26461896
159	0xbe0e081e	-0.13870284
160	0xbe31f058	-0.1737684
161	0x3e68d9a4	0.22739273
162	0xbe4fc7e8	-0.20291102
163	0x3e397482	0.1811085
164	0xbbdddf8a	-0.0067710327
165	0xbd063de3	-0.032773864
166	0xbe6549d0	-0.22391438
167	0xbd76f4b5	-0.060291965
168	0x3e48c32d	0.19605704
169	0x3e94b485	0.29043975
170	0x3dd73c49	0.10509545
171	0xbdbf6905	-0.09346203
172	0x3d32913c	0.043595538
173	0x3e836147	0.25660154
174	0xbe56a35c	-0.20960754
175	0xbc07bf93	-0.008285421
176	0xbe909f64	-0.28246605
177	0x3eb9b333	0.3626953
178	0xbea4d338	-0.32192397
179	0x3ea86a64	0.3289367
180	0x3dbdfcce	0.09276734
181	0xbdac9709	-0.08427245
182	0xbee442c2	-0.44582182
183	0xbe8dedc9	-0.27720478
184	0x3e2c9c3d	0.16856475
185	0x3e048647	0.12941848
186	0x3e3b40c7	0.1828643
187	0x3d00986a	0.031395353
188	0xbd30c7a4	-0.043159142
189	0x3e9d1837	0.30682537
190	0xbf1976dd	-0.59946996
191	0xbd665b19	-0.05623922
192	0xbd99ad91	-0.07503808
193	0x3ded5434	0.11588326
194	0xbe42cf9e	-0.19024512
195	0x3e033428	0.12812865
196	0xbed98121	-0.4248133
197	0xbe56cf6d	-0.20977564
198	0xbd546cfb	-0.051861744
199	0x3e491939	0.19638528
200	0x3e4c5a49	0.19956316
201	0x3e01eeea	0.12688795
202	0x3e10c879	0.14138974
203	0x3e3535bd	0.17696281
204	0xbeb3b9d7	-0.35102722
205	0xbe2c27b3	-0.16812019
206	0x3d53a8d0	0.051674664
207	0xbe41276f	-0.18862699
208	0xbe916f42	-0.28405195
209	0x3e68f9a0	0.22751474
210	0xbdfeb242	-0.12436344
211	0x3e8dcaeb	0.27693877
212	0xbe53d22a	-0.2068564
213	0xbd8ec593	-0.06971278
214	0xbe9f8aa8	-0.31160474
215	0xbe4c552a	-0.19954363
216	0xbd2ff6f8	-0.042960137
217	0xbdddf88c	-0.10838422
218	0x3e5ec2de	0.21754023
219	0x3eedbe91	0.46434453
220	0xbeefcb19	-0.4683464
221	0xbdf26405	-0.118354835
222	0xbefa2610	-0.48857164
223	0x3e33b26b	0.1754853
224	0xbd7ea780	-0.06217146
225	0x3d5ff17b	0.054673653
226	0xbd4dbf94	-0.05023153
227	0x3da363b9	0.07978005
228	0xbe43906d	-0.19098063
229	0xbe6e8bb7	-0.23295484
230	0xbe400d1e	-0.18755004
231	0xbed08658	-0.40727496
232	0xbe52eec1	-0.2059889
233	0xbc9d1948	-0.019177094
234	0xbd7096ad	-0.058737446
235	0x3dface73	0.12246408
236	0xbd9facfb	-0.07796665
237	0x3ce1276b	0.027484616
238	0xbdfe756f	-0.124247424
239	0x3cffbc06	0.031217586
240	0xbe3cebfa	-0.18449393
241	0x3e83e1b6	0.2575814
242	0xbe43518a	-0.19074073
243	0x3e5f0a93	0.21781377
244	0xbe049351	-0.12946822
245	0xbd01d65f	-0.03169858
246	0xbe4b1f02	-0.19836047
247	0xbe9441ff	-0.289566
248	0x3e44a0f5	0.19202025
249	0x3e4325eb	0.19057433
250	0x3dacea4f	0.08443128
251	0x3e2cfc43	0.16893105
252	0xbe07ddb0	-0.13268161
253	0x3df5adcc	0.1199604
254	0xbe85fb3c	-0.2616824
255	0xbe1c17e8	-0.15243495

ent.weight f4 [9367, 16]
0	0x00000000	0.0
1	0x00000000	0.0
2	0x00000000	0.0
3	0x00000000	0.0
4	0x00000000	0.0
5	0x00000000	0.0
6	0x00000000	0.0
7	0x00000000	0.0
8	0x00000000	0.0
9	0x00000000	0.0
10	0x00000000	0.0
11	0x00000000	0.0
12	0x00000000	0.0
13	0x00000000	0.0
14	0x00000000	0.0
15	0x00000000	0.0
16	0x3c02f2e2	0.007992478
17	0x3da474f8	0.080301225
18	0xbdaa5af6	-0.08318131
19	0xbdd74443	-0.10511067
20	0x3ddfd7df	0.10929846
21	0xbd9b9f39	-0.07598729
22	0x3da4e38b	0.08051213
23	0xbd2c18c3	-0.042015802
24	0xbd5f03ba	-0.054446913
25	0xbd690b51	-0.056895558
26	0xbbf93139	-0.0076047448
27	0x3d28b4e0	0.04118812
28	0x3dbed4bf	0.09317922
29	0xbdc4f36b	-0.09616741
30	0xbd85e2fe	-0.06537436
31	0xbdfb9a3a	-0.12285276
32	0xad0e80fe	-8.1004075e-12
33	0xaba3cdd1	-1.1638972e-12
34	0xacc63b78	-5.634101e-12
35	0x2b12b49b	5.212026e-13
36	0x2c913f57	4.12818e-12
37	0x2caa54ed	4.8411193e-12
38	0xaba8df6d	-1.1999131e-12
39	0x2d1145c3	8.257786e-12
40	0xaa1324d0	-1.3068995e-13
41	0xad0dd1dc	-8.06152e-12
42	0xaa80147b	-2.275158e-13
43	0x2ab41c05	3.1993866e-13
44	0xab393673	-6.5800767e-13
45	0xacd35f3d	-6.0075543e-12
46	0xacd283d1	-5.9831935e-12
47	0xab30530e	-6.264302e-13
48	0x3d21f48c	0.03953986
49	0x3ca73edc	0.020415716
50	0x3aae40ee	0.0013294497
51	0xbc2c73df	-0.010525673
52	0x3cda02d1	0.026612671
53	0xbc11a205	-0.008888726
54	0xbd02cb9a	-0.03193245
55	0x3cf5ccb0	0.03000483
56	0xbbcb698a	-0.0062076496
57	0x3d05d2e3	0.03267182
58	0xbc96a246	-0.018387925
59	0xbd08c871	-0.03339428
60	0xbc1a2a16	-0.009409448
61	0x3ca20cae	0.019781437
62	0x3c54b5c9	0.012982794
63	0x3c2f9b92	0.010718243
64	0xbca4360d	-0.020045305
65	0xbc24e5fd	-0.010064599
66	0xbac40fa0	-0.001495827
67	0x3aefb404	0.0018287902
68	0xbbde18b6	-0.006777848
69	0xbb7e72f9	-0.0038825853
70	0x3c2fe411	0.010735528
71	0x3ba6784a	0.0050802575
72	0xbbfeffe6	-0.0077819703
73	0xbc905d3e	-0.017622586
74	0x3c8361d1	0.016037853
75	0x3cb33ae5	0.021878669
76	0xb943035d	-0.00018597902
77	0xbb08ee1c	-0.0020893877
78	0xbc68152b	-0.014165203
79	0xbc615181	-0.013752342
80	0xbe104458	-0.14088571
81	0x3d068387	0.032840278
82	0xbd9cccff	-0.076562874
83	0xbd7a0ac0	-0.06104541
84	0xbe16206f	-0.1466081
85	0x3d82ea43	0.06392338
86	0x3e225606	0.15853128
87	0xbe1dee64	-0.1542297
88	0x3df84dc3	0.12124207
89	0xbe1f6e56	-0.15569434
90	0x3e14bc9a	0.14525071
91	0x3e2f2b1b	0.17106287
92	0x3da8b596	0.0823776
93	0xbe01266b	-0.12612312
94	0xbcefb8db	-0.02926295
95	0xbdf32a28	-0.11873275
96	0xbcb4256f	-0.021990506
97	0xbd039064	-0.032120124
98	0x3d0645a8	0.032781273
99	0x3ce85d96	0.028364938
100	0x3d486122	0.048920758
101	0xbceda415	-0.029008904
102	0xbbe684de	-0.007034882
103	0x3bee6797	0.0072755325
104	0xbd17f0a5	-0.03709473
105	0x3c53ae55	0.012919982
106	0xbd0fec1f	-0.035137292
107	0x3b0c2748	0.0021385718
108	0xbd1049c3	-0.035226595
109	0x3c889b3f	0.01667559
110	0xbcd6bcee	-0.026213136
111	0x3c88d0db	0.016701153
112	0xbccea363	-0.025224393
113	0xbd58f5d5	-0.05296882
114	0x3cbbb236	0.022912126
115	0x3d34f5d0	0.044179738
116	0xbc4a6358	-0.012352787
117	0xbba955a3	-0.0051676794
118	0x3b04a6eb	0.0020241092
119	0x3a3b4404	0.0007143619
120	0xbd825d9d	-0.063655116
121	0x3b6be948	0.00359972
122	0x3c2fcde0	0.010730237
123	0x3c287935	0.010282804
124	0xbbe505cd	-0.006989217
125	0xbb019e2b	-0.0019778113
126	0xbd1970b0	-0.037460983
127	0x382928ff	4.033092e-05
128	0xbd0ed22b	-0.0348684
129	0xbc8a1d86	-0.016859781
130	0x39e4debd	0.00043653502
131	0x3a924e5a	0.0011162267
132	0xbcca7137	-0.024712188
133	0xbafb3921	-0.0019166806
134	0x3d4620d3	0.048371147
135	0xbd197ce2	-0.037472613
136	0x3c84604f	0.016159205
137	0xbd475a81	-0.048670296
138	0x3d23fb91	0.040034834
139	0x3d300a28	0.042978436
140	0x3c84be7a	0.016204108
141	0xbd3b2371	-0.045688096
142	0xbc9c1b5a	-0.019056011
143	0xbd1f51a5	-0.03889622
144	0xbca3e927	-0.020008637
145	0xbd3561bc	-0.04428266
146	0x3d49ebd7	0.04929718
147	0x3d33b4a8	0.04387346
148	0xbd5a958b	-0.05336527
149	0xbc89d551	-0.01682535
150	0xbb343583	-0.0027497716
151	0xbc2dc8fe	-0.010607002
152	0x3c36cbac	0.011156958
153	0x3b119783	0.0022215552
154	0xbc9f05b7	-0.019411905
155	0x3ba7003a	0.0050964626
156	0xbcccfe8d	-0.025023723
157	0x3c916a07	0.017750753
158	0xbc422853	-0.011850434
159	0x3c8118a5	0.015758822
160	0xbd75ef47	-0.060042646
161	0xbd90bc22	-0.070671335
162	0x3d122bcb	0.035686295
163	0x3d2176e8	0.03942004
164	0xbd6969c3	-0.056985628
165	0xbba5f5e3	-0.0050647124
166	0x3c2eefa1	0.010677249
167	0xbca99e9a	-0.02070551
168	0x3bc814b0	0.006105982
169	0xbc0de6d6	-0.008660993
170	0x3bb3d4b7	0.005488004
171	0x3cb068cc	0.021534346
172	0xbc82343d	-0.01589405
173	0xb9c1ec11	-0.00036987712
174	0xbcf9509f	-0.030433951
175	0x3ae0bb49	0.0017145659
176	0xbc9d9c31	-0.019239517
177	0xbb97c1b8	-0.0046312474
178	0xbc0e29fb	-0.008677001
179	0xbc7bf81f	-0.015378981
180	0x397589e3	0.00023416388
181	0xbb579c7d	-0.003289967
182	0x3c478f1c	0.012180116
183	0xbc0bdc8c	-0.008536469
184	0xb9ca028f	-0.0003853035
185	0xbbff22c6	-0.0077861277
186	0x3b22ff60	0.0024871454
187	0x39cf0e8c	0.00039492955
188	0x3b1260de	0.002233557
189	0xbc50f233	-0.012753057
190	0xbb840b1f	-0.004029646
191	0xbc25134b	-0.010075401
192	0xa9ac5367	-7.6528024e-14
193	0xa982b406	-5.804389e-14
194	0x2d28c04d	9.592394e-12
195	0xa98532ab	-5.915176e-14
196	0xa917a086	-3.3667967e-14
197	0x299d26b7	6.9789165e-14
198	0x2a1ce0d3	1.3933585e-13
199	0xa9076418	-3.006284e-14
200	0x293c732a	4.1844275e-14
201	0x27c9a3ea	5.5966423e-15
202	0xa99d1782	-6.9762786e-14
203	0x2809df51	7.653452e-15
204	0x28e4528b	2.5348882e-14
205	0x29b65382	8.09691e-14
206	0xa8db8243	-2.4370376e-14
207	0xa985444d	-5.918235e-14
208	0xbe0f9296	-0.14020762
209	0xbe0a5fd8	-0.13513124
210	0x3e0a062e	0.1347892
211	0x3e085225	0.13312586
212	0xbe06dba7	-0.13169728
213	0x3cfb0527	0.030642105
214	0x3cc5bf3f	0.024139045
215	0xbcb3d378	-0.021951422
216	0xbd317bf6	-0.04333111
217	0xbcf65bf2	-0.03007314
218	0x3db556d1	0.088544495
219	0x3dbda7a9	0.09260494
220	0x3c812c37	0.015768154
221	0xbcb1e9ba	-0.021717895
222	0xbdcba002	-0.099426284
223	0xbd014165	-0.031556506
224	0xbd8d5560	-0.069010496
225	0x3ce32628	0.027728155
226	0xbd57bba3	-0.05266918
227	0xbd3a4b34	-0.045481876
228	0xbd391c99	-0.04519329
229	0x3cba9dfd	0.022780413
230	0x3d9ee5ca	0.077586725
231	0xbd862b88	-0.06551272
232	0x3d112e14	0.035444334
233	0xbd99dd84	-0.07512954
234	0x3d87724f	0.066135995
235	0x3d9f3179	0.07773108
236	0x3d0c5b3c	0.034266695
237	0xbd93af04	-0.07211116
238	0x3c68447b	0.014176483
239	0xbd6ca593	-0.05777509
240	0x3d0440ce	0.032288365
241	0xbc5bfc40	-0.01342684
242	0x3bf3b7dc	0.007437689
243	0x3cdc9d74	0.026930548
244	0x3ce5330a	0.027978439
245	0x3bc18ba1	0.0059065376
246	0xbd6c4fdb	-0.057693344
247	0x3d66faab	0.0563914
248	0xbc27cd44	-0.01024181
249	0x3d5b5700	0.053549767
250	0xbd233a77	-0.03985068
251	0xbd37274b	-0.044715207
252	0xbd5d2286	-0.053988002
253	0x3d5dc565	0.05414333
254	0x3d7459de	0.059656017
255	0x3d687758	0.05675444

rel.weight f4 [61, 16]
0	0x00000000	0.0
1	0x00000000	0.0
2	0x00000000	0.0
3	0x00000000	0.0
4	0x00000000	0.0
5	0x00000000	0.0
6	0x00000000	0.0
7	0x00000000	0.0
8	0x00000000	0.0
9	0x00000000	0.0
10	0x00000000	0.0
11	0x00000000	0.0
12	0x00000000	0.0
13	0x00000000	0.0
14	0x00000000	0.0
15	0x00000000	0.0
16	0xbd3be337	-0.045870986
17	0xbe0ffa46	-0.14060315
18	0x3e22af1d	0.15887113
19	0xbe9752c6	-0.2955534
20	0x3dbd7408	0.09250647
21	0x3f10cfda	0.56567156
22	0xbe736fca	-0.23773113
23	0xbecba484	-0.39773953
24	0xbea5c38f	-0.32375762
25	0xbf0990b2	-0.5373641
26	0xbebbb557	-0.3666179
27	0x3edaed06	0.4275896
28	0xbe2356c2	-0.15951064
29	0xbdc139d2	-0.094348565
30	0xbf8bd7d2	-1.0925238
31	0x3f09084f	0.535283
32	0x3b0fd0f7	0.002194462
33	0x3ed9fa1b	0.42573628
34	0x3d8d37ff	0.06895446
35	0x3e992a64	0.29915154
36	0xbebb9697	-0.36638328
37	0xbea24321	-0.3169184
38	0x3f05c729	0.5225702
39	0x3d810d14	0.063013226
40	0xbe8586fd	-0.2607955
41	0x3d14c87b	0.036324006
42	0xbd087827	-0.03331771
43	0x3f2d3c69	0.67670304
44	0xbe9aa5ed	-0.30204716
45	0xbf17a627	-0.59237903
46	0x3e3c5a73	0.18393879
47	0xbda5bb81	-0.08092404
48	0xbe2b390e	-0.16720983
49	0x3e4e9911	0.20175578
50	0xbdbc6a08	-0.09199911
51	0xbea146a1	-0.31499198
52	0xbf8bd987	-1.0925759
53	0x3f372c8b	0.7155234
54	0xbed9feaf	-0.4257712
55	0x3e4d25fe	0.20034024
56	0x3e0e5c6c	0.13902444
57	0x3e758110	0.23975015
58	0xbe4cb7ff	-0.19992064
59	0x3e710531	0.23537137
60	0xbbb04f42	-0.005380542
61	0x3f122623	0.5708944
62	0x3d9feeff	0.07809257
63	0xbf121a9e	-0.57071865
64	0x3c9f0e2e	0.019415941
65	0x3d579c4f	0.052639302
66	0x3e22ca5b	0.15897505
67	0xbaa51df2	-0.0012597425
68	0x3e01fd4f	0.12694286
69	0x3ca786cd	0.02045002
70	0xbe2f5dea	-0.17125669
71	0xbe8452a0	-0.25844288
72	0xbd8d96c7	-0.06913524
73	0xbdef06e6	-0.11671238
74	0x3e71f105	0.23627098
75	0x3c306923	0.010767254
76	0x3e420512	0.18947247
77	0x3dc6885c	0.09693977
78	0xbe110170	-0.14160705
79	0xbdfe0906	-0.12404065
80	0xbe1b42b1	-0.1516216
81	0xbf88a2fa	-1.0674736
82	0xbed4b731	-0.41546014
83	0x3dcd0918	0.100115
84	0xbeb8220e	-0.35963482
85	0xbf19467a	-0.59873164
86	0xbf25a14b	-0.6469924
87	0x3dca9a9f	0.09892773
88	0xbee6eebf	-0.45104024
89	0x3dae9d13	0.08526053
90	0x3db12261	0.086491354
91	0xbfbe2be0	-1.485714
92	0xbec4387e	-0.3832435
93	0x3eea4a07	0.45759603
94	0x3e42430f	0.18970893
95	0x3f11780a	0.5682379
96	0x3999ba80	0.00029321387
97	0x3b3bbf39	0.0028647913
98	0xbb071683	-0.0020612783
99	0x39c9cd89	0.00038490843
100	0xbc32f7db	-0.010923351
101	0x3b608920	0.003426142
102	0xb8919a38	-6.942864e-05
103	0xbb2a6f45	-0.0026006263
104	0x3af4a544	0.0018664976
105	0x3b3b6bb3	0.002859813
106	0xbb04aa31	-0.0020243044
107	0x3aa883d0	0.0012856666
108	0x37f7f60b	2.9559267e-05
109	0x3aa2625e	0.0012388935
110	0xba1098b0	-0.0005515916
111	0xbbc44ed5	-0.005990843
112	0xb999be29	-0.00029324114
113	0xbb3bbd67	-0.0028646828
114	0x3b07161e	0.0020612548
115	0xb9c9cbc6	-0.0003848953
116	0x3c32f7c6	0.010923332
117	0xbb60890f	-0.003426138
118	0x3891882f	6.939505e-05
119	0x3b2a6f20	0.0026006177
120	0xbaf4a521	-0.0018664935
121	0xbb3b6a03	-0.0028597123
122	0x3b04aa6c	0.002024318
123	0xbaa883a6	-0.0012856617
124	0xb7f79afd	-2.9516867e-05
125	0xbaa26193	-0.0012388699
126	0x3a1098ba	0.0005515922
127	0x3bc44f2c	0.0059908833
128	0xbcb61c6a	-0.022230346
129	0xbae676b7	-0.0017582987
130	0x3c0ee654	0.008721907
131	0x3c389ac7	0.011267371
132	0x3d2ba072	0.04190106
133	0x3c251b4f	0.010077312
134	0x3be673e1	0.007032857
135	0xbb8d63fe	-0.0043148985
136	0x3cb64050	0.022247463
137	0xbb11c657	-0.0022243464
138	0xbc81451a	-0.01578002
139	0x3ba1796c	0.0049278047
140	0x3b97e5b7	0.0046355384
141	0x3aefe437	0.0018302266
142	0x3d4a6cff	0.049420353
143	0xbc423e33	-0.01185565
144	0xbd146020	-0.036224484
145	0x3cd5b642	0.026087884
146	0xbd6277ba	-0.05528996
147	0x3cd38b9c	0.025823407
148	0xbd81df39	-0.063414045
149	0xbcb4096c	-0.021977149
150	0xbd022814	-0.031776503
151	0xbc4376a9	-0.011930146
152	0x3cfc922d	0.03083142
153	0x3d3a9754	0.045554474
154	0x3cf2d02f	0.029640285
155	0x3d4464e4	0.04794778
156	0xbd05ab7e	-0.03263425
157	0x3c68c481	0.014207006
158	0xbcb0a966	-0.02156515
159	0x3ccdfc21	0.025144638
160	0xbeaceba2	-0.33773524
161	0x3e0a1f36	0.13488469
162	0x3de3cd61	0.11123157
163	0x3e131e29	0.14366974
164	0x3e80a7f2	0.25128132
165	0xbe45191b	-0.19247858
166	0x3d20eae9	0.039286528
167	0x3ed6868d	0.4189953
168	0x3e81feb3	0.25389633
169	0x3f0dfdd2	0.55465424
170	0x3e931cbb	0.28732857
171	0xbbab3474	-0.0052247588
172	0x3e1ed235	0.15509875
173	0x3da22448	0.07917076
174	0xbefe58ed	-0.4967722
175	0xbe426996	-0.1898559
176	0xbd464bd2	-0.04841215
177	0x3bb7b654	0.005606452
178	0xbd420e82	-0.047377117
179	0x3d35ff8b	0.044433158
180	0x3d40585a	0.04695926
181	0xbd610049	-0.054931913
182	0xbd537cda	-0.05163274
183	0x3b75d4e0	0.0037510917
184	0xbc3fa375	-0.011696686
185	0x3c21c545	0.009873693
186	0x3d4bcf1a	0.049758054
187	0xbd28228b	-0.041048568
188	0x3cddc043	0.027069217
189	0x3d631f67	0.05544987
190	0x3ce34d83	0.027746921
191	0x3ca61acf	0.020276455
192	0xbc75826b	-0.014984707
193	0xbcb2ca91	-0.021825107
194	0x3e0592a3	0.13044219
195	0xbd679612	-0.056539603
196	0x3d21f8c0	0.039543867
197	0xbded7933	-0.115953825
198	0x3b87a517	0.0041395533
199	0x3dd0de6c	0.101986736
200	0xbe4136ef	-0.18868612
201	0xbe2ade32	-0.16686323
202	0x3c30eef0	0.010799155
203	0x3d171e71	0.036894266
204	0xbcd935ea	-0.026514966
205	0xbd9a48b7	-0.075334005
206	0x3da4d244	0.080479175
207	0xbcbf7f97	-0.02337627
208	0xbe8dbe83	-0.2768441
209	0x3e524279	0.2053317
210	0xbe3547e2	-0.17703202
211	0x3e2cc46e	0.16871807
212	0xbe4c835f	-0.19971989
213	0xbe0da1a4	-0.13831192
214	0xbdd2a07d	-0.10284517
215	0xbd3ee28b	-0.046602767
216	0x3d3f822b	0.046754997
217	0x3de61093	0.1123363
218	0x3e4d95ec	0.20076722
219	0x3d255dc2	0.040372618
220	0xbd8a7844	-0.0676122
221	0x3c8cd3a5	0.017190764
222	0xbe244664	-0.16042477
223	0xbd160f46	-0.03663566
224	0x3c3ce5dd	0.011529413
225	0xbc7b8364	-0.01535115
226	0xbc4ad2cd	-0.01237936
227	0xbc987f33	-0.01861534
228	0xbd30ffbc	-0.043212637
229	0xbcc9ae96	-0.024619382
230	0x3d39941a	0.045307256
231	0x3d0dc162	0.034608252
232	0x3d2c2638	0.042028636
233	0x3c73d42d	0.01488213
234	0x3a2f7620	0.0006693322
235	0x3c90e50b	0.017687341
236	0xbcd2b98a	-0.025723238
237	0xbcdb4aa0	-0.026768982
238	0x3d5acbe5	0.053417105
239	0xbd116334	-0.035494998
240	0xbb91746a	-0.0044389265
241	0x3c5708fb	0.0131247
242	0x3d19002c	0.03735368
243	0xbc5ae7ac	-0.013360899
244	0x3c9b047a	0.018923033
245	0xbba7a4b7	-0.005116071
246	0x3c167939	0.009184175
247	0xbd3a6f72	-0.04551644
248	0xbb5afbff	-0.0033414362
249	0x3c216dbf	0.009852826
250	0xbcef2bc6	-0.029195677
251	0xbd055987	-0.032556083
252	0x3d1e16cd	0.038595963
253	0x3bb34d12	0.005471834
254	0xbb888acd	-0.004166937
255	0x3ccd2d06	0.025045883

aggregator.0.weights.weight f4 [16, 16]
0	0x3da13765	0.07871894
1	0x3f1ac813	0.6046154
2	0xbecfa898	-0.40558314
3	0xbf565b53	-0.837331
4	0x3f4ffda5	0.81246406
5	0xbe905879	-0.281925
6	0x3eaf2899	0.3421066
7	0xbec08d78	-0.37607932
8	0x3ebafbe1	0.36520293
9	0xbf020b87	-0.5079884
10	0xbefe51b4	-0.4967171
11	0xbe775c45	-0.24156292
12	0x3db8130c	0.08988008
13	0xbe32fec7	-0.17480002
14	0x3f1c5529	0.61067444
15	0xbdcc3409	-0.099708624
16	0x3eefdef8	0.468498
17	0x3f40c111	0.75294596
18	0xbf09ceb4	-0.5383103
19	0xbf1b9c60	-0.60785484
20	0xbea5aa9c	-0.32356727
21	0x3f09de20	0.5385456
22	0x3e4044eb	0.1877629
23	0xbdf0735d	-0.11740754
24	0x3ef73193	0.4828001
25	0xbee81c22	-0.45333964
26	0x3e4c980b	0.19979875
27	0x3d9a6b8c	0.07540044
28	0x3e862d5b	0.26206478
29	0xbe031159	-0.12799586
30	0x3f8d42c2	1.1035998
31	0x3e5b4533	0.21413116
32	0x3eb27d0c	0.34861028
33	0x3f092e43	0.53586215
34	0xbe13bb8c	-0.14427012
35	0xbf0b4db6	-0.5441545
36	0xbea03154	-0.31287634
37	0xbe8eb712	-0.27874047
38	0x3f10ba1b	0.56533974
39	0xbc7cd4b1	-0.015431569
40	0x3e8e3a34	0.2777878
41	0xbf0c8b9c	-0.54900527
42	0x3e530f4f	0.20611309
43	0xbd1a66c3	-0.037695657
44	0x3ea9faac	0.3319906
45	0xbe828401	-0.25491336
46	0xbdd4420a	-0.103641585
47	0xbed2d88e	-0.41180843
48	0xbf4d3558	-0.8015952
49	0xbf1cd372	-0.6126014
50	0x3efd868b	0.4951671
51	0x3ee16153	0.44019565
52	0xbf315353	-0.6926777
53	0x3d6f8521	0.05847657
54	0x3f4eca01	0.80776983
55	0xbedec4d6	-0.4350955
56	0xbe46c567	-0.1941124
57	0xbf416592	-0.7554561
58	0x3d6acc74	0.057323888
59	0x3f127e16	0.5722364
60	0x3e5f58a0	0.21811152
61	0xbe3cb57f	-0.1842861
62	0xbf114a84	-0.56754327
63	0xbe93ddc1	-0.28880122
64	0x3ed64999	0.41853026
65	0x3dd46617	0.103710346
66	0x3d656aba	0.056009986
67	0xbf4e10d1	-0.8049441
68	0x3e53879a	0.20657197
69	0xbf1e15fa	-0.61752284
70	0x3e91c442	0.28470045
71	0xbeb313c4	-0.34976017
72	0xbe3b3f7e	-0.18285939
73	0xbebbe4e8	-0.3669808
74	0xbf40d098	-0.7531829
75	0xbcbce93f	-0.02306044
76	0x3f021a42	0.50821316
77	0xbdc5dc7d	-0.096611954
78	0xbf16a945	-0.58852035
79	0xbf041f77	-0.5161051
80	0xbf199493	-0.5999233
81	0xbecc3dae	-0.39890808
82	0x3e024f7d	0.12725635
83	0x3d7caec1	0.061690096
84	0xbe3b73af	-0.18305849
85	0xbe20b95e	-0.15695712
86	0x3ecbde89	0.39818218
87	0xbea8e181	-0.32984546
88	0x3e068972	0.13138369
89	0xbeee0169	-0.4648545
90	0x3e0b144e	0.13581964
91	0x3ea5a541	0.3235264
92	0xbe66eefe	-0.22552106
93	0xbe77d24d	-0.24201317
94	0xbd44f38a	-0.04808382
95	0xbe0f83dd	-0.14015146
96	0xbe1f028b	-0.15528314
97	0x3d9b4b3c	0.07582709
98	0xbe09c2c2	-0.134532
99	0xbea1dd4a	-0.31614143
100	0xbdc66eae	-0.09689079
101	0x3c5e9266	0.013584709
102	0x3e95056a	0.29105693
103	0x3db76320	0.089544535
104	0x3e148acf	0.14506076
105	0xbec8be76	-0.3920781
106	0x3ed6e0cf	0.4196839
107	0x3e8da1fc	0.27662647
108	0x3d130e8c	0.035902545
109	0xbea1718a	-0.31531936
110	0x3ddaf00f	0.10690319
111	0xbe4091e9	-0.1880566
112	0x3f1dd78f	0.6165704
113	0x3e047284	0.12934309
114	0xbe3c6467	-0.18397675
115	0xbec28df7	-0.37998936
116	0x3e6b5e23	0.22985129
117	0x3daf4fcc	0.08560142
118	0xbe28d8b8	-0.16488922
119	0x3e2938aa	0.16525522
120	0xbd27d413	-0.040973734
121	0xbd90c07e	-0.07067965
122	0x3ebf9a9c	0.37422645
123	0xbe803f33	-0.25048217
124	0x3f07da1f	0.530672
125	0xbeb3d633	-0.3512436
126	0x3b8c2a66	0.004277515
127	0xbec786a7	-0.3896992
128	0xbec7a411	-0.3899236
129	0x3e73fbca	0.23826519
130	0xbf58e136	-0.84718645
131	0xbdf49781	-0.119429596
132	0x3f3bdff9	0.7338863
133	0xbe4b5cf5	-0.19859679
134	0x3e2974ba	0.16548434
135	0x3f1cbcea	0.6122576
136	0xbe1683b8	-0.14698684
137	0xbef87054	-0.485232
138	0xbccc11db	-0.024910858
139	0xbdb36eb2	-0.08761348
140	0xbf3ca6d0	-0.73692036
141	0xbef60eda	-0.48058206
142	0x3f27329e	0.6531161
143	0x3e5f361b	0.21797983
144	0xbe1680d4	-0.14697582
145	0x3e9fae37	0.31187603
146	0xbe367489	-0.17817892
147	0x3e8b26b8	0.27177978
148	0xbf4bc61e	-0.7959918
149	0x3ef7f196	0.48426503
150	0x3f037201	0.5134583
151	0xbd88b859	-0.066757865
152	0x3f33cec3	0.7023737
153	0xbf380f93	-0.71898764
154	0x3f0389e9	0.5138231
155	0x3f0dc943	0.55385226
156	0x3db32db4	0.087489516
157	0xbe8391a2	-0.25697047
158	0x3e98c37c	0.29836643
159	0x3c29c957	0.010362945
160	0x3f17dacf	0.5931825
161	0x3dcc1bb7	0.09966224
162	0x3e9ec5b3	0.31010208
163	0x3ec811a5	0.39075962
164	0xbe25b273	-0.16181354
165	0x3f1927ab	0.59826154
166	0xbf127936	-0.57216203
167	0x3d49a63b	0.049230795
168	0x3e799537	0.24373327
169	0x3d253d69	0.04034177
170	0xbd416533	-0.04721565
171	0xbeae5207	-0.34046957
172	0xbdf2012b	-0.11816629
173	0x3f35095b	0.707174
174	0x3bb493aa	0.005510767
175	0x3ed4e33f	0.41579625
176	0x3f000ae8	0.5001664
177	0x3ed636ca	0.41838676
178	0x3e331d13	0.1749156
179	0x3dd06453	0.10175385
180	0x3eacfad5	0.3378512
181	0xbeeab0a3	-0.45837888
182	0xbeac24da	-0.33621866
183	0x3f4ce8fa	0.80042994
184	0xbefaa500	-0.4895401
185	0x3ed07ad6	0.40718716
186	0xbeac6a76	-0.33674973
187	0xbdd0f57c	-0.102030724
188	0xbe549bf4	-0.20762616
189	0x3e7c701a	0.24652138
190	0x3c5713f8	0.0131273195
191	0x3ebdb3ba	0.37051183
192	0xbeed33af	-0.46328494
193	0x3cecfeaf	0.028930036
194	0xbe83bcdf	-0.25730035
195	0x3df3179a	0.11869736
196	0x3f06ef52	0.52708924
197	0xbdbd1ec1	-0.092343815
198	0x3f55e7c0	0.8355675
199	0xbe963ba5	-0.2934238
200	0xbf5d73d7	-0.8650488
201	0xbf3df6db	-0.74204797
202	0x3f04d0ca	0.51881087
203	0x3f164eac	0.58713794
204	0x3b42aae3	0.0029703907
205	0xbf1c435d	-0.6104029
206	0xbf141616	-0.578462
207	0xbe30057b	-0.1718959
208	0xbd017f3b	-0.031615477
209	0x3ef1089a	0.47076875
210	0xbeade558	-0.33964038
211	0xbea8a0bb	-0.32935128
212	0xbe0534dc	-0.13008446
213	0x3e39ac05	0.18132026
214	0x3f08e486	0.534737
215	0xbed5a45d	-0.41726962
216	0x3efb38f3	0.49066886
217	0xbee41391	-0.44546178
218	0x3e3dc74a	0.18533054
219	0x3f03840c	0.5137336
220	0x3db39d09	0.087701865
221	0xbebda0ab	-0.37036642
222	0x3eaf6fd3	0.34265003
223	0xbdb56041	-0.088562496
224	0x3dbb4137	0.09143298
225	0x3eb637a8	0.35589337
226	0xbde95334	-0.11392823
227	0xbf127896	-0.5721525
228	0xbdb01a73	-0.08598795
229	0x3d338ac6	0.043833517
230	0x3f0c0f4e	0.54710853
231	0xbea057d6	-0.31317014
232	0x3df15904	0.117845565
233	0xbf3f2a92	-0.7467433
234	0x3e61764a	0.2201778
235	0x3e97eb1e	0.29671568
236	0x3e040076	0.12890801
237	0xbe96cd2b	-0.29453406
238	0xbe3b5130	-0.1829269
239	0xbf15eb40	-0.5856209
240	0x3f93cecc	1.1547484
241	0x3f3298e0	0.6976452
242	0xbf0eba0c	-0.55752635
243	0xbf0ce7a2	-0.55040944
244	0x3e93789b	0.28802952
245	0x3ef37bf0	0.47555494
246	0x3dcbf4a1	0.09958769
247	0x3f0162a5	0.50541145
248	0xbf04d39a	-0.5188538
249	0xbde622ed	-0.1123713
250	0x3f60c455	0.8779958
251	0x3d0ebee8	0.03485003
252	0x3f590e96	0.8478788
253	0xbf14cd4b	-0.5812575
254	0xbe846d1b	-0.2586449
255	0xbf18ec61	-0.59735686

aggregator.0.weights.bias f4 [16]
0	0x3e5d3a7b	0.2160434
1	0x3e307c9d	0.17235036
2	0xbd97fc19	-0.07421131
3	0x3eae72f4	0.34072077
4	0x3e846279	0.2585638
5	0x3e2c2fae	0.16815063
6	0xbe2cf610	-0.1689074
7	0x3df36486	0.11884408
8	0x3e77d7d5	0.24203427
9	0x3e1ef30d	0.15522404
10	0x3f60e4c1	0.8784905
11	0x3f3b6cc6	0.7321285
12	0x3da0fa90	0.07860291
13	0xbb0a4f62	-0.0021104445
14	0xbd3b9aa9	-0.045801792
15	0x3e710b5c	0.2353949

aggregator.1.weights.weight f4 [16, 16]
0	0xbec71802	-0.38885504
1	0xbcef9859	-0.02924745
2	0xbf02240a	-0.5083624
3	0xbf17e481	-0.59333044
4	0xbe92c595	-0.28666368
5	0xbe5002a2	-0.20313504
6	0xbe7deff9	-0.24798574
7	0xbeb5169e	-0.35368818
8	0x3e47c734	0.19509584
9	0xbde68db2	-0.11257495
10	0x3f03fb7e	0.5155562
11	0x3f2ba038	0.6704135
12	0xbf2f605d	-0.68506414
13	0xbea420c4	-0.32056248
14	0xbf109aca	-0.5648619
15	0xbe9c8fc1	-0.30578426
16	0x3db16c2f	0.086632125
17	0x3e8da2f9	0.276634
18	0x3f1c83c4	0.6113856
19	0x3e191db2	0.14952734
20	0x3e167eb2	0.14696768
21	0x3e1eee0d	0.15520497
22	0x3ed6fe7a	0.41991025
23	0x3d7e9cca	0.062161244
24	0xbeb8016d	-0.35938588
25	0x3eec3619	0.46135023
26	0xbf332fff	-0.6999511
27	0xbf453ba1	-0.7704411
28	0x3d47133f	0.04860234
29	0x3f0522b5	0.52006084
30	0x3ef4f75a	0.47844964
31	0x3eb24d2c	0.34824502
32	0x3c9ee5b6	0.019396644
33	0xbeeda646	-0.4641592
34	0xbee2ea51	-0.44319394
35	0xbee2377e	-0.44182962
36	0x3e985562	0.29752642
37	0xbe9f37d7	-0.3109729
38	0xbe3e38bb	-0.18576328
39	0xbe168c6b	-0.14702003
40	0xbe8207bf	-0.25396535
41	0xbf3c12fe	-0.7346648
42	0x3e790fe5	0.2432247
43	0x3f352c1f	0.7077045
44	0xbef32399	-0.47488096
45	0xbee91f10	-0.4553151
46	0xbf10aa04	-0.56509423
47	0xbd2ba179	-0.04190204
48	0x3e042406	0.12904367
49	0x3b9bae52	0.004751005
50	0x3efdd407	0.49575827
51	0x3f0bb9c6	0.5458034
52	0x3ecc84d6	0.39945096
53	0x3e922496	0.28543538
54	0x3e8b7292	0.27235848
55	0x3d3415bf	0.04396605
56	0xbe2cccb8	-0.16874969
57	0x3ef178eb	0.47162566
58	0xbf255be7	-0.64593357
59	0xbf2b0837	-0.6680941
60	0x3ec56bd6	0.38558835
61	0x3ec12fe8	0.37731862
62	0x3f130efd	0.57444745
63	0xbe142f27	-0.14471112
64	0xbf8158cb	-1.0105222
65	0xbf1cd1d1	-0.61257654
66	0xbc4283b9	-0.011872225
67	0x3e851cee	0.25998634
68	0xbecad69c	-0.3961686
69	0xbe1d4636	-0.15358815
70	0xbdc65c8f	-0.09685623
71	0xbeb4795b	-0.35248837
72	0xbedd724b	-0.4325126
73	0x3e3511ed	0.1768262
74	0x3ea6adc7	0.32554457
75	0x3ef2fb26	0.47457236
76	0xbf51ffbe	-0.82030857
77	0xbefd921a	-0.4952553
78	0xbe40ae36	-0.18816456
79	0xbdf79d87	-0.12090593
80	0xbd9af458	-0.07566136
81	0x3ca51aba	0.020154346
82	0xbeb883b1	-0.36037973
83	0xbf2d68af	-0.6773786
84	0xbf61e16b	-0.88234586
85	0x3d5dcea0	0.05415213
86	0xbcbfd76c	-0.02341815
87	0xbece099d	-0.4024171
88	0x3f58b599	0.84652096
89	0x3e38bc5f	0.18040608
90	0xbd291b3c	-0.04128574
91	0x3ee3e7f4	0.44512904
92	0xbc52096f	-0.012819632
93	0xbd7a68d2	-0.06113512
94	0xbef3605e	-0.4753446
95	0xbf1269d1	-0.57192713
96	0x3ec90f98	0.3926971
97	0x3cfe3685	0.031031856
98	0xbee0462f	-0.43803546
99	0xbf26b98b	-0.65126866
100	0x3db5a8ed	0.08870111
101	0xbeaa632b	-0.33278784
102	0xbebc4041	-0.36767772
103	0xbe1cfb75	-0.15330298
104	0xbe2308b8	-0.15921295
105	0xbeda5148	-0.42640138
106	0x3f069e36	0.5258516
107	0x3f3b7440	0.7322426
108	0xbf45670a	-0.7711035
109	0xbe9c0be3	-0.3047782
110	0xbec401b4	-0.3828255
111	0xbe078198	-0.1323303
112	0xbe1274e4	-0.14302403
113	0x3da0f14f	0.07858526
114	0xbe188e09	-0.14897932
115	0x3eb9becd	0.36278382
116	0xbe5dfb09	-0.21677794
117	0x3e45bf89	0.19311346
118	0xbe867ef2	-0.26268727
119	0xbe8c7128	-0.2743008
120	0xbeb712ec	-0.35756624
121	0x3ee86f99	0.45397642
122	0x3f84f061	1.0385858
123	0x3e9cdfca	0.30639488
124	0xbf048d25	-0.5177787
125	0xbd9a341d	-0.07529471
126	0xbeda7234	-0.42665255
127	0xbf6b6702	-0.9195405
128	0x3edaf223	0.4276286
129	0x3f18c499	0.59674984
130	0xbe0d77a1	-0.13815166
131	0x3e37fc4a	0.17967334
132	0xbefd9afd	-0.4953231
133	0x3ece2672	0.40263706
134	0x3eaf36d6	0.34221524
135	0xbef04aa6	-0.46931952
136	0x3f1d7f4d	0.6152237
137	0x3f21f3e2	0.6326276
138	0xbe86543d	-0.26236144
139	0xbf09a385	-0.53765136
140	0x3e6f6bef	0.23381017
141	0x3f1242c3	0.5713312
142	0x3e9871e3	0.2977439
143	0xbf200ee8	-0.62522745
144	0x3daf4230	0.08557546
145	0x3eed9d6f	0.46409175
146	0xbd4241cd	-0.047426034
147	0x3f3b457e	0.7315291
148	0xbea13316	-0.31484288
149	0x3eb98539	0.36234453
150	0x3e870be5	0.26376262
151	0xbee94fe0	-0.45568752
152	0xbe8c6eb1	-0.274282
153	0x3f0b1664	0.5433104
154	0xbe791bd1	-0.24327017
155	0xbf37fee6	-0.7187332
156	0x3e6696f6	0.22518525
157	0x3f2d4503	0.6768343
158	0x3e10a4a0	0.141253
159	0xbf00c663	-0.50302714
160	0x3ec63c42	0.38717848
161	0x3d9ceb97	0.07662123
162	0x3ea48644	0.32133687
163	0x3f784fd1	0.9699679
164	0x3f1f2d08	0.6217809
165	0x3f01ed3f	0.50752634
166	0x3d817da3	0.063227914
167	0xbe020e05	-0.1270066
168	0xbe9360c7	-0.28784773
169	0x3ed26f01	0.41100314
170	0xbed6f397	-0.4198272
171	0xbeb66620	-0.3562479
172	0x3f373ac1	0.71574026
173	0x3e079843	0.13241677
174	0x3f3b7eb2	0.73240197
175	0xbdf57c35	-0.11986581
176	0xbd930879	-0.071793504
177	0x3f600445	0.87506515
178	0xba2a17d2	-0.0006488535
179	0xbf23e7ac	-0.6402538
180	0xbee93605	-0.45549026
181	0xbefaeb5c	-0.4900769
182	0x3e37bddc	0.1794352
183	0x3f0287e0	0.5098858
184	0x3e551568	0.20808947
185	0x3dd293a1	0.10282064
186	0xbe780acf	-0.24222873
187	0xbd831cf1	-0.064020045
188	0x3e98ce12	0.2984472
189	0x3e225fe7	0.15856896
190	0xbd7e97f8	-0.062156647
191	0x3fb3d524	1.404942
192	0xbf826682	-1.0187533
193	0xbf40833a	-0.75200236
194	0xbf1d0df1	-0.613494
195	0x3f01c5d3	0.5069248
196	0xbe973b57	-0.2953746
197	0x3ea5fbb5	0.324186
198	0xbe3b26cf	-0.18276523
199	0xbe5f1b11	-0.21787669
200	0xbf0bf73d	-0.5467413
201	0xbc7a2e01	-0.015269757
202	0x3ec6d992	0.38837868
203	0x3e8ef83d	0.27923766
204	0x3ebae14a	0.36500007
205	0xbf07e651	-0.5308581
206	0xbeadd699	-0.33952788
207	0xbe06f22b	-0.13178317
208	0xbf2d268b	-0.67636937
209	0xbee6a292	-0.45045906
210	0xbe2603c6	-0.16212377
211	0x3f808d08	1.0043039
212	0xbea37f21	-0.3193293
213	0x3f1aec48	0.60516787
214	0x3e693c61	0.22776939
215	0xbe7d8669	-0.24758305
216	0xbe01b2c6	-0.12665853
217	0x3f026173	0.50929946
218	0xbe6b6e39	-0.22991265
219	0xbea579a4	-0.32319367
220	0x3f629847	0.88513607
221	0x3e108766	0.1411415
222	0xbdd0aff3	-0.1018981
223	0xbe4eb7b0	-0.20187259
224	0xbe96bf3a	-0.2944277
225	0x3c3db734	0.011579324
226	0xbf0fba90	-0.56144047
227	0xbcfea4ad	-0.031084383
228	0xbeabd746	-0.33562678
229	0xbe1d6a90	-0.15372682
230	0xbe94a2e5	-0.2903053
231	0x3d03ad6f	0.03214782
232	0xbefc416f	-0.49268672
233	0x3d5d11f9	0.05397222
234	0x3f67539b	0.90361947
235	0x3eb6c087	0.35693762
236	0xbf4ff4bf	-0.8123283
237	0xbdb11e48	-0.08648354
238	0xbe9475b3	-0.28996047
239	0xbebcbf84	-0.36864865
240	0x3f0b5e6d	0.5444096
241	0xbf488ce7	-0.7834
242	0xbe941bfc	-0.289276
243	0x3ed0af63	0.4075881
244	0x3eeb2349	0.45925358
245	0x3ea1ce6c	0.316028
246	0xbe0de55c	-0.13857025
247	0xbec3aa19	-0.38215712
248	0x3f100ee8	0.56272745
249	0xbf843779	-1.0329429
250	0xbe81da1e	-0.25361723
251	0x3ebd2f80	0.36950302
252	0x3f45d787	0.77281994
253	0xbecfb769	-0.40569618
254	0xbce78f50	-0.028266579
255	0xbf0a9bdf	-0.5414409

aggregator.1.weights.bias f4 [16]
0	0x3ea3193a	0.31855184
1	0xbefee1b1	-0.49781564
2	0x3ed7139d	0.4200715
3	0xbea51cb3	-0.32248458
4	0x3e2009d6	0.15628752
5	0xbd89e2cd	-0.06732712
6	0x3ecef604	0.4042207
7	0x3f147cd3	0.58002967
8	0xbef5dbd5	-0.4801928
9	0xbeafff58	-0.343745
10	0xbd6732d6	-0.056444965
11	0xbe702a51	-0.23453642
12	0x3da61dff	0.0811119
13	0x3c32525a	0.010883892
14	0x3f4792db	0.7795846
15	0x3da8ec35	0.08248178
