kgraph_models/model_node_8000_0.7056326014116429.pt (torch, 728580 bytes, 7 tensors)

usr.weight f4 [1872, 16]
0	0xbd7a2c23	-0.06107725
1	0x3eb97a9f	0.36226365
2	0xbd94281d	-0.072342135
3	0x3d080c2f	0.033214744
4	0xbe4c2e98	-0.19939649
5	0xbe129836	-0.14315876
6	0x3c7a150c	0.015263807
7	0x3e500841	0.20315649
8	0x3d39b477	0.04533812
9	0x3c5fd6f0	0.013662085
10	0x3dae8b47	0.08522659
11	0x3e115548	0.14192688
12	0xbe466ffa	-0.19378653
13	0x3b5afa69	0.0033413416
14	0x3d386217	0.04501542
15	0xbe23103f	-0.15924166
16	0x3d9216b9	0.0713324
17	0xbda785a6	-0.08179788
18	0x3d7aecbf	0.061260935
19	0xbd8bee8b	-0.06832608
20	0x3d2e2539	0.042515967
21	0xbb4fd19a	-0.0031710626
22	0x3d89949e	0.067177996
23	0x3d98abdb	0.07454654
24	0xbd8e35e8	-0.069438756
25	0xbd995843	-0.07487538
26	0xbd19b06a	-0.037521757
27	0xbcca1594	-0.024668492
28	0x3c9598b8	0.018261299
29	0xbd9ccaac	-0.07655844
30	0x3da39463	0.07987287
31	0x3d00f2e1	0.031481627
32	0xbe180493	-0.14845495
33	0x3e37bf22	0.17944005
34	0xbea31fa0	-0.31860065
35	0x3e5f896e	0.21829769
36	0xbd240d36	-0.04005166
37	0xbc89d2bc	-0.016824119
38	0xbe3ed17a	-0.18634596
39	0x3d66ed20	0.056378484
40	0x3eb308bf	0.3496761
41	0x3ec4444d	0.3833336
42	0x3d4a0ae1	0.04932678
43	0xbdc4d4b9	-0.09610886
44	0x3db6ff5b	0.08935424
45	0x3e7f0f73	0.24908237
46	0xbe46ed08	-0.19426358
47	0x3d89501e	0.06704734
48	0xbe723725	-0.23653848
49	0x3e051c56	0.1299909
50	0xbeab9391	-0.33511022
51	0x3d4cafba	0.049972273
52	0xbe54a8b6	-0.20767483
53	0x3e1d0e8e	0.15337583
54	0xbeda5f41	-0.42650798
55	0xbf1533b0	-0.58281994
56	0xbcbe77af	-0.023250429
57	0xbe0ec646	-0.13942823
58	0x3dd49354	0.10379663
59	0x3ebea452	0.3723474
60	0xbd5b6e71	-0.053572122
61	0x3e4edd2e	0.20201561
62	0xbef50ebf	-0.47862813
63	0x3e77c47a	0.24196044
64	0xbd0ccac4	-0.03437306
65	0x3ae0369b	0.0017106117
66	0xbd629632	-0.05531902
67	0xbc3a8aca	-0.011385629
68	0xbec20ab0	-0.3789878
69	0xbe7dcbf7	-0.24784838
70	0x3e1321fb	0.14368431
71	0x3dde2cbf	0.108483784
72	0x3c695f6a	0.01424394
73	0xbe463cc6	-0.1935912
74	0x3eaf225a	0.34205896
75	0x3e95a985	0.29230896
76	0xbe71fc40	-0.23631382
77	0xbdb392e1	-0.08768249
78	0xbe0ce99f	-0.13760994
79	0x3de8368b	0.11338528
80	0xbea8b01f	-0.3294687
81	0x3eaac879	0.33356073
82	0xbeb54a85	-0.35408416
83	0x3deae279	0.114689775
84	0xbd34e23b	-0.044161063
85	0xbd84fb9b	-0.064933024
86	0xbda431c2	-0.08017303
87	0xbeab708d	-0.33484307
88	0x3ddfb7c0	0.109237194
89	0x3dce8e0d	0.10085688
90	0x3e1011f6	0.14069352
91	0x3df4ea90	0.11958802
92	0xbb15e765	-0.0022873518
93	0x3dbd3912	0.09239401
94	0xbec6d3be	-0.3883342
95	0xbe3c5c03	-0.18394475
96	0xbed95528	-0.42447782
97	0x3d0ab5aa	0.033864655
98	0xbd4147d7	-0.047187652
99	0x3e0f63bd	0.14002891
100	0x3d4663e7	0.048435118
101	0xbcd732da	-0.026269365
102	0xbe0ecab4	-0.13944513
103	0xbe5ab115	-0.21356614
104	0x3d91abbe	0.07112835
105	0x3e4589c3	0.19290833
106	0x3d942dc7	0.07235294
107	0x3e131470	0.14363265
108	0x3de8ed08	0.11373335
109	0x3ddc567c	0.10758683
110	0xbd3419cd	-0.043969918
111	0x3d9cdd20	0.07659364
112	0xbe39bee6	-0.18139228
113	0x3e5e5d8c	0.21715373
114	0xbe2aca20	-0.16678667
115	0x3e591760	0.21200323
116	0xbe2f9d73	-0.17149906
117	0xbe4fea29	-0.20304169
118	0xbe107dd8	-0.14110506
119	0x3cc2945d	0.023752386
120	0x3e22a3c5	0.15882786
121	0x3e407ddb	0.1879801
122	0x3e613b26	0.2199522
123	0xbb56b535	-0.0032761816
124	0xbd10726c	-0.03526537
125	0x3e237551	0.15962721
126	0xbe3d4f9e	-0.18487403
127	0x3c41284c	0.011789393
128	0xbe56811d	-0.2094769
129	0x3e59dd56	0.21275839
130	0xbe4237c7	-0.1896659
131	0x3e47065a	0.19436017
132	0xbe171e6c	-0.14757699
133	0xbcedfbb5	-0.029050687
134	0xbe33b3ee	-0.17549106
135	0xbe7291fd	-0.23688503
136	0x3e6ba591	0.23012377
137	0x3e354ccf	0.17705081
138	0x3e057bae	0.13035461
139	0x3e0deb1f	0.13859223
140	0xbe279fa2	-0.16369489
141	0x3d22e73c	0.039771304
142	0xbe4d8aab	-0.20072429
143	0xbcfd6ef6	-0.0309367
144	0xbe72a566	-0.23695907
145	0x3e6283f4	0.22120649
146	0xbe5bc32a	-0.21461168
147	0x3e714027	0.23559628
148	0xbde99f94	-0.1140739
149	0xbdba67e4	-0.09101847
150	0xbe87aaf0	-0.26497602
151	0xbe3b0684	-0.18264204
152	0x3dbd2a5a	0.092365935
153	0x3dbd7af9	0.09251971
154	0x3e468750	0.19387555
155	0x3e869c2e	0.2629103
156	0xbdc680bb	-0.09692522
157	0x3e09c8b8	0.13455474
158	0xbe7b7296	-0.2455543
159	0xbdfb23af	-0.122626655
160	0xbe1422a9	-0.14466347
161	0x3e2f7730	0.1713531
162	0xbe39cb99	-0.18144073
163	0x3dc3d7a3	0.09562614
164	0xbcad2b4d	-0.021138811
165	0xbd4858c5	-0.048912782
166	0xbe282ffd	-0.16424556
167	0xbac7092e	-0.0015185231
168	0x3ded04c8	0.115731776
169	0x3e6db1f0	0.23212409
170	0x3dc46d4d	0.0959116
171	0xbd475993	-0.04866941
172	0x3ce4c5a0	0.027926266
173	0x3e4ca196	0.19983515
174	0xbe3fd0af	-0.1873195
175	0xbd29984f	-0.04140502
176	0xbe85a5e0	-0.26103115
177	0x3eb77f72	0.3583942
178	0xbeb9245e	-0.36160558
179	0x3e564f41	0.2092867
180	0x3dcce791	0.10005105
181	0xbcd6c2aa	-0.02621587
182	0xbeed5a35	-0.46357885
183	0xbe3e2f05	-0.18572624
184	0x3e3c77a2	0.18405011
185	0x3d601f87	0.054717567
186	0x3e1a910b	0.15094392
187	0x3d047cd4	0.032345608
188	0xbd75d4f0	-0.060017526
189	0x3e96799c	0.29389656
190	0xbf1e3c20	-0.61810493
191	0xbd48f90c	-0.049065635
192	0xbda31fb8	-0.07965034
193	0x3df50ba5	0.11965112
194	0xbe22c48e	-0.15895292
195	0x3e0dd2ca	0.13849941
196	0xbeb01ea0	-0.34398365
197	0xbe458162	-0.19287637
198	0xbd8b9f46	-0.06817488
199	0x3e22b732	0.15890196
200	0x3e01557b	0.12630264
201	0x3de45672	0.11149301
202	0x3d8c32e4	0.06845644
203	0x3de21fb2	0.11041202
204	0xbe7f70b6	-0.2494534
205	0xbe08f3c9	-0.13374247
206	0x3d159769	0.03652135
207	0xbe19dda8	-0.15025961
208	0xbe42ab1a	-0.19010583
209	0x3e32e9bb	0.17471974
210	0xbd8140ce	-0.06311189
211	0x3e567a92	0.20945194
212	0xbe1642a8	-0.14673865
213	0xbcb9c7d7	-0.022678299
214	0xbe7a91b4	-0.24469644
215	0xbe1e322d	-0.15448828
216	0xbce0d714	-0.027446307
217	0xbdb876c6	-0.09007029
218	0x3e69b5f8	0.22823322
219	0x3edd7a1e	0.4325723
220	0xbef848f6	-0.48493165
221	0xbe0d0bb1	-0.13773991
222	0xbee55b99	-0.44796446
223	0x3e38bb89	0.18040289
224	0xbce3aea7	-0.027793242
225	0x3d4ae493	0.04953439
226	0xbd4a8110	-0.04943949
227	0x3d9ae92f	0.075640075
228	0xbde81370	-0.113318324
229	0xbe2560b7	-0.16150175
230	0xbe465bd8	-0.19370973
231	0xbedc21ef	-0.4299464
232	0xbe83980e	-0.25701946
233	0xbc5c36e8	-0.013440825
234	0xbdf45978	-0.11931127
235	0x3d399213	0.045305323
236	0xbbbe157a	-0.0058009
237	0x3d810021	0.06298853
238	0xbde159c5	-0.1100345
239	0x3d54e990	0.051980555
240	0xbe26f3fb	-0.16304009
241	0x3e476c4e	0.19474909
242	0xbe18889e	-0.14895865
243	0x3e354282	0.17701152
244	0xbe089d76	-0.13341317
245	0xbd85ba44	-0.06529668
246	0xbe198c09	-0.14994825
247	0xbe7ee949	-0.24893679
248	0x3dcb1a86	0.09917168
249	0x3ddb9083	0.10720923
250	0x3dbca51b	0.09211179
251	0x3e31e890	0.17373872
252	0xbdd26b13	-0.10274329
253	0x3db3dcd6	0.087823555
254	0xbe629ece	-0.22130892
255	0xbe1a9473	-0.15095691

ent.weight f4 [9367, 16]
0	0x00000000	0.0
1	0x00000000	0.0
2	0x00000000	0.0
3	0x00000000	0.0
4	0x00000000	0.0
5	0x00000000	0.0
6	0x00000000	0.0
7	0x00000000	0.0
8	0x00000000	0.0
9	0x00000000	0.0
10	0x00000000	0.0
11	0x00000000	0.0
12	0x00000000	0.0
13	0x00000000	0.0
14	0x00000000	0.0
15	0x00000000	0.0
16	0x3a9f383a	0.0012147494
17	0x3d915fa9	0.07098324
18	0xbd9bafce	-0.076018915
19	0xbdb73878	-0.089463174
20	0x3e021f26	0.12707195
21	0xbdcb6977	-0.09932225
22	0x3d9881a1	0.074466
23	0xbd29e213	-0.041475367
24	0xbd817179	-0.06320471
25	0xbd536f51	-0.05161983
26	0xbc931e5e	-0.017958816
27	0x3d238f7e	0.039931767
28	0x3db2aaaf	0.087239616
29	0xbdb54b61	-0.08852268
30	0xbd93bc99	-0.072137065
31	0xbdf013c4	-0.1172252
32	0x38286f18	4.0157785e-05
33	0x37516050	1.2479795e-05
34	0xb95da270	-0.00021136715
35	0x38a3dae0	7.813214e-05
36	0xb91e1141	-0.00015074482
37	0x3895f6ee	7.150868e-05
38	0xb9165047	-0.0001433502
39	0xb91f3983	-0.00015184846
40	0x36c008e5	5.7230814e-06
41	0x382758f9	3.9898765e-05
42	0xb60b8a00	-2.079294e-06
43	0x37324975	1.062673e-05
44	0xb8dcd7ea	-0.000105306346
45	0x389b4bde	7.405107e-05
46	0x372082a2	9.5671585e-06
47	0xb742b5c5	-1.1605623e-05
48	0x365084da	3.1071745e-06
49	0xb49f3c16	-2.9659776e-07
50	0x346b501b	2.1915223e-07
51	0x3559003c	8.083914e-07
52	0x3473739f	2.2673201e-07
53	0xb51d4f44	-5.8602404e-07
54	0xb5d93460	-1.6183003e-06
55	0xb5057b00	-4.972535e-07
56	0x35843429	9.849947e-07
57	0x3442bb67	1.8135835e-07
58	0x35aa99ea	1.2710782e-06
59	0x35a8639d	1.2545967e-06
60	0x34b1c930	3.3115202e-07
61	0x34880465	2.5335171e-07
62	0xb5aacde3	-1.2725908e-06
63	0x359d1e60	1.1706252e-06
64	0xbcc633c6	-0.02419461
65	0xbb78791a	-0.003791398
66	0xbc3db5ac	-0.0115789585
67	0xbc11fbba	-0.008910114
68	0x3a1f1571	0.00060685637
69	0xbb9ecfc4	-0.004846545
70	0x3c783f7e	0.0151518565
71	0x3b6a902c	0.00357915
72	0xbbf2e577	-0.0074126082
73	0xbce444d4	-0.027864851
74	0x3cd2dfe1	0.02574152
75	0x3cd9c229	0.02658184
76	0x3c37318c	0.0111812465
77	0xbbdd2e8d	-0.006749934
78	0xbcd3ccd0	-0.025854498
79	0xbce71a96	-0.02821092
80	0xbd29d84d	-0.041466046
81	0xbb801e51	-0.003909864
82	0xbc1d681e	-0.009607343
83	0xba6f05d8	-0.0009117997
84	0xbd259237	-0.040422644
85	0x3cb3d833	0.021953678
86	0x3d5bd03a	0.053665377
87	0xbd532c4f	-0.051555928
88	0x3d213154	0.039353684
89	0xbd5b2111	-0.05349833
90	0x3d1dbd39	0.038510535
91	0x3d772ee0	0.060347438
92	0x3c5368b4	0.012903381
93	0xbcac3752	-0.021022473
94	0xbcfda877	-0.03096412
95	0xbceab69d	-0.02865153
96	0x34fc1464	4.6953494e-07
97	0xba262e1e	-0.00063392695
98	0x3544340a	7.3091417e-07
99	0x354d9afa	7.659397e-07
100	0xb58e1003	-1.0584484e-06
101	0x3544cf16	7.331704e-07
102	0x34f52faf	4.56695e-07
103	0x349a1c17	2.8705173e-07
104	0x358bc07c	1.0412327e-06
105	0x34a057b1	2.9866126e-07
106	0xb5abd27f	-1.2801755e-06
107	0xb4c57307	-3.6777803e-07
108	0xb59f59cc	-1.1872557e-06
109	0xb4494e9a	-1.8748179e-07
110	0x33fd6618	1.1799801e-07
111	0x35bbf87c	1.4004904e-06
112	0xb7a2be55	-1.9400535e-05
113	0xb68da70c	-4.2215743e-06
114	0x37fbbe42	3.0010127e-05
115	0x368596fd	3.981286e-06
116	0xb96e28c0	-0.0002271263
117	0xb906c25e	-0.00012851643
118	0xb738afdb	-1.1008199e-05
119	0x39c76ecc	0.00038038788
120	0x3a1411fc	0.0005648432
121	0x39052371	0.00012697071
122	0xb86756bc	-5.515547e-05
123	0xb969ccc6	-0.00022296896
124	0xb890f742	-6.9125104e-05
125	0x395ebac9	0.00021241153
126	0x39108dd5	0.00013785747
127	0xb8da9593	-0.000104229104
128	0xbd2a847a	-0.041630246
129	0xbcb56fa4	-0.022147961
130	0x3a2137c4	0.00061499723
131	0x3ab9fadc	0.0014189142
132	0xbd114d4e	-0.035474114
133	0xbbf8a14f	-0.007587589
134	0x3d5f7f26	0.054564618
135	0xbd3f5179	-0.046708558
136	0x3d1ff15a	0.03904853
137	0xbd63043c	-0.05542396
138	0x3d6d9c74	0.058010533
139	0x3d535d81	0.051602844
140	0x3ce6b3f8	0.028161988
141	0xbd6863e9	-0.056735907
142	0xbced7a2b	-0.028988918
143	0xbd5b4718	-0.053534597
144	0x35a45a94	1.2245314e-06
145	0xb5385317	-6.8666253e-07
146	0xb5a9dd80	-1.2655946e-06
147	0xb59b4d2d	-1.1570861e-06
148	0xb640bcb6	-2.8720074e-06
149	0xb59e39f5	-1.1788785e-06
150	0x353684b6	6.7993403e-07
151	0xb5af4d01	-1.3060927e-06
152	0x350b124d	5.1808166e-07
153	0xb56c7972	-8.809358e-07
154	0xb56f0adc	-8.905024e-07
155	0x34c939ee	3.7481317e-07
156	0x34fc7955	4.7026938e-07
157	0xb52cf47c	-6.4430765e-07
158	0x3509251c	5.109048e-07
159	0x35f11397	1.7961601e-06
160	0xbcacf349	-0.021112101
161	0xbd141da9	-0.0361611
162	0x3b6fdfc4	0.003660188
163	0x3b3980db	0.0028305564
164	0xbcbdfb29	-0.023191052
165	0x3b49b8ce	0.0030780318
166	0x3b9548b2	0.004555785
167	0xbc0e3fbe	-0.0086821895
168	0xbc96d782	-0.018413309
169	0xbb8a3145	-0.004217299
170	0x3c40873f	0.011750995
171	0x3c24750d	0.010037673
172	0x3c0f67e8	0.0087528005
173	0xbbe0c903	-0.0068599
174	0xbcafe18c	-0.021469854
175	0xbbc54ee5	-0.006021368
176	0xbd5f9cb3	-0.0545928
177	0xbc104c52	-0.008807259
178	0xbd260a64	-0.040537253
179	0xbd3b5759	-0.045737598
180	0x3d4b2c19	0.0496026
181	0xbd36c248	-0.044618875
182	0x3d82ff80	0.06396389
183	0xbd08bbde	-0.03338229
184	0xbbd4a35a	-0.0064891996
185	0xbd47ae2b	-0.048750084
186	0x3c828a83	0.015935188
187	0x3d663747	0.05620506
188	0x3c23910b	0.009983311
189	0xbd65bb4f	-0.056086835
190	0xbc9abe60	-0.018889606
191	0xbd61f959	-0.055169437
192	0x358abe1b	1.0337129e-06
193	0x34d658df	3.9925268e-07
194	0x39267ebf	0.0001587821
195	0xb5ad6aa5	-1.2920542e-06
196	0xb586a7bd	-1.0032596e-06
197	0x35991408	1.1405218e-06
198	0xb600cde5	-1.9193333e-06
199	0x35915664	1.0828485e-06
200	0xb5887575	-1.0166974e-06
201	0x35827dd3	9.722374e-07
202	0x3579663f	9.2908516e-07
203	0x357cf084	9.422731e-07
204	0x35829519	9.729148e-07
205	0xb56ec6a8	-8.895099e-07
206	0x359307fc	1.0954677e-06
207	0x348551b3	2.4832624e-07
208	0xbcaa7fac	-0.020812832
209	0xbce62699	-0.028094577
210	0x3d895b06	0.067068145
211	0x3cbd71d3	0.023125565
212	0xbcc25c6a	-0.023725707
213	0xbc0f5fdc	-0.008750882
214	0xbd2000cb	-0.039063256
215	0x3d00a691	0.03140885
216	0xbbbbc6f1	-0.005730503
217	0x3c8578be	0.016292926
218	0x3c60bc04	0.013716701
219	0x3c36f034	0.011165667
220	0xbc185d91	-0.009299652
221	0xbc2aacdd	-0.01041719
222	0x3b13a8be	0.0022530998
223	0xbb9623d4	-0.0045819078
224	0xbd6ec692	-0.05829484
225	0x3d351685	0.04421093
226	0xbd6e4bce	-0.05817776
227	0xbd4c5c0d	-0.049892474
228	0xbd58bcd0	-0.05291444
229	0x3d4ed656	0.050497375
230	0x3d882409	0.06647498
231	0xbd78aed8	-0.06071362
232	0x3d37bfdd	0.04486071
233	0xbd860917	-0.065447025
234	0x3d842534	0.064524084
235	0x3d8f6204	0.07001117
236	0x3d2d6551	0.04233295
237	0xbd8337c7	-0.06407123
238	0x3d1749dc	0.036935672
239	0xbd66fe93	-0.056395125
240	0xbb8da267	-0.0043223384
241	0xbc943739	-0.018092738
242	0xbad8a201	-0.0016527773
243	0x3c05c6a0	0.008165032
244	0xbba96793	-0.0051698177
245	0x3b6d4061	0.0036201703
246	0xbba4c932	-0.005028867
247	0x3aa52eca	0.0012602445
248	0xba6b415a	-0.0008974277
249	0x3b7f6025	0.0038967219
250	0x3aa558ab	0.0012614926
251	0x3b07292c	0.0020623906
252	0x3b4a95b3	0.0030911982
253	0x3b928095	0.0044708946
254	0x3b162cdc	0.0022914922
255	0x38ad9fcb	8.2790466e-05

rel.weight f4 [61, 16]
0	0x00000000	0.0
1	0x00000000	0.0
2	0x00000000	0.0
3	0x00000000	0.0
4	0x00000000	0.0
5	0x00000000	0.0
6	0x00000000	0.0
7	0x00000000	0.0
8	0x00000000	0.0
9	0x00000000	0.0
10	0x00000000	0.0
11	0x00000000	0.0
12	0x00000000	0.0
13	0x00000000	0.0
14	0x00000000	0.0
15	0x00000000	0.0
16	0xbdbcddfd	-0.092220284
17	0xbda66462	-0.08124615
18	0x3e0ae174	0.13562566
19	0xbe9118e5	-0.28339306
20	0x3d0c2fc6	0.034225248
21	0x3f1884b5	0.59577495
22	0xbe8d13a9	-0.27554062
23	0xbee2d1ae	-0.44300598
24	0xbea89564	-0.32926476
25	0xbf0fc1b1	-0.56154925
26	0xbed88f49	-0.42296818
27	0x3f11ee53	0.5700428
28	0xbe9888a9	-0.29791763
29	0xbdff04f8	-0.124521196
30	0xbfa0527e	-1.2525175
31	0x3f13f684	0.5779803
32	0xbd91e417	-0.07123583
33	0x3f07fd4c	0.53120875
34	0x3cc7d755	0.02439467
35	0x3ee57908	0.44818902
36	0xbeeee882	-0.46661764
37	0xbf04256f	-0.5161962
38	0x3eeb2bcc	0.45931852
39	0x3d4a5b63	0.04940356
40	0xbe934f2a	-0.28771335
41	0x3d9b849f	0.07593655
42	0x3dfc933a	0.12332769
43	0x3f426cb1	0.759471
44	0xbecccc57	-0.3999965
45	0xbf185dc6	-0.59518087
46	0x3e3d3408	0.1847688
47	0xbd13b0e8	-0.036057383
48	0xbe3226f1	-0.17397667
49	0x3e368f54	0.17828113
50	0xbdcb8c71	-0.099388964
51	0xbebfb794	-0.37444746
52	0xbf9597ef	-1.1686991
53	0x3f5805cd	0.8438385
54	0xbefe8e62	-0.49718004
55	0x3e9e862f	0.3096175
56	0x3e2c5001	0.16827394
57	0x3e957e90	0.29198122
58	0xbe694b62	-0.22782663
59	0x3e3c655a	0.18398038
60	0x3d2f14fa	0.042744614
61	0x3f321d32	0.695758
62	0x3dc6e240	0.097111225
63	0xbf0c37f6	-0.5477289
64	0x3daad9f7	0.08342355
65	0x3cc17385	0.023614654
66	0x3e1a24a2	0.15053037
67	0xbd22f9e4	-0.039789096
68	0x3de41461	0.111366995
69	0x3daed55e	0.0853679
70	0xbe4dada0	-0.20085764
71	0xbe8e6eeb	-0.27819
72	0xbc0ea495	-0.008706232
73	0xbe31d470	-0.17366195
74	0x3e9483c6	0.29006785
75	0xbd97e4bd	-0.07416675
76	0x3e41fc80	0.18943977
77	0x3df3c36a	0.11902507
78	0xbe202422	-0.15638784
79	0xbe80983a	-0.2511614
80	0xbdfc31ed	-0.1231421
81	0xbfa51640	-1.2897415
82	0xbeae50ee	-0.3404612
83	0x3d745074	0.05964704
84	0xbed1ecc2	-0.41000944
85	0xbf335eff	-0.7006683
86	0xbf1bd6f3	-0.6087486
87	0x3e6e87de	0.23294017
88	0xbf12b086	-0.57300603
89	0x3d278cd5	0.040905792
90	0x3d7155c0	0.05891967
91	0xbfd6ca8c	-1.6780562
92	0xbed2f069	-0.41199043
93	0x3eebd3d8	0.4606006
94	0x3e9d3106	0.30701464
95	0x3f18fe34	0.59762883
96	0x3a9f7b34	0.0012167455
97	0xba4f1e7c	-0.0007900966
98	0x3b4eb456	0.0031540594
99	0xbb692baf	-0.0035579016
100	0x3a914caf	0.0011085476
101	0x388bf6fe	6.6740424e-05
102	0x3af96c26	0.0019029423
103	0x39aa4e33	0.0003248319
104	0xbc05ac5c	-0.008158769
105	0xba723b04	-0.00092403614
106	0xbaa8f97a	-0.0012891733
107	0xbbd1f2aa	-0.0064071016
108	0xba8fc6d6	-0.0010969292
109	0xbb49ec34	-0.0030810954
110	0x3aa01679	0.0012213729
111	0xb95fceab	-0.00021343927
112	0xba9f7618	-0.0012165932
113	0x3a4e28e8	0.0007864372
114	0xbb4f009c	-0.0031586057
115	0x3b692cb8	0.0035579633
116	0xba914e83	-0.001108602
117	0xb88c0800	-6.67721e-05
118	0xbaf969c5	-0.0019028714
119	0xb9aa5f8c	-0.00032496115
120	0x3c05ac40	0.008158743
121	0x3a720d2d	0.0009233531
122	0x3aa8fdc9	0.0012893017
123	0x3bd1f5ec	0.00640749
124	0x3a991a87	0.0011680879
125	0x3b49ec0c	0.003081086
126	0xbaa023d4	-0.0012217709
127	0x395fc431	0.00021340024
128	0x3d9a0cc9	0.0752197
129	0xbd27be97	-0.040953245
130	0x3dcc80a7	0.09985476
131	0xbd8e4613	-0.06946959
132	0x3deda6ab	0.11604055
133	0x3cdb5cb4	0.026777603
134	0x3d451270	0.048113286
135	0x3d8ce7ab	0.06880125
136	0xbd198541	-0.037480596
137	0xbd3fd2a6	-0.04683175
138	0xbdbed3de	-0.09317754
139	0xbd356599	-0.044286344
140	0x3d5928ad	0.053017307
141	0xbcaec59f	-0.021334467
142	0x3dfe5b04	0.124197036
143	0x3c8e7389	0.017389076
144	0x3b6dcc0a	0.0036284947
145	0xbd4ec160	-0.050477386
146	0x3bdc4053	0.006721535
147	0xbcad3847	-0.021145
148	0xbc4a4a8e	-0.012346877
149	0x3d212f92	0.039352007
150	0xbd283205	-0.041063327
151	0xb6c2965f	-5.799156e-06
152	0xbc698a68	-0.01425419
153	0x3b97e08a	0.0046349214
154	0xbc9ec259	-0.019379782
155	0x3c21df98	0.009879969
156	0xbcc55446	-0.024088036
157	0xbd3adae0	-0.04561889
158	0x3c82bda0	0.01595956
159	0x3ac9a1f0	0.0015383344
160	0xbeeb4300	-0.45949554
161	0x3e40a453	0.18812685
162	0x3b8c5279	0.0042822924
163	0x3e496229	0.19666351
164	0x3e1edd54	0.15514117
165	0xbe92168b	-0.28532824
166	0xbd5820fa	-0.052765824
167	0x3f001b59	0.5004173
168	0x3ea4e4df	0.32205865
169	0x3f2c5390	0.67315006
170	0x3ec666f4	0.38750422
171	0x3da5fadb	0.081044875
172	0x3d920143	0.07129147
173	0x3d8a0e70	0.06741035
174	0xbf28643c	-0.65777946
175	0xbe6cbba4	-0.23118454
176	0xbc5e3c93	-0.013564247
177	0x3c4a8bf5	0.01236247
178	0xbcb0b1e8	-0.021569207
179	0x3ca1c041	0.019744994
180	0x3dbd15a2	0.09232642
181	0xbca571cc	-0.020195864
182	0xbd3d3dad	-0.046201397
183	0xbd025f0a	-0.031828918
184	0x3c263c53	0.010146218
185	0x3c92381e	0.017849024
186	0x3c50c909	0.012743243
187	0xbd76e775	-0.06027933
188	0x3d220421	0.03955472
189	0x3d1e40d0	0.03863603
190	0x3c6f9c7e	0.014624713
191	0x3d27550d	0.040852595
192	0x3cce1f08	0.025161281
193	0xbd334cbd	-0.043774355
194	0x3e0750e4	0.13214451
195	0xbd99725e	-0.07492517
196	0x3d30903b	0.0431063
197	0xbd8f7b87	-0.07005983
198	0x3d0651b5	0.032792766
199	0x3dc3e6b8	0.095654905
200	0xbe1d7054	-0.15374881
201	0xbe0cf251	-0.13764311
202	0xbcd62ca9	-0.026144342
203	0x3c0916d6	0.008367261
204	0x3c8f3527	0.0174814
205	0xbd40241c	-0.046909437
206	0x3dcffa93	0.10155215
207	0xbc9a1f41	-0.018813731
208	0xbe930415	-0.28714052
209	0x3db95fb9	0.09051461
210	0xbdc0070e	-0.093763456
211	0x3dcbf7ef	0.09959399
212	0xbe04b030	-0.12957835
213	0xbbab2264	-0.0052226055
214	0xbc51e9e1	-0.012812109
215	0xbd573c39	-0.052547667
216	0x3c906bf8	0.017629609
217	0x3df1c3d1	0.11804927
218	0x3dfbf0e1	0.123018034
219	0xbcadc617	-0.02121262
220	0x3ca65dfa	0.020308483
221	0xbc9c3a97	-0.019070907
222	0xbda2504f	-0.07925474
223	0xbc6a42f0	-0.014298186
224	0xbb62f6fe	-0.0034632082
225	0xbd02769e	-0.031851403
226	0xbc61906a	-0.013767341
227	0xbbea2d26	-0.0071464954
228	0xbb850105	-0.0040589594
229	0xbbca6b55	-0.0061773458
230	0x3d39cefe	0.04536342
231	0x3b086fd0	0.0020818599
232	0xbce73931	-0.028225513
233	0xba89b9ce	-0.0010507645
234	0xbc2b1fa3	-0.0104445545
235	0xbba67156	-0.0050794287
236	0x3ba9fc09	0.0051875156
237	0xbc5d92ec	-0.013523798
238	0x3c458d42	0.012057604
239	0x39b26740	0.00034027733
240	0x3d0533e6	0.032520197
241	0x3d1a1f99	0.03762779
242	0x3ba966ef	0.0051697413
243	0xbba41325	-0.005007165
244	0xbcb79a7f	-0.022412537
245	0xbc36c4ab	-0.011155288
246	0xbc3d1045	-0.0115395235
247	0xbc63da93	-0.013907093
248	0x3c6e8661	0.014558406
249	0xbc8f1a44	-0.01746858
250	0x3bac1e87	0.0052526626
251	0xbcbf81f0	-0.023377389
252	0x3c01df4c	0.007926773
253	0x38a77781	7.98544e-05
254	0xbc829a48	-0.015942708
255	0x3cea3d48	0.028593674

aggregator.0.weights.weight f4 [16, 16]
0	0x3d012dbe	0.031537764
1	0x3efb1211	0.4903722
2	0xbea46e1d	-0.3211526
3	0xbf3be898	-0.73401785
4	0x3f1d8b2f	0.615405
5	0xbe443f17	-0.19164692
6	0x3ea06f1e	0.31334776
7	0xbe9725b7	-0.29520962
8	0x3ea7a075	0.32739606
9	0xbeb11798	-0.34588313
10	0xbec604a4	-0.38675416
11	0xbe2cc4f4	-0.16872007
12	0x3d193df4	0.0374126
13	0xbe17a86e	-0.14810345
14	0x3f03b4da	0.5144783
15	0xbd71887e	-0.05896806
16	0x3eb41e2b	0.35179266
17	0x3f25cbda	0.6476418
18	0xbed848fe	-0.4224319
19	0xbf0fff99	-0.56249386
20	0xbeb4f225	-0.35340992
21	0x3eb87d1e	0.36032957
22	0x3e282ecb	0.164241
23	0xbe215274	-0.1575411
24	0x3ec56799	0.385556
25	0xbed420a6	-0.4143116
26	0x3e32846d	0.17433329
27	0x3d94ef26	0.072721764
28	0x3e5b39c8	0.2140876
29	0xbdc22b6f	-0.094809406
30	0x3f610100	0.8789215
31	0x3e257e6a	0.16161504
32	0x3e89b923	0.2689906
33	0x3ef099fb	0.46992478
34	0xbdc9c692	-0.098523274
35	0xbee9289e	-0.455388
36	0xbe96e069	-0.29468086
37	0xbe68aecb	-0.22722928
38	0x3f0cfa7f	0.55069727
39	0xbab9f3f4	-0.0014187084
40	0x3e858210	0.26075792
41	0xbeed79bf	-0.46381947
42	0x3e477d67	0.19481431
43	0xbd2fb4f0	-0.042897165
44	0x3e8f2f0c	0.2796558
45	0xbe53c873	-0.20681934
46	0xbd4e6d4b	-0.0503972
47	0xbeb9ec92	-0.363133
48	0xbf1e2139	-0.61769444
49	0xbee9b0c9	-0.4564269
50	0x3eb3de07	0.3513033
51	0x3e9a3d47	0.30124876
52	0xbf0bca66	-0.5460571
53	0x3d9f3030	0.07772863
54	0x3f40b8e2	0.7528211
55	0xbeb22167	-0.3479111
56	0xbe5c3b4f	-0.21507
57	0xbf3a817d	-0.72853833
58	0x3def52f6	0.116857454
59	0x3f013b48	0.5048108
60	0x3e7aedad	0.24504729
61	0xbe34d930	-0.17660975
62	0xbed685a4	-0.41898835
63	0xbe8d1704	-0.27556622
64	0x3e920d38	0.2852571
65	0x3e0266ee	0.12734577
66	0x3b271efc	0.0025500646
67	0xbf24cbdd	-0.6437357
68	0x3da3ac68	0.07991868
69	0xbeb0a8c5	-0.3450376
70	0x3e793b29	0.24338974
71	0xbe84ad38	-0.25913405
72	0xbe13baa1	-0.14426662
73	0xbe77b6e7	-0.24190865
74	0xbf077f5b	-0.52928704
75	0x3cc22711	0.023700269
76	0x3eb99fc4	0.36254704
77	0xbdd236ba	-0.102643445
78	0xbee7c1d6	-0.45265073
79	0xbeb6210b	-0.35572085
80	0xbed2e501	-0.4119034
81	0xbe9b2168	-0.30298924
82	0x3d8529fe	0.0650215
83	0xbd047380	-0.032336712
84	0xbdc3b3c3	-0.09555771
85	0xbdc7c6ec	-0.09754738
86	0x3eb6d036	0.35705727
87	0xbe8aa668	-0.27080083
88	0x3de7a4dd	0.11310742
89	0xbed85750	-0.42254114
90	0x3e184d62	0.14873269
91	0x3e87f011	0.26550344
92	0xbe19603c	-0.14978117
93	0xbe55694b	-0.20840947
94	0x3d4b290b	0.04959969
95	0xbe11209b	-0.14172594
96	0xbe0a1b52	-0.13486984
97	0x3bdd5fc8	0.006755803
98	0xbdcdc614	-0.10047546
99	0xbe894d0c	-0.26816595
100	0xbdce7534	-0.100809485
101	0xbbd07a2d	-0.0063622207
102	0x3ded7ac1	0.11595679
103	0x3e2542ff	0.16138838
104	0x3e2c121e	0.16803786
105	0xbe910a11	-0.28327993
106	0x3e9169cb	0.28401026
107	0x3e40a83f	0.18814181
108	0x3c8d8751	0.017276438
109	0xbe833a8c	-0.25630605
110	0x3e3e44b8	0.18580902
111	0xbdc948e8	-0.09828359
112	0x3e9a63bb	0.30154213
113	0x3d4fc718	0.05072698
114	0xbdb826e2	-0.08991791
115	0xbe557827	-0.20846616
116	0x3e0d296e	0.13785335
117	0x3a62ec20	0.0008656401
118	0xbe25e0d9	-0.16199054
119	0x3e2c52a6	0.16828403
120	0x3d33f12f	0.043931182
121	0xbc88321e	-0.01662546
122	0x3ebe50bc	0.3717097
123	0xbe917827	-0.2841198
124	0x3ec01bdd	0.37521258
125	0xbea579ef	-0.3231959
126	0x3d617634	0.055044368
127	0xbe97c134	-0.2963959
128	0xbe854b58	-0.26034045
129	0x3e386b19	0.18009605
130	0xbf2ebc58	-0.6825614
131	0xbe3ccad7	-0.18436752
132	0x3eeaf6a8	0.4589131
133	0xbde0641c	-0.10956594
134	0x3e7b9842	0.245698
135	0x3f083962	0.5321256
136	0xbdb39b29	-0.08769829
137	0xbed44af8	-0.41463447
138	0xbd004dde	-0.03132426
139	0xbd32ec8d	-0.043682624
140	0xbf17291a	-0.5904709
141	0xbef27add	-0.47359362
142	0x3ecc1551	0.39860013
143	0x3d9003cb	0.070319735
144	0xbdd197d9	-0.10234041
145	0x3e8d9631	0.2765365
146	0xbe48f0ad	-0.1962306
147	0x3e607cd8	0.21922624
148	0xbf170ae2	-0.5900098
149	0x3eb4415b	0.35206112
150	0x3eea0083	0.45703515
151	0xbd786e0a	-0.060651816
152	0x3f1c9710	0.61168003
153	0xbf26d283	-0.65164965
154	0x3ed2763c	0.4110583
155	0x3f01a453	0.50641364
156	0x3de29f3b	0.11065527
157	0xbe814b50	-0.2525277
158	0x3e72fac7	0.23728476
159	0xbce41dbe	-0.027846213
160	0x3ef8bd18	0.48581767
161	0x3d0e9799	0.034812544
162	0x3e543b2c	0.20725697
163	0x3ea815c2	0.328291
164	0xbe1ff772	-0.15621737
165	0x3f078e73	0.52951735
166	0xbf0da8fa	-0.5533596
167	0x3d044bf2	0.03229899
168	0x3e52aaed	0.20573016
169	0xbd149ff6	-0.036285363
170	0xbc6c142f	-0.014409109
171	0xbeb6bc11	-0.35690358
172	0xbdd91a95	-0.10600773
173	0x3f28895b	0.6583459
174	0x3d30b39e	0.043140046
175	0x3eb679ec	0.35639894
176	0x3ec3c86e	0.38238853
177	0x3ea17da3	0.31541166
178	0x3de6b58d	0.11265097
179	0x3d7855f9	0.060628865
180	0x3e78343f	0.2423868
181	0xbecdb155	-0.40174356
182	0xbe905099	-0.2818649
183	0x3f372dff	0.7155456
184	0xbee4e5d5	-0.44706598
185	0x3e9e52ec	0.3092264
186	0xbe9cf29a	-0.3065384
187	0xbddf4c59	-0.10903234
188	0xbe02b8ef	-0.12765859
189	0x3e42b7f4	0.19015485
190	0x3d47298e	0.048623614
191	0x3e847b25	0.25875202
192	0xbeba90c1	-0.36438563
193	0x3d31d5cb	0.04341678
194	0xbe40613d	-0.18787093
195	0x3e046f0a	0.12932983
196	0x3edf6b10	0.4363637
197	0x3beeea87	0.0072911414
198	0x3f4b0b6e	0.79314315
199	0xbe94670b	-0.28984866
200	0xbf430025	-0.76172096
201	0xbf2e43ec	-0.6807239
202	0x3eeda3a2	0.46413904
203	0x3f11bbfb	0.5692746
204	0x3d8a62f5	0.06757156
205	0xbf0b9e53	-0.5453846
206	0xbef5c8a9	-0.48004654
207	0xbe01f8a3	-0.12692504
208	0x3c96dbeb	0.018415412
209	0x3edddb07	0.43331167
210	0xbea96b21	-0.33089545
211	0xbea50d12	-0.32236534
212	0xbd5d9d98	-0.05410537
213	0x3ddef753	0.10887017
214	0x3ee7cb2f	0.45272204
215	0xbeda31d4	-0.4261614
216	0x3ed48569	0.41508034
217	0xbec44510	-0.3833394
218	0x3e11bee6	0.14232978
219	0x3ef27805	0.47357193
220	0x3dc6e46c	0.09711537
221	0xbeab3403	-0.3343812
222	0x3e8c47b3	0.27398452
223	0xbd43c852	-0.047798462
224	0x3da38d3f	0.07985925
225	0x3ea2207d	0.31665412
226	0xbd498051	-0.049194638
227	0xbf058375	-0.5215371
228	0xbcb06869	-0.021534162
229	0x3d657ddb	0.05602823
230	0x3ee9d6ec	0.45671785
231	0xbe944381	-0.2895775
232	0x3da182bd	0.078862645
233	0xbf2843b8	-0.6572833
234	0x3e206cfa	0.15666571
235	0x3e9c44d5	0.30521265
236	0x3de6758e	0.112528905
237	0xbe8891ec	-0.2667383
238	0xbe0ba73a	-0.1363801
239	0xbf0bf2bf	-0.54667276
240	0x3f58c7c4	0.8467982
241	0x3f14f6f1	0.581893
242	0xbee09582	-0.43864065
243	0xbecec9e5	-0.40388408
244	0x3e3646ed	0.17800494
245	0x3ecc4a88	0.39900613
246	0x3e0ea26f	0.13929151
247	0x3eb449bc	0.35212505
248	0xbece551e	-0.40299314
249	0xbd942248	-0.07233101
250	0x3f397c10	0.7245493
251	0x3d8672f0	0.06564891
252	0x3f3d3869	0.739142
253	0xbf0061b4	-0.50149083
254	0xbe7be55e	-0.24599215
255	0xbf165090	-0.5871668

aggregator.0.weights.bias f4 [16]
0	0x3e170a25	0.14749964
1	0x3dc5c8f6	0.09657471
2	0xbd766870	-0.060158193
3	0x3e4e5a91	0.20151736
4	0x3e175675	0.14779074
5	0x3d5859f1	0.05282015
6	0xbe305781	-0.1722088
7	0x3d21d941	0.03951383
8	0x3e139b22	0.14414647
9	0x3d92ab46	0.07161574
10	0x3f3c5f94	0.7358334
11	0x3f1adeac	0.6049602
12	0x3d1105a7	0.03540578
13	0x3a0de829	0.00054133177
14	0xbcb96010	-0.022628814
15	0x3e1d2ad0	0.15348363

aggregator.1.weights.weight f4 [16, 16]
0	0xbec48fb8	-0.383909
1	0xbd5b4b9a	-0.053538896
2	0xbed0b5ba	-0.40763646
3	0xbf0f6e80	-0.56027985
4	0xbe57af59	-0.21062984
5	0xbe2eb7bd	-0.17062278
6	0xbe7c3daf	-0.24632905
7	0xbead911b	-0.3389977
8	0x3e224b3f	0.15849017
9	0xbdfff656	-0.12498157
10	0x3edccec0	0.43126488
11	0x3f12d0b2	0.57349694
12	0xbf246e30	-0.6423063
13	0xbe909d4e	-0.28245014
14	0xbee9ab0b	-0.45638308
15	0xbe8d45ad	-0.2759222
16	0x3e2f98d2	0.1714814
17	0x3e86d3c0	0.26333427
18	0x3ef0e973	0.47053108
19	0x3e423d6a	0.1896874
20	0x3e34888c	0.17630213
21	0x3e4b818e	0.1987364
22	0x3e1d3065	0.15350492
23	0x3d640692	0.05567033
24	0xbe8f3e98	-0.27977443
25	0x3ed5a3bd	0.41726485
26	0xbf148468	-0.58014536
27	0xbf217c51	-0.63080317
28	0x3da1514f	0.078768365
29	0x3eea6cb5	0.45786062
30	0x3ebb134d	0.36538163
31	0x3eb0ae93	0.3450819
32	0x3d1d3b65	0.03838672
33	0xbec87a42	-0.39155775
34	0xbecca1ad	-0.399671
35	0xbed5a715	-0.41729036
36	0x3e64602e	0.22302315
37	0xbe7645b6	-0.2405003
38	0xbd466249	-0.048433576
39	0xbe2c445d	-0.16822954
40	0xbe5f2766	-0.21792373
41	0xbf205286	-0.6262592
42	0x3e362648	0.1778804
43	0x3f14bf24	0.5810416
44	0xbefd9195	-0.49525133
45	0xbebee622	-0.37284952
46	0xbf089e33	-0.5336639
47	0xbd898b82	-0.06716062
48	0x3e41c313	0.18922071
49	0x3d762f6a	0.06010381
50	0x3ed5890a	0.41706115
51	0x3f005753	0.50133246
52	0x3ed796c4	0.42107213
53	0x3e5ec2d6	0.21754012
54	0x3e02c4f6	0.12770447
55	0x3dda9b0b	0.10674103
56	0xbe05494f	-0.13016246
57	0x3ee9c759	0.45659903
58	0xbf023035	-0.5085481
59	0xbf08bed7	-0.534162
60	0x3ea8e556	0.3298747
61	0x3eb0e87c	0.34552372
62	0x3ef74dcc	0.48301542
63	0xbdac2041	-0.084045894
64	0xbf44b1f0	-0.7683401
65	0xbf00e2e8	-0.5034623
66	0xbc385bbc	-0.01125234
67	0x3e148994	0.14505607
68	0xbea759ec	-0.32685792
69	0xbe5c27a4	-0.21499497
70	0xbb0067ea	-0.0019593188
71	0xbea62a32	-0.32454067
72	0xbec37c29	-0.38180664
73	0x3dc7c11d	0.0975363
74	0x3e520a63	0.20511775
75	0x3ea626c9	0.32451466
76	0xbf528eef	-0.8224935
77	0xbed999f2	-0.42500263
78	0xbe1d6e2f	-0.15374063
79	0xbdbfe4a7	-0.09369784
80	0xbdb53b3a	-0.08849187
81	0xbd024a20	-0.031808972
82	0xbe30a67a	-0.17251006
83	0xbf01e254	-0.50735974
84	0xbf0c94d4	-0.54914594
85	0x3dc6426a	0.09680636
86	0x3d8c078b	0.06837376
87	0xbe630fd8	-0.22174013
88	0x3f0fefc4	0.5622523
89	0x3dfc81d8	0.12329453
90	0xbdcc6eb7	-0.09982055
91	0x3ea4cfb0	0.32189703
92	0xbd0ff40f	-0.03514486
93	0xbcda6abc	-0.026662223
94	0xbea85b80	-0.3288231
95	0xbec2efca	-0.3807357
96	0x3e97c4bf	0.29642293
97	0xbd0a9c77	-0.033840623
98	0xbec93cf2	-0.3930431
99	0xbf1a5d43	-0.60298556
100	0x3d4245c3	0.04742981
101	0xbe8eaad9	-0.2786472
102	0xbe87d7bd	-0.26531783
103	0xbe51ce7c	-0.20488924
104	0xbe68f54c	-0.22749823
105	0xbeccb12f	-0.3997893
106	0x3ee61b08	0.44942498
107	0x3f19280f	0.5982675
108	0xbf3cf2a7	-0.7380776
109	0xbea00fa2	-0.31261927
110	0xbea4b59a	-0.321698
111	0xbe213166	-0.157415
112	0xbe1c584c	-0.15268058
113	0x3c4c37dc	0.01246449
114	0xbda7aafc	-0.081869096
115	0x3e974408	0.2954409
116	0xbe670946	-0.22562131
117	0x3e1ab76f	0.15109037
118	0xbe19e0fa	-0.15027228
119	0xbe426491	-0.18983676
120	0xbea56644	-0.32304585
121	0x3ec4e131	0.38453057
122	0x3f5788c5	0.8419307
123	0x3e580420	0.21095324
124	0xbec9ed86	-0.39439029
125	0xbda773f8	-0.08176416
126	0xbebc5bdf	-0.36788842
127	0xbf4e3aef	-0.80558676
128	0x3ec19209	0.37806728
129	0x3efc7afc	0.4931258
130	0xbe0eb92a	-0.13937822
131	0x3e3aeeba	0.1825513
132	0xbea2dc63	-0.31808767
133	0x3e96a31a	0.29421312
134	0x3e17f020	0.14837694
135	0xbeb30605	-0.3496553
136	0x3f0072ef	0.50175375
137	0x3f00d067	0.50317997
138	0xbe4cc556	-0.19997153
139	0xbedaf851	-0.42767575
140	0x3e823d30	0.25437307
141	0x3ee9fdee	0.45701545
142	0x3e964d0d	0.2935566
143	0xbefda2a8	-0.4953816
144	0x3e102110	0.14075112
145	0x3ee246ac	0.44194543
146	0xbd75a9fa	-0.059976555
147	0x3f20d74a	0.62828505
148	0xbe53a9d3	-0.20670252
149	0x3e6978b6	0.22799954
150	0x3dfb894b	0.12282046
151	0xbeae457d	-0.3403739
152	0xbe580833	-0.21096878
153	0x3ed0f183	0.4080926
154	0xbe590516	-0.21193346
155	0xbf174da4	-0.59102845
156	0x3e7a12ab	0.24421184
157	0x3f1cd5c9	0.6126371
158	0x3deb68c8	0.11494595
159	0xbec6bfa1	-0.38818076
160	0x3ea70a1e	0.32624906
161	0x3d69a1fc	0.057039246
162	0x3e811dc9	0.25218037
163	0x3f45775d	0.7713526
164	0x3eeb8594	0.4600035
165	0x3ebf1ba8	0.37325788
166	0x3d636bdf	0.055522796
167	0xbde41498	-0.111367404
168	0xbe5311c2	-0.20612243
169	0x3eba67e7	0.36407396
170	0xbeab9d6a	-0.33518535
171	0xbe5a9447	-0.21345626
172	0x3f19af55	0.6003316
173	0x3d70c34f	0.05878001
174	0x3f30c9e5	0.69058067
175	0xbdefcd84	-0.11709121
176	0xbd8c3aa3	-0.068471216
177	0x3f2c1050	0.6721239
178	0xbc9618b1	-0.01832232
179	0xbedca6dd	-0.43096057
180	0xbe99a6e9	-0.30010155
181	0xbe8f4d26	-0.27988547
182	0x3d7de761	0.06198824
183	0x3e6eb3fa	0.23310843
184	0x3e40df3e	0.1883516
185	0x3e0e6475	0.13905509
186	0xbe3a9358	-0.1822027
187	0x399d438b	0.00029995697
188	0x3e8452c8	0.25844407
189	0x3de6f158	0.112765014
190	0xbd8c3d1d	-0.06847594
191	0x3f83f106	1.030793
192	0xbf3d3ead	-0.7392376
193	0xbf117448	-0.56818056
194	0xbf099207	-0.53738445
195	0x3e9f1753	0.31072482
196	0xbe959c24	-0.29220688
197	0x3e51edc4	0.20500857
198	0xbe754655	-0.23952611
199	0xbe161c04	-0.14659125
200	0xbee88d8b	-0.4542049
201	0xbd897099	-0.067109294
202	0x3e85e9be	0.26154894
203	0x3e20ccb7	0.15703093
204	0x3e81fc0c	0.2538761
205	0xbeede728	-0.4646542
206	0xbeaca73c	-0.3372134
207	0xbdbcfb57	-0.09227627
208	0xbf057dbc	-0.5214498
209	0xbeae25d3	-0.34013233
210	0xbdee70f8	-0.11642641
211	0x3f433da3	0.76265925
212	0xbe8587e6	-0.26080245
213	0x3ed1fadd	0.41011706
214	0x3e56d4ae	0.20979568
215	0xbe39da1f	-0.18149613
216	0xbdd4679e	-0.10371326
217	0x3ee518c2	0.4474545
218	0xbe8b8596	-0.27250355
219	0xbea0b999	-0.313916
220	0x3f3ab8e3	0.72938365
221	0x3e354f53	0.17706041
222	0xbdd58c2c	-0.10427126
223	0xbe43fc82	-0.19139293
224	0xbe9e7d7e	-0.30955118
225	0xbdb4fe06	-0.088375136
226	0xbf0aedb6	-0.5426897
227	0xbdeb303c	-0.11483809
228	0xbeab31de	-0.33436483
229	0xbe694d05	-0.22783287
230	0xbe5dec68	-0.21672213
231	0x3b7dfa35	0.0038753871
232	0xbef0f3d9	-0.4706104
233	0xbd82d9a4	-0.06389168
234	0x3f43066c	0.76181674
235	0x3e8baf1c	0.27282035
236	0xbf4021a0	-0.7505131
237	0xbe026617	-0.12734257
238	0xbe80c87f	-0.25152966
239	0xbec522f1	-0.3850322
240	0x3eeaed30	0.45884085
241	0xbeffd512	-0.49967247
242	0xbe5d0f02	-0.21587756
243	0x3ea7bfb6	0.3276345
244	0x3e82cbf8	0.2554624
245	0x3e5accf8	0.21367252
246	0xbd503b7b	-0.050837975
247	0xbe869b4d	-0.2629036
248	0x3ec674ae	0.38760895
249	0xbf4ce62b	-0.8003871
250	0xbe3a348b	-0.18184106
251	0x3e91e830	0.28497458
252	0x3f0f0cdd	0.55879
253	0xbea4904c	-0.3214134
254	0xbcdae305	-0.02671958
255	0xbed1990d	-0.4093708

aggregator.1.weights.bias f4 [16]
0	0x3e907bc2	0.2821942
1	0xbed264d2	-0.41092545
2	0x3ec0da33	0.37666473
3	0xbe7ea8a8	-0.24869025
4	0x3d88582f	0.06657445
5	0xbddf3647	-0.108990245
6	0x3eb4f128	0.35340238
7	0x3f00d19e	0.5031985
8	0xbee978c1	-0.4559994
9	0xbea9f4a0	-0.33194447
10	0xbb6ecb61	-0.0036437141
11	0xbe15f892	-0.14645603
12	0xbd18cb08	-0.037303
13	0xbd34e885	-0.04416706
14	0x3f32c347	0.6982922
15	0x3d76df8d	0.06027179
