kgraph_models/model_node_8000_0.7453019037548632.pt (torch, 728580 bytes, 7 tensors)

usr.weight f4 [1872, 16]
0	0xbd3cb955	-0.046075184
1	0x3e9a4bab	0.30135855
2	0xbd979d0c	-0.07403001
3	0x3c5a3a66	0.013319587
4	0xbe6e2350	-0.23255658
5	0xbe5cebef	-0.21574377
6	0x3d181c17	0.037136164
7	0x3e883237	0.2660081
8	0x3d20da3f	0.039270636
9	0x3b931379	0.0044884053
10	0x3deda286	0.116032645
11	0x3e296377	0.16541849
12	0xbe62372a	-0.22091356
13	0xbce5a218	-0.028031394
14	0x3dad434f	0.08460104
15	0xbe36e695	-0.17861398
16	0x3db956a0	0.090497255
17	0xbdf11d47	-0.11773162
18	0x3dbfe186	0.09369187
19	0xbdc772d9	-0.09738702
20	0x3d874741	0.066053875
21	0xbc9e9d27	-0.019362045
22	0x3dc78c82	0.097435966
23	0x3de8f3d2	0.1137463
24	0xbddb93f6	-0.10721581
25	0xbddc8d87	-0.10769182
26	0xbcbc7aef	-0.023007838
27	0xbda36d8f	-0.07979881
28	0x3d9c59c8	0.07634312
29	0xbd9210a4	-0.0713208
30	0x3decbaf9	0.115591
31	0x3dae47e6	0.08509807
32	0xbe3320f0	-0.17493033
33	0x3e654feb	0.22393768
34	0xbeab660a	-0.33476287
35	0x3e835932	0.25653988
36	0xbd5d07f1	-0.05396265
37	0xbc9585ed	-0.018252337
38	0xbe69612f	-0.22790979
39	0x3d3d06e4	0.04614915
40	0x3ed313da	0.41226083
41	0x3ee14419	0.43997267
42	0x3d897ae9	0.067128964
43	0xbdb3d61c	-0.087810725
44	0x3d8b5a09	0.06804282
45	0x3e95273d	0.291315
46	0xbe5feed5	-0.21868451
47	0x3d047bce	0.03234463
48	0xbe5c182e	-0.21493599
49	0x3e08d6a4	0.13363129
50	0xbe8f9bc3	-0.28048524
51	0x3d28f654	0.04125054
52	0xbe4cb25c	-0.19989914
53	0x3e4dbb29	0.20090927
54	0xbec99722	-0.39373118
55	0xbf257ba3	-0.6464178
56	0xbb5ad1a5	-0.0033389118
57	0xbe017cf0	-0.12645316
58	0x3d871838	0.06596416
59	0x3eb8c4dd	0.36087695
60	0xbd735abb	-0.0594127
61	0x3e5af1ab	0.21381252
62	0xbf0e4a27	-0.555819
63	0x3e96776e	0.29387993
64	0xbd9960f1	-0.07489193
65	0xba07fab8	-0.00051872013
66	0xbdba8e8c	-0.0910922
67	0x3cde9b5c	0.02717369
68	0xbf01c8ec	-0.5069721
69	0xbe9371ad	-0.28797665
70	0x3df84964	0.12123373
71	0x3ddafd61	0.106928594
72	0x3cf1b706	0.029506218
73	0xbe41e27b	-0.18934052
74	0x3ebe2db3	0.3714424
75	0x3eb6f6c0	0.3573513
76	0xbed8f115	-0.4237143
77	0xbe008d56	-0.12553915
78	0xbe166a96	-0.14689097
79	0x3dcc6826	0.09980802
80	0xbe914ef6	-0.28380555
81	0x3eb3b705	0.3510057
82	0xbe975d44	-0.29563344
83	0x3e12a61f	0.14321183
84	0x3c291d88	0.010321982
85	0xbc1a5302	-0.009419205
86	0xbdc74d2b	-0.097315155
87	0xbed8dd0f	-0.42356154
88	0x3d96f646	0.07371192
89	0x3da4c7c6	0.08045916
90	0x3d9af985	0.07567123
91	0x3d964ee3	0.07339265
92	0x3ce5e292	0.028062139
93	0x3d598685	0.053106803
94	0xbedafba0	-0.427701
95	0xbe098b23	-0.13431983
96	0xbed5d449	-0.41763523
97	0x3d50e8c5	0.051003236
98	0xbd908b4b	-0.07057818
99	0x3e1ee202	0.15515903
100	0x3d5dc532	0.05414314
101	0xbd8c0352	-0.06836571
102	0xbe223a95	-0.1584266
103	0xbe4e195e	-0.20126864
104	0x3dad2098	0.084534824
105	0x3e4c0427	0.19923459
106	0x3dc44500	0.09583473
107	0x3e0179cc	0.12644118
108	0x3e1dcb60	0.15409613
109	0x3e0309be	0.12796685
110	0xbd5a474c	-0.05329065
111	0x3d9f3c9a	0.07775231
112	0xbe4afe2c	-0.19823521
113	0x3e582465	0.21107633
114	0xbe3fb71c	-0.18722194
115	0x3e5be121	0.21472599
116	0xbe3e138a	-0.18562141
117	0xbe8a9ce4	-0.27072823
118	0xbe22094c	-0.15823859
119	0x3c84413b	0.016144386
120	0x3e1b10a7	0.15143071
121	0x3e3b0da9	0.1826693
122	0x3e821b02	0.2541123
123	0x3c7db058	0.015483938
124	0xbd0d5147	-0.03450134
125	0x3e1eade6	0.15496024
126	0xbe43c702	-0.19118884
127	0x3c56974c	0.013097595
128	0xbe721afa	-0.23643103
129	0x3e8b1d82	0.2717095
130	0xbe651f25	-0.22375162
131	0x3e79dc75	0.24400504
132	0xbe33355c	-0.17500824
133	0x3b9bff9b	0.004760695
134	0xbe5ce0b8	-0.21570098
135	0xbe88d1d6	-0.26722592
136	0x3e8a1642	0.26970106
137	0x3e52417a	0.2053279
138	0x3e01dbf5	0.12681563
139	0x3e0400b3	0.12890892
140	0xbe68c773	-0.22732334
141	0x3d459e47	0.04824665
142	0xbe711f78	-0.2354716
143	0xbd5e0e9a	-0.054213144
144	0xbe83bb0e	-0.2572865
145	0x3e7af0d6	0.24505934
146	0xbe7764d9	-0.24159564
147	0x3e834bd2	0.25643784
148	0xbe1b23e6	-0.15150413
149	0xbe03bdab	-0.12865321
150	0xbe8d01eb	-0.27540526
151	0xbe2b898f	-0.16751693
152	0x3de83f92	0.1134025
153	0x3df92874	0.12165919
154	0x3e63e493	0.22255163
155	0x3e489239	0.1958703
156	0xbdf6146f	-0.12015616
157	0x3e22d12a	0.15900102
158	0xbe81d4c4	-0.2535764
159	0xbe16098f	-0.14652084
160	0xbe17bb1b	-0.14817469
161	0x3e4d872a	0.20071092
162	0xbe39ea27	-0.18155728
163	0x3e12db02	0.14341357
164	0xbb19f4b2	-0.0023491797
165	0xbcf9cb9a	-0.030492593
166	0xbe48e686	-0.19619188
167	0xbcf9c3c8	-0.030488864
168	0x3e2d1c4b	0.16905324
169	0x3e8bbd8f	0.2729306
170	0x3db8ded4	0.09026876
171	0xbdc3649d	-0.09540675
172	0x3d5dc052	0.05413849
173	0x3e765d90	0.24059129
174	0xbe45d1b7	-0.19318281
175	0xbbf1f4b9	-0.0073839095
176	0xbe92c166	-0.28663176
177	0x3ec6069f	0.38676926
178	0xbeb78312	-0.35842186
179	0x3e985c5e	0.2975797
180	0x3db123be	0.086493954
181	0xbdcae057	-0.09906071
182	0xbee6a82f	-0.4505019
183	0xbe6e3067	-0.23260652
184	0x3e41b0d4	0.18915111
185	0x3e0ad444	0.13557535
186	0x3e3d60b3	0.18493919
187	0x3d501394	0.05079992
188	0xbd8e2f75	-0.069426455
189	0x3e8dcc70	0.27695036
190	0xbf106d5c	-0.5641687
191	0xbda6dabb	-0.08147188
192	0xbdaec40b	-0.08533486
193	0x3ded3973	0.11583223
194	0xbe3eb8d0	-0.18625188
195	0x3e0c7b51	0.13718916
196	0xbed37053	-0.41296634
197	0xbe79216e	-0.24329159
198	0xbd780c13	-0.06055839
199	0x3e36e19b	0.17859499
200	0x3e2e55e8	0.17024958
201	0x3df75df3	0.12078466
202	0x3e012117	0.12610279
203	0x3e4086d8	0.18801439
204	0xbeaacccf	-0.33359382
205	0xbe26e6c1	-0.16298963
206	0x3d1fcadf	0.039011832
207	0xbe40b326	-0.1881834
208	0xbe865f0e	-0.26244396
209	0x3e5fc879	0.21853818
210	0xbdd9959e	-0.1062424
211	0x3e86d49a	0.26334077
212	0xbe44609e	-0.19177482
213	0xbd5e5a77	-0.054285493
214	0xbe9572e6	-0.29189223
215	0xbe4170a6	-0.18890628
216	0xbd207ca2	-0.03918136
217	0xbdbde728	-0.09272605
218	0x3e6b987a	0.23007384
219	0x3ee7cc7e	0.45273203
220	0xbef43f02	-0.4770432
221	0xbdf1091b	-0.11769315
222	0xbef72071	-0.48266938
223	0x3e3f05bb	0.1865453
224	0xbd914250	-0.07092726
225	0x3d9b974a	0.075972155
226	0xbd9bd490	-0.076089025
227	0x3dcaa800	0.09895325
228	0xbe3af201	-0.1825638
229	0xbe544266	-0.20728454
230	0xbe585aa6	-0.2112833
231	0xbedc8bfe	-0.43075556
232	0xbe49511f	-0.19659851
233	0x3c07fda5	0.00830022
234	0xbd71691c	-0.05893813
235	0x3ddb3b11	0.107046254
236	0xbd83eab0	-0.064412475
237	0x3d6f1d68	0.058377653
238	0xbe0b8362	-0.13624337
239	0x3ce0d355	0.027444521
240	0xbe32d8ef	-0.17465566
241	0x3e7c5a6f	0.24643873
242	0xbe32daa6	-0.1746622
243	0x3e545dc4	0.20738894
244	0xbdecaff6	-0.115569994
245	0xbd02f75a	-0.031974174
246	0xbe3dec0f	-0.1854708
247	0xbe93d4e1	-0.2887335
248	0x3e2ed009	0.17071547
249	0x3e2ef6a1	0.17086269
250	0x3d9b1171	0.07571686
251	0x3e287a00	0.1645279
252	0xbdeb27b5	-0.11482183
253	0x3de988b7	0.114030294
254	0xbe82883c	-0.25494564
255	0xbe1a2c27	-0.15055905

ent.weight f4 [9367, 16]
0	0x00000000	0.0
1	0x00000000	0.0
2	0x00000000	0.0
3	0x00000000	0.0
4	0x00000000	0.0
5	0x00000000	0.0
6	0x00000000	0.0
7	0x00000000	0.0
8	0x00000000	0.0
9	0x00000000	0.0
10	0x00000000	0.0
11	0x00000000	0.0
12	0x00000000	0.0
13	0x00000000	0.0
14	0x00000000	0.0
15	0x00000000	0.0
16	0x3c0ad4cf	0.008473589
17	0x3db63ade	0.08897947
18	0xbdb76204	-0.08954242
19	0xbde368d2	-0.11103977
20	0x3df41237	0.11917537
21	0xbdb70fc2	-0.089385524
22	0x3da86bd3	0.08223691
23	0xbd33ab60	-0.043864608
24	0xbd7fde56	-0.062467895
25	0xbd6e51d2	-0.0581835
26	0xbc028ecf	-0.007968619
27	0x3d2ed1b5	0.04268046
28	0x3dcd7243	0.10031559
29	0xbdcb6e14	-0.09933105
30	0xbd9a73f5	-0.07541648
31	0xbe03dd2d	-0.1287734
32	0xb06348fd	-8.268584e-10
33	0x302198d5	5.8788646e-10
34	0x318718ea	3.9318495e-09
35	0xaf7598b5	-2.2336873e-10
36	0xb080698c	-9.343224e-10
37	0x3038d0d8	6.7235595e-10
38	0xb0f24944	-1.7628641e-09
39	0xb131fae1	-2.5899498e-09
40	0x2e83dd75	5.996529e-11
41	0xb05f2961	-8.118573e-10
42	0x2eca08d4	9.187465e-11
43	0xaf37d5b1	-1.6719671e-10
44	0xb107026b	-1.964646e-09
45	0xb0e943a2	-1.6972204e-09
46	0xb0f99046	-1.8158139e-09
47	0x2f90b5a3	2.6322508e-10
48	0x3d39de7e	0.0453782
49	0x3cd345a8	0.02579005
50	0x3af1060e	0.0018388645
51	0xbc53b456	-0.012921413
52	0x3d1f7f0b	0.038939517
53	0xbc7f31b8	-0.015575819
54	0xbd12fa87	-0.035883453
55	0x3d1439e5	0.036188025
56	0xbc1f2573	-0.009713518
57	0x3d176eb7	0.03697082
58	0xbcc5bd03	-0.02413798
59	0xbd22a46e	-0.039707594
60	0xbc44d1db	-0.012012924
61	0x3cc2afd3	0.02376548
62	0x3c9cb3ec	0.019128762
63	0x3c6f8c69	0.014620879
64	0xbcc7d6c5	-0.024394402
65	0xbc6595b9	-0.014012747
66	0xbaea49fd	-0.0017874833
67	0x3b0e05e5	0.0021670994
68	0xbc05e05c	-0.008171167
69	0xbba7900a	-0.0051136063
70	0x3c3f4226	0.011673486
71	0x3bc8e60c	0.0061309393
72	0xbc2cabb9	-0.010538989
73	0xbc9d5cc4	-0.019209273
74	0x3c99492c	0.018711649
75	0x3ccce5e5	0.025011966
76	0xb97b7939	-0.00023982384
77	0xbb185f65	-0.002325022
78	0xbcab616d	-0.02092048
79	0xbc8699b7	-0.016430719
80	0xbe13c9b4	-0.14432412
81	0x3cb481e5	0.022034595
82	0xbd862c02	-0.065513626
83	0xbd4d71db	-0.05015741
84	0xbe1739ec	-0.14768189
85	0x3d686c81	0.056744102
86	0x3e191020	0.14947557
87	0xbe1ba5fc	-0.15200037
88	0x3df4d58f	0.119547956
89	0xbe162838	-0.1466378
90	0x3e08bb30	0.13352656
91	0x3e28b0a9	0.1647364
92	0x3d959bbf	0.07305097
93	0xbdeb060c	-0.11475763
94	0xbd2d85e3	-0.042364012
95	0xbde365a6	-0.11103372
96	0xbcfbac6d	-0.030721867
97	0xbcfa31c6	-0.030541312
98	0x3cf76620	0.030200064
99	0x3cbff3a5	0.023431608
100	0x3d851ac6	0.06499247
101	0xbd42daf7	-0.047572102
102	0xb9e0337e	-0.00042762974
103	0x3a60e7b5	0.0008579449
104	0xbd244d24	-0.04011263
105	0x3bd4bfcf	0.006492592
106	0xbd07233d	-0.03299259
107	0x3c149037	0.009067587
108	0xbd0e0c2e	-0.034679584
109	0x3c33b0cf	0.010967447
110	0xbd6a85d4	-0.057256535
111	0x3c39510f	0.01131083
112	0xbcdcb255	-0.026940504
113	0xbd7152a0	-0.058916688
114	0x3ccff41d	0.025384957
115	0x3d43df55	0.047820408
116	0xbc6b0017	-0.014343283
117	0xbbe541f7	-0.006996389
118	0x3b092930	0.002092909
119	0x3a49cae0	0.0007697772
120	0xbd9ff3fd	-0.07810209
121	0x3b753580	0.0037415922
122	0x3c3b0d5c	0.011416759
123	0x3c31f870	0.010862455
124	0xbbf93c3d	-0.007606058
125	0xbb0796d4	-0.0020689266
126	0xbd2c6c28	-0.042095333
127	0x38406dbc	4.5878565e-05
128	0xbd19a7c1	-0.0375135
129	0xbc9a90ca	-0.018867869
130	0x3a03f86b	0.00050342706
131	0x3aa2138b	0.0012365443
132	0xbceaf6b6	-0.028682094
133	0xbb5ddc58	-0.003385326
134	0x3d503637	0.050832953
135	0xbd28110e	-0.04103189
136	0x3cbe8d23	0.023260659
137	0xbd5250b3	-0.051346492
138	0x3d3f094f	0.046639737
139	0x3d3dd1c8	0.04634264
140	0x3ca6a1b9	0.020340787
141	0xbd4c9516	-0.049946867
142	0xbcb98e18	-0.022650763
143	0xbd35b12f	-0.04435843
144	0xbcb2e683	-0.021838432
145	0xbd5c4b41	-0.053782705
146	0x3d777f48	0.06042412
147	0x3d5768d5	0.05259021
148	0xbd913d0f	-0.07091724
149	0xbd0079ab	-0.03136603
150	0xbb407dc2	-0.0029371832
151	0xbc40f754	-0.011777718
152	0x3c8e0a38	0.017338857
153	0x3b1c5176	0.0023852265
154	0xbcbd174a	-0.023082394
155	0x3bbb4470	0.0057149455
156	0xbd0b22dc	-0.03396879
157	0x3ca04ca2	0.019567791
158	0xbc730282	-0.014832141
159	0x3c93c1be	0.01803672
160	0xbd875523	-0.066080354
161	0xbda78062	-0.08178784
162	0x3d2b2a47	0.041788366
163	0x3d32e6bd	0.04367708
164	0xbd8f99e9	-0.07011778
165	0xbc352f65	-0.011058663
166	0x3c331a6c	0.010931592
167	0xbcbae2fa	-0.022813309
168	0x3c2387e8	0.009981133
169	0xbc133cc1	-0.008986653
170	0x3bc941d1	0.006141879
171	0x3cbd0de8	0.02307792
172	0xbc9855b6	-0.018595558
173	0xb9c9c0cc	-0.00038481352
174	0xbd0f5b8c	-0.034999415
175	0x3b1dceb0	0.0024079494
176	0xbd00a8bf	-0.03141093
177	0xbbfdf495	-0.0077501037
178	0xbc80ed60	-0.01573819
179	0xbcbd538d	-0.02311113
180	0x3b19eef1	0.0023488367
181	0xbc29cb58	-0.010363422
182	0x3ccce595	0.025011817
183	0xbc7cbadd	-0.015425411
184	0xbb0a8fab	-0.0021142762
185	0xbc8a0591	-0.016848357
186	0x3babcf11	0.00524319
187	0x3b6cb376	0.003611771
188	0x3b6f3df6	0.0036505437
189	0xbcc281f9	-0.023743616
190	0xbc1665c1	-0.009179533
191	0xbca7e081	-0.020492794
192	0x2c56fb6b	3.0550794e-12
193	0x2dc66a7e	2.2557286e-11
194	0x3134ee79	2.6329003e-09
195	0x2db82672	2.0935451e-11
196	0x2c4e0787	2.927854e-12
197	0xad088441	-7.760071e-12
198	0xae1e4710	-3.5988157e-11
199	0x2da9c51a	1.9300606e-11
200	0xad6ede00	-1.3578028e-11
201	0x2c7eed93	3.6227451e-12
202	0x2d9ca176	1.780685e-11
203	0xada1aeb4	-1.8381165e-11
204	0xab97d39b	-1.0787928e-12
205	0xad358b2f	-1.0319564e-11
206	0x2da77742	1.9038663e-11
207	0xaa2c12b9	-1.5283165e-13
208	0xbdee2c7e	-0.1162958
209	0xbe00c697	-0.12575756
210	0x3e10b730	0.1413238
211	0x3e04c060	0.1296401
212	0xbde10141	-0.10986567
213	0x3c813165	0.015770623
214	0xbb640222	-0.003479131
215	0x3ba7eee1	0.005124912
216	0xbd5169b4	-0.051126197
217	0xbb8d76fd	-0.004317163
218	0x3d86daa6	0.06584673
219	0x3d8ac343	0.067755245
220	0xbab97cde	-0.0014151593
221	0xbab99483	-0.001415864
222	0xbdb67f57	-0.08911007
223	0xbc3bcc77	-0.011462322
224	0xbd9b680c	-0.07588205
225	0x3d071cd7	0.03298649
226	0xbd72830e	-0.059207015
227	0xbd4ad2e1	-0.049517516
228	0xbd571460	-0.052509665
229	0x3d036fab	0.032088917
230	0x3da4f3b6	0.08054297
231	0xbd908005	-0.07055668
232	0x3d22c2f2	0.039736696
233	0xbd9febd3	-0.07808652
234	0x3d94cfce	0.07266198
235	0x3da90d38	0.082544744
236	0x3d22f3e3	0.03978337
237	0xbd9cb5c3	-0.07651856
238	0x3c9425b9	0.018084394
239	0xbd81496d	-0.06312833
240	0x3d0e45fa	0.034734704
241	0xbc7097e0	-0.014684647
242	0x3bf2cdd8	0.0074097924
243	0x3cba7a91	0.022763522
244	0x3cfaa46e	0.030595984
245	0x3a4333eb	0.0007446396
246	0xbd6a59b6	-0.05721446
247	0x3d666bbb	0.056255084
248	0xbc3bbc0f	-0.011458411
249	0x3d5aad62	0.053388007
250	0xbd30e134	-0.04318352
251	0xbd3be21e	-0.04586994
252	0xbd58c6da	-0.052924015
253	0x3d5f6e96	0.054548822
254	0x3d897155	0.067110695
255	0x3d65ee32	0.056135364

rel.weight f4 [61, 16]
0	0x00000000	0.0
1	0x00000000	0.0
2	0x00000000	0.0
3	0x00000000	0.0
4	0x00000000	0.0
5	0x00000000	0.0
6	0x00000000	0.0
7	0x00000000	0.0
8	0x00000000	0.0
9	0x00000000	0.0
10	0x00000000	0.0
11	0x00000000	0.0
12	0x00000000	0.0
13	0x00000000	0.0
14	0x00000000	0.0
15	0x00000000	0.0
16	0xbce1a044	-0.02754224
17	0xbe19ccd4	-0.15019542
18	0x3e399d33	0.18126373
19	0xbea04648	-0.3130362
20	0x3dee4eaa	0.11636098
21	0x3f1485e0	0.5801678
22	0xbe6f842b	-0.23390262
23	0xbec98c57	-0.39364883
24	0xbeb064a9	-0.34451798
25	0xbf0fa50c	-0.56111217
26	0xbec950ca	-0.3931945
27	0x3ee1ee0f	0.44126937
28	0xbe42c60b	-0.1902086
29	0xbdef6449	-0.1168905
30	0xbf8d2c1f	-1.102909
31	0x3f0df141	0.5544625
32	0xbd287bf2	-0.04113383
33	0x3eef8d7e	0.46787637
34	0x3d2f9a67	0.04287186
35	0x3eb9eb19	0.36312178
36	0xbed20289	-0.4101756
37	0xbecf6564	-0.40507042
38	0x3eff6ea6	0.49889106
39	0x3d73f925	0.059563775
40	0xbe8a6089	-0.27026775
41	0x3d906943	0.07051327
42	0x3d272e74	0.040815786
43	0x3f3149be	0.69253147
44	0xbeafbde9	-0.34324577
45	0xbf141a17	-0.5785231
46	0x3e2d6a57	0.16935097
47	0xbd9f3dc7	-0.07775455
48	0xbe2f232e	-0.17103264
49	0x3e5b5549	0.21419252
50	0xbddd5fc7	-0.10809284
51	0xbea7ed25	-0.32798114
52	0xbf8f5546	-1.1197898
53	0x3f412be1	0.7545758
54	0xbee886c9	-0.45415333
55	0x3e73f900	0.23825455
56	0x3e2aabf4	0.16667157
57	0x3e8da618	0.27665782
58	0xbe665342	-0.22492698
59	0x3e67c950	0.22635388
60	0x39bcee00	0.00036035478
61	0x3f1877ef	0.59558004
62	0x3db746fc	0.08949086
63	0xbf1004a2	-0.5625707
64	0x3d2c048c	0.041996524
65	0x3cd780a4	0.026306458
66	0x3e1d1dc5	0.15343387
67	0xbd2b5b15	-0.04183491
68	0x3dd4b261	0.103855856
69	0x3d51e4fd	0.05124377
70	0xbe268dde	-0.16265056
71	0xbe84ebe8	-0.25961232
72	0xbd8b7dbe	-0.06811093
73	0xbe1c8d58	-0.15288293
74	0x3e7fe976	0.24991402
75	0xbbae2294	-0.0053141806
76	0x3e483238	0.19550407
77	0x3dbb96a2	0.0915959
78	0xbe16dc3f	-0.14732455
79	0xbe0d5791	-0.13802935
80	0xbe104509	-0.14088835
81	0xbf91c1c2	-1.1387255
82	0xbec7950f	-0.3898091
83	0x3db7c243	0.08972599
84	0xbeca371d	-0.39495173
85	0xbf2003a3	-0.6250555
86	0xbf210284	-0.62894464
87	0x3dfc9dfe	0.12334822
88	0xbf014c3d	-0.50506955
89	0x3d5f7a17	0.054559793
90	0x3db3b631	0.08774985
91	0xbfc1bdca	-1.5136044
92	0xbec93044	-0.39294636
93	0x3eeb8b38	0.46004653
94	0x3e4fa09f	0.20276116
95	0x3f16809d	0.5879
96	0xba850eb6	-0.0010151479
97	0x3b8a9f6a	0.0042304294
98	0xb9e8848d	-0.00044349246
99	0x3b40e5b2	0.0029433784
100	0xb9c50e81	-0.00037585574
101	0xbb617800	-0.00344038
102	0xb9bc1b5f	-0.00035878547
103	0x3b1b5e54	0.0023707347
104	0xbb31a3a6	-0.0027105599
105	0xbaa9ba73	-0.0012949243
106	0xb9625443	-0.0002158443
107	0x39a29e57	0.0003101702
108	0x3b23136e	0.0024883407
109	0xbaad9ac0	-0.0013244972
110	0x3b83c76a	0.0040215747
111	0xbb4119eb	-0.0029464911
112	0x3a850e07	0.0010151275
113	0xbb8aa286	-0.0042308
114	0x39e8529b	0.00044312034
115	0xbb40e5f4	-0.0029433938
116	0x39c50d18	0.00037584524
117	0x3b617849	0.003440397
118	0x39bc1b21	0.00035878367
119	0xbb1b5e2c	-0.0023707254
120	0x3b31a3ea	0.0027105757
121	0x3aa9bbb7	0.001294962
122	0x39625aad	0.00021586819
123	0xb9a29a78	-0.00031014136
124	0xbb22fadb	-0.002486876
125	0x3aad8fce	0.001324171
126	0xbb83c766	-0.004021573
127	0x3b4119e8	0.0029464904
128	0xbce49b45	-0.02790607
129	0x3c58c47f	0.013230442
130	0x3c8f1ac1	0.017468812
131	0x3c3c5d46	0.0114968475
132	0x3d78723f	0.06065583
133	0x3c70f164	0.0147059895
134	0x3cb496aa	0.022044498
135	0xbc595212	-0.013264196
136	0x3cf7d119	0.030251073
137	0xbc4c9f0c	-0.012489092
138	0xbb599a9a	-0.0033203722
139	0xbad614e5	-0.0016333131
140	0xbb8757b7	-0.0041303295
141	0xba9719bf	-0.0011528059
142	0x3d87e304	0.06635097
143	0xbd1694dc	-0.036763057
144	0xbd7ae600	-0.0612545
145	0x3cccfef9	0.025023924
146	0xbd515ff0	-0.051116884
147	0x3d3659b7	0.044519152
148	0xbd3abc1e	-0.04558956
149	0xbc7509e8	-0.014955975
150	0xbd12d840	-0.035850763
151	0xbce8d805	-0.028423319
152	0x3ced6c0c	0.028982185
153	0x3d10f7db	0.035392623
154	0x3ca578cb	0.0201992
155	0x3c8a9525	0.01691682
156	0x3c11b080	0.008892179
157	0x3d0abf70	0.033873975
158	0xbcd904f1	-0.026491614
159	0x3c8e58e1	0.017376365
160	0xbebb5342	-0.36586958
161	0x3e17b2b2	0.1481426
162	0x3dc50161	0.09619404
163	0x3e16dcd8	0.14732683
164	0x3e5f9f51	0.21838118
165	0xbe3a7f49	-0.18212618
166	0x3c57c83d	0.013170299
167	0x3ee122c8	0.43971848
168	0x3e8f3583	0.27970514
169	0x3f10d55a	0.5657555
170	0x3e9c4c33	0.30526885
171	0x3a166b36	0.00057380216
172	0x3e17defe	0.14831159
173	0x3dc291fc	0.095005006
174	0xbf082a62	-0.5318967
175	0xbe3c580a	-0.18392959
176	0xbd5d9145	-0.054093618
177	0x3cce3c81	0.025175335
178	0xbd7c8584	-0.061650768
179	0x3d5ada92	0.0534311
180	0x3d410e89	0.047133002
181	0xbd83a8e7	-0.064287
182	0xbd9143c2	-0.07093002
183	0xbc3e8153	-0.011627513
184	0x3c90c745	0.017673144
185	0x3cda7f98	0.02667217
186	0x3d515d48	0.05111435
187	0xbc89f5fc	-0.016840927
188	0x3c8b547d	0.01700806
189	0x3d5a8432	0.053348728
190	0xbba142cc	-0.004921293
191	0x3cec5568	0.028849319
192	0xbc204175	-0.009781231
193	0xbccee28e	-0.025254514
194	0x3df5a97d	0.11995218
195	0xbd476576	-0.048680745
196	0x3d3a6246	0.045503877
197	0xbdbb0be1	-0.09133125
198	0x3b869162	0.0041066865
199	0x3d9cb8c8	0.07652432
200	0xbe2fb8b2	-0.171603
201	0xbe193127	-0.14960156
202	0xbbe23294	-0.006903002
203	0x3ccea80f	0.025226621
204	0xbcf80d6a	-0.030279834
205	0xbd815106	-0.06314282
206	0x3d997a44	0.074940234
207	0xbcfd7d62	-0.030943576
208	0xbe9b3b9f	-0.30318925
209	0x3e375a4b	0.17905538
210	0xbe34a085	-0.17639358
211	0x3e2e2bbb	0.1700887
212	0xbe270b79	-0.1631297
213	0xbdcb0978	-0.099139154
214	0xbdbf9661	-0.093548544
215	0xbd0da82c	-0.03458421
216	0x3cc7b9ec	0.024380647
217	0x3e0c47af	0.1369922
218	0x3e435c55	0.1907819
219	0x3cf72b6b	0.03017207
220	0xbd960fce	-0.07327233
221	0x3cb36355	0.021897951
222	0xbe0d24b7	-0.13783537
223	0xbd27d1cd	-0.040971566
224	0x3bd5234f	0.0065044533
225	0xbc6fbfab	-0.0146331
226	0xbc0715ff	-0.00824499
227	0xbabb752b	-0.0014301887
228	0xbd391b62	-0.04519213
229	0xbcf07266	-0.029351424
230	0x3d382aa5	0.044962544
231	0x3d721d51	0.05910999
232	0x3d029070	0.031876028
233	0x3c142fe3	0.00904462
234	0x3c25b60b	0.010114203
235	0x3ccdb918	0.025112674
236	0xbd0035b0	-0.0313012
237	0xbcb49138	-0.022041902
238	0x3d4f4e93	0.050612044
239	0xbcb45ef5	-0.022017935
240	0x3c84f7ac	0.01623138
241	0xbc2dc713	-0.010606545
242	0x3d4b5d1b	0.04964934
243	0xbd10dd98	-0.03536758
244	0x3c13ebbb	0.0090283705
245	0x3c7d0f1f	0.0154455
246	0x3cbe07c0	0.023197055
247	0xbc66865d	-0.014070121
248	0xbc4ea914	-0.012613554
249	0xbc2a0bed	-0.01037882
250	0xbd35c16a	-0.044373907
251	0xbcb1f809	-0.021724718
252	0x3d0dc9f5	0.03461643
253	0xbc670e61	-0.014102549
254	0x3c28911b	0.010288502
255	0x3d051188	0.032487422

aggregator.0.weights.weight f4 [16, 16]
0	0x3d88f301	0.06686974
1	0x3f1333d1	0.5750094
2	0xbec06f39	-0.37584856
3	0xbf515d14	-0.8178265
4	0x3f43911b	0.7639329
5	0xbe82655b	-0.25467953
6	0x3ea97c7d	0.3310279
7	0xbeab94f0	-0.33512068
8	0x3ebb9273	0.3663517
9	0xbee64e3e	-0.4498157
10	0xbedcc6ab	-0.43120322
11	0xbe41dd7b	-0.18932144
12	0x3da8b86c	0.08238301
13	0xbe43ec8b	-0.19133203
14	0x3f0ebfce	0.5576142
15	0xbd812a33	-0.06306877
16	0x3edfc24b	0.4370292
17	0x3f392e5f	0.7233638
18	0xbf035af5	-0.51310664
19	0xbf1d8818	-0.6153579
20	0xbeb004e5	-0.34378734
21	0x3eed54d2	0.46353775
22	0x3e3abb2d	0.18235464
23	0xbddd3484	-0.10801032
24	0x3ee0691a	0.43830186
25	0xbee61c1c	-0.4494332
26	0x3e4f4913	0.2024272
27	0x3da24178	0.079226434
28	0x3e79b0ec	0.24383897
29	0xbe0e7afe	-0.13914105
30	0x3f8570fd	1.0425106
31	0x3e51993c	0.2046861
32	0x3e9f9cb9	0.31174257
33	0x3f05d3f6	0.5227655
34	0xbe02af40	-0.12762165
35	0xbf07ae54	-0.5300038
36	0xbea1bf4f	-0.3159127
37	0xbe84dc84	-0.2594949
38	0x3f10e781	0.56603247
39	0xbcaf2a0a	-0.02138235
40	0x3e8e6e33	0.2781845
41	0xbf0676bd	-0.5252493
42	0x3e509c13	0.20372038
43	0xbce450c8	-0.02787055
44	0x3ea4534a	0.32094795
45	0xbe8473ac	-0.258695
46	0xbdcb7e11	-0.09936155
47	0xbecaa530	-0.39579153
48	0xbf45f3ba	-0.7732502
49	0xbf0d58a8	-0.55213404
50	0x3ef20bbe	0.47274584
51	0x3ec4dd58	0.38450122
52	0xbf2695c6	-0.65072286
53	0x3d0c9ad4	0.034327343
54	0x3f4a5367	0.7903351
55	0xbecc2a85	-0.3987619
56	0xbe4f56e3	-0.20247988
57	0xbf388bc2	-0.72088253
58	0x3dc58712	0.09644903
59	0x3f11865f	0.5684566
60	0x3e743019	0.23846473
61	0xbe492ae6	-0.1964527
62	0xbf04a142	-0.5180856
63	0xbe9ab408	-0.30215478
64	0x3eb9fc65	0.36325374
65	0x3e08f3b5	0.13374217
66	0x3d094f81	0.033523086
67	0xbf454730	-0.7706175
68	0x3e220451	0.15821959
69	0xbf0ad064	-0.5422423
70	0x3e8f6045	0.28003135
71	0xbea0c1c0	-0.3139782
72	0xbe1d6249	-0.15369524
73	0xbea557bc	-0.322935
74	0xbf2a3a5b	-0.66495293
75	0x3ca846aa	0.020541508
76	0x3ee6818a	0.45020705
77	0xbdf213e0	-0.11820197
78	0xbf0e3624	-0.5555136
79	0xbefb0cbd	-0.49033156
80	0xbf0e81ed	-0.55667
81	0xbebae086	-0.36499423
82	0x3e04602b	0.1292731
83	0x3ca3b8cd	0.01998558
84	0xbe1f7ad8	-0.15574205
85	0xbe0d604b	-0.13806264
86	0x3ec515a5	0.38493076
87	0xbea41704	-0.3204881
88	0x3dfe7889	0.12425334
89	0xbed8feb6	-0.4238183
90	0x3e2858c8	0.16440117
91	0x3ea8d444	0.32974446
92	0xbe3b9511	-0.18318583
93	0xbe780566	-0.2422081
94	0xbcf78cca	-0.0302185
95	0xbe10ade9	-0.14128841
96	0xbe08088c	-0.1328451
97	0x3db15bf0	0.08660114
98	0xbde62ab2	-0.11238612
99	0xbe9ab871	-0.30218843
100	0xbdbf93e0	-0.09354377
101	0x3d06880a	0.03284458
102	0x3e75a222	0.2398763
103	0x3d9f9075	0.07791225
104	0x3e2522f7	0.1612662
105	0xbeb8fcf2	-0.36130482
106	0x3ec7f995	0.39057603
107	0x3e8744fa	0.26419812
108	0x3d3460b5	0.04403754
109	0xbea47d63	-0.32126912
110	0x3ded3ccf	0.11583864
111	0xbe16f73e	-0.14742753
112	0x3f033ab2	0.51261437
113	0x3dc8f793	0.09812846
114	0xbe2a43b7	-0.16627394
115	0xbeb2df3b	-0.34935936
116	0x3e3af9ee	0.18259403
117	0x3cba6ecb	0.022757908
118	0xbe21592e	-0.15756676
119	0x3e397e60	0.18114614
120	0xbd13bf93	-0.03607137
121	0xbd87fb85	-0.066397704
122	0x3ebf7c31	0.37399438
123	0xbe872265	-0.26393428
124	0x3efae7aa	0.4900487
125	0xbeb23f90	-0.3481412
126	0x3d038c73	0.032116365
127	0xbeb4c46a	-0.35306102
128	0xbeae1424	-0.3399974
129	0x3e65be90	0.22435975
130	0xbf49a81b	-0.78772134
131	0xbe223717	-0.15841328
132	0x3f2b4b5f	0.6691188
133	0xbe110206	-0.14160928
134	0x3e4aa46b	0.19789283
135	0x3f11f3a8	0.57012415
136	0xbe1a8732	-0.15090635
137	0xbef88101	-0.48535922
138	0x3bdef960	0.00680463
139	0xbd88e5a7	-0.06684428
140	0xbf29b125	-0.66285926
141	0xbef34b6a	-0.47518474
142	0x3f04db75	0.51897365
143	0x3e4bd942	0.19907096
144	0xbe0d4ca1	-0.13798763
145	0x3e93a46d	0.28836384
146	0xbe41b5c3	-0.18916993
147	0x3e6e7309	0.2328607
148	0xbf3e6815	-0.74377567
149	0x3ee0d1db	0.43910107
150	0x3ef6f536	0.48233956
151	0xbd92a668	-0.07160646
152	0x3f2d8379	0.67778736
153	0xbf2f81f4	-0.6855767
154	0x3effff54	0.49999487
155	0x3f0aa33d	0.5415533
156	0x3dcb6287	0.09930902
157	0xbe8a9589	-0.2706721
158	0x3e918d2a	0.28428012
159	0xbba06666	-0.0048950193
160	0x3f146a1f	0.5797443
161	0x3d99f204	0.07516864
162	0x3e86d09b	0.26331028
163	0x3ec224aa	0.37918597
164	0xbe24015f	-0.16016148
165	0x3f12b096	0.573007
166	0xbf1255ba	-0.5716206
167	0x3d5250cc	0.051346585
168	0x3e77c061	0.2419448
169	0x3baf9898	0.0053587668
170	0xbd5e0bda	-0.05421052
171	0xbec27319	-0.37978438
172	0xbe0039f0	-0.12522101
173	0x3f35a7cb	0.70959157
174	0x3d2653b3	0.040607166
175	0x3ec71561	0.38883498
176	0x3ef00d39	0.46885088
177	0x3ec1e0c1	0.37866786
178	0x3e0dfc40	0.13865757
179	0x3dd02e85	0.10165123
180	0x3ea4e458	0.32205462
181	0xbee33ac7	-0.4438078
182	0xbea89982	-0.32929617
183	0x3f47472b	0.7784297
184	0xbef2d613	-0.4742895
185	0x3ebac3fd	0.36477652
186	0xbeba23cb	-0.36355433
187	0xbe0b0a2c	-0.13578099
188	0xbe4f5b41	-0.20249654
189	0x3e74a50b	0.23891084
190	0x3d158e42	0.03651262
191	0x3ea53e88	0.3227427
192	0xbeed028e	-0.46291012
193	0x3d1e13cc	0.0385931
194	0xbe615bb8	-0.22007644
195	0x3de6c1db	0.11267444
196	0x3efd14c0	0.49429893
197	0xbd89e82a	-0.06733735
198	0x3f50fdd7	0.8163733
199	0xbe95c46f	-0.2925143
200	0xbf555f5b	-0.83348626
201	0xbf343a0e	-0.70401084
202	0x3f02ee6a	0.5114504
203	0x3f1a8ef6	0.6037439
204	0x3d3af407	0.04564288
205	0xbf19746c	-0.5994327
206	0xbf13692d	-0.5758236
207	0xbe1ac55a	-0.15114346
208	0xbcc36269	-0.023850637
209	0x3eef3734	0.46721804
210	0xbeaa845e	-0.33304113
211	0xbeadb3b9	-0.3392618
212	0xbdd68671	-0.104748614
213	0x3e1e96e9	0.15487255
214	0x3f03796a	0.5135714
215	0xbeda7322	-0.42665964
216	0x3eee6a3c	0.46565425
217	0xbed42a62	-0.41438586
218	0x3e3d7ff3	0.1850584
219	0x3f030b1d	0.5118883
220	0x3dd03077	0.10165494
221	0xbec2304e	-0.3792748
222	0x3ea311c8	0.31849504
223	0xbd99b0c8	-0.075044215
224	0x3da7e8ab	0.08198675
225	0x3eb1ff5b	0.34765133
226	0xbdb2faec	-0.08739266
227	0xbf119233	-0.5686371
228	0xbd918d80	-0.07107067
229	0x3d83d54d	0.06437168
230	0x3f061c76	0.5238718
231	0xbea02d7d	-0.31284705
232	0x3decc23d	0.115604855
233	0xbf3814bc	-0.7190664
234	0x3e5e5034	0.21710283
235	0x3ea2a23a	0.31764394
236	0x3e0acbf6	0.13554367
237	0xbe963d0d	-0.29343453
238	0xbe3820e1	-0.17981292
239	0xbf10f390	-0.56621647
240	0x3f856b8a	1.0423443
241	0x3f2a0d02	0.664261
242	0xbf0701b7	-0.5273699
243	0xbf0315cd	-0.5120514
244	0x3e7d5873	0.24740772
245	0x3ee41469	0.44546822
246	0x3de271d2	0.11056866
247	0x3eee51bd	0.46546736
248	0xbf02d3ac	-0.51104236
249	0xbdff5783	-0.124678634
250	0x3f559162	0.8342496
251	0x3d829990	0.06376946
252	0x3f52d516	0.82356393
253	0xbf11c5ea	-0.5694262
254	0xbe78978a	-0.24276558
255	0xbf158515	-0.5840619

aggregator.0.weights.bias f4 [16]
0	0x3e533abc	0.20627874
1	0x3e1e38f0	0.15451407
2	0xbd539bd5	-0.051662285
3	0x3e9ad351	0.30239347
4	0x3e713d76	0.23558602
5	0x3e06dad6	0.13169417
6	0xbe03f00a	-0.12884536
7	0x3dcee34a	0.10101946
8	0x3e5bc828	0.21463072
9	0x3e069319	0.13142051
10	0x3f544295	0.82914096
11	0x3f314944	0.6925242
12	0x3d8b7d65	0.068110265
13	0x3bc8083e	0.006104498
14	0xbcf0268c	-0.029315256
15	0x3e57c0b6	0.21069607

aggregator.1.weights.weight f4 [16, 16]
0	0xbec118e9	-0.37714317
1	0xbd1f9cea	-0.038968004
2	0xbef6ff4f	-0.4824166
3	0xbf1a2315	-0.6020978
4	0xbe87bb7d	-0.2651023
5	0xbe51238d	-0.20423718
6	0xbe874370	-0.26418638
7	0xbeae5367	-0.34048006
8	0x3e452c2a	0.19255129
9	0xbe03628c	-0.12830561
10	0x3efd2131	0.49439386
11	0x3f245bc4	0.64202523
12	0xbf2ef0fd	-0.6833647
13	0xbea7a9b6	-0.32746667
14	0xbf0abd0f	-0.5419473
15	0xbe980833	-0.29693756
16	0x3dd18c01	0.10231782
17	0x3e8997a3	0.26873502
18	0x3f117e39	0.56833225
19	0x3e336082	0.17517284
20	0x3e1cdc07	0.15318309
21	0x3e39170b	0.18075196
22	0x3ea7691b	0.32697377
23	0x3d58f672	0.052969404
24	0xbeb0f310	-0.34560442
25	0x3ee796f9	0.4523237
26	0xbf2a057e	-0.6641463
27	0xbf3ccc10	-0.73748875
28	0x3d87c300	0.0662899
29	0x3f0119a2	0.5042974
30	0x3ee3f795	0.44524828
31	0x3eb343d9	0.350127
32	0x3d2db4a2	0.042408593
33	0xbee0c8e6	-0.43903273
34	0xbed92901	-0.42414096
35	0xbedec030	-0.43506002
36	0x3e92d1d6	0.28675717
37	0xbe93a761	-0.28838637
38	0xbe1f0df3	-0.15532665
39	0xbe265ba8	-0.16245902
40	0xbe73c91c	-0.23807186
41	0xbf32fa91	-0.69913584
42	0x3e6aaf3c	0.22918409
43	0x3f2c197c	0.67226386
44	0xbef8df88	-0.4860804
45	0xbed607ff	-0.41802976
46	0xbf0bbd61	-0.54585844
47	0xbd7d5f99	-0.061858747
48	0x3e1a1451	0.15046813
49	0x3cfdd2b2	0.030984256
50	0x3ef89947	0.4855444
51	0x3f0b0a8c	0.5431297
52	0x3ed3a37c	0.41335666
53	0x3e8c8c35	0.2745072
54	0x3e5cfaaf	0.21580003
55	0x3d90181a	0.07035847
56	0xbe1e5fa7	-0.15466176
57	0x3ef339dd	0.47505084
58	0xbf1a457d	-0.6026228
59	0xbf1ef001	-0.62084967
60	0x3ec0fba3	0.37691984
61	0x3ec70861	0.3887358
62	0x3f0efb39	0.55852085
63	0xbdea5ca4	-0.11443451
64	0xbf720d13	-0.945512
65	0xbf15ef62	-0.58568394
66	0xbcd95b97	-0.026532931
67	0x3e629fae	0.22131225
68	0xbec07efb	-0.37596878
69	0xbe2a73d3	-0.16645746
70	0xbd94f208	-0.07272726
71	0xbeb7ad0a	-0.35874206
72	0xbedc6c95	-0.43051592
73	0x3e2b0544	0.16701227
74	0x3e907908	0.2821734
75	0x3ed5557e	0.41666788
76	0xbf54e0f9	-0.8315578
77	0xbef522dd	-0.4787816
78	0xbe4587ce	-0.19290087
79	0xbdff47c1	-0.12464858
80	0xbdcb0a1e	-0.09914039
81	0xbc879221	-0.016549172
82	0xbea8591b	-0.32880482
83	0xbf1eaed1	-0.619855
84	0xbf42f1f2	-0.7615043
85	0x3d703145	0.058640737
86	0xbd07584a	-0.033043183
87	0xbeae4920	-0.34040165
88	0x3f399519	0.7249313
89	0x3e1aea76	0.15128502
90	0xbd50db19	-0.050990198
91	0x3ecef561	0.40421584
92	0xbd0a2ac5	-0.033732194
93	0xbdadd00d	-0.08486948
94	0xbeece033	-0.462648
95	0xbf041eec	-0.51609683
96	0x3ebcf90d	0.3690876
97	0x3c5794c2	0.013158025
98	0xbedf86cd	-0.43657532
99	0xbf261947	-0.6488232
100	0x3d85970a	0.06522949
101	0xbea451bb	-0.32093605
102	0xbea52e5d	-0.32261935
103	0xbe42ce34	-0.19023973
104	0xbe336989	-0.17520727
105	0xbed77bb7	-0.42086574
106	0x3f008ac2	0.5021173
107	0x3f2fbab8	0.68644285
108	0xbf439834	-0.7640412
109	0xbe9f5be3	-0.31124792
110	0xbebeaa8f	-0.372395
111	0xbe23839c	-0.15968174
112	0xbe0f2d4b	-0.13982122
113	0x3d65904b	0.05604581
114	0xbe055d63	-0.13023905
115	0x3ea8184e	0.32831043
116	0xbe693791	-0.22775103
117	0x3e3698af	0.17831682
118	0xbe65ce38	-0.22441947
119	0xbe852cd2	-0.26010758
120	0xbeaa1a66	-0.33223265
121	0x3eda4092	0.42627388
122	0x3f7a1f89	0.9770437
123	0x3e8f6e51	0.28013852
124	0xbf000751	-0.50011164
125	0xbdace3f3	-0.08441915
126	0xbed4d753	-0.4157053
127	0xbf68633b	-0.90776414
128	0x3ecf5955	0.40497842
129	0x3f121126	0.57057416
130	0xbe11cae9	-0.1423756
131	0x3e3ef83f	0.18649386
132	0xbee490db	-0.44641766
133	0x3ec34a10	0.38142443
134	0x3e956f78	0.29186606
135	0xbeded432	-0.43521267
136	0x3f11750f	0.5681924
137	0x3f1992ba	0.5998951
138	0xbe7b1b10	-0.24522042
139	0xbf051002	-0.5197755
140	0x3e82680e	0.25470012
141	0x3f0c2df2	0.54757607
142	0x3e98fbf8	0.29879737
143	0xbf1495fe	-0.5804137
144	0x3dbe1a13	0.09282317
145	0x3eebe6ae	0.46074432
146	0xbd4369e4	-0.047708407
147	0x3f34c483	0.70612353
148	0xbe8fe40b	-0.2810367
149	0x3ea3b312	0.31972557
150	0x3e5c5d7f	0.21520041
151	0xbed3cd04	-0.41367352
152	0xbe906466	-0.28201598
153	0x3f01d48a	0.50714934
154	0xbe7582de	-0.23975703
155	0xbf2f2ad7	-0.68424743
156	0x3e6808ee	0.22659656
157	0x3f28f642	0.6600076
158	0x3e07b049	0.13250841
159	0xbeec3419	-0.46133497
160	0x3eb8c346	0.36086482
161	0x3d88af4f	0.066740625
162	0x3e9a72be	0.30165666
163	0x3f6887ac	0.9083202
164	0x3f1092f3	0.56474227
165	0x3ef0a01f	0.46997163
166	0x3d904bbe	0.07045697
167	0xbdfb798c	-0.122790426
168	0xbe89ed44	-0.26938832
169	0x3ec4f801	0.38470462
170	0xbecf0a67	-0.40437624
171	0xbea3903c	-0.3194598
172	0x3f2cd9b4	0.6751969
173	0x3df7648a	0.12079723
174	0x3f3b98b8	0.73279905
175	0xbdf6b171	-0.12045563
176	0xbda62834	-0.08113137
177	0x3f552ba5	0.8326972
178	0xbc203a61	-0.009779544
179	0xbf135050	-0.5754442
180	0xbedb2fbd	-0.4280986
181	0xbed55dea	-0.41673213
182	0x3e218099	0.15771712
183	0x3ed3e7bd	0.4138774
184	0x3e4a5005	0.19757088
185	0x3e05d2ff	0.1306877
186	0xbe634b35	-0.22196658
187	0xbd5e13a0	-0.054217935
188	0x3e986878	0.29767203
189	0x3e1d7a25	0.15378626
190	0xbd833663	-0.06406858
191	0x3fa5866e	1.293165
192	0xbf728c8d	-0.94745713
193	0xbf33f452	-0.7029468
194	0xbf1d089d	-0.6134127
195	0x3edce259	0.4314144
196	0xbe9ffcd2	-0.31247574
197	0x3e8c3541	0.2738438
198	0xbe4c39e4	-0.19943959
199	0xbe4aae2d	-0.19793005
200	0xbf09c2aa	-0.5381266
201	0xbcf8bbea	-0.030363042
202	0x3eb032bd	0.3441371
203	0x3e6b1922	0.22958806
204	0x3ea1705b	0.31531033
205	0xbf06f3d9	-0.5271583
206	0xbeb7632f	-0.3581786
207	0xbdf5c795	-0.12000958
208	0xbf23f7ca	-0.6404997
209	0xbed8ad26	-0.42319602
210	0xbe23fa58	-0.16013467
211	0x3f6d397d	0.92665845
212	0xbea24e0f	-0.3170018
213	0x3f0940ef	0.53614706
214	0x3e4e8924	0.20169502
215	0xbe7b7036	-0.24554524
216	0xbe00ede9	-0.12590756
217	0x3ef6e3fb	0.4822081
218	0xbe85638e	-0.26052517
219	0xbea92109	-0.33033016
220	0x3f54c0d7	0.8310675
221	0x3e18c2ef	0.14918111
222	0xbddc5353	-0.1075808
223	0xbe56dbf4	-0.20982343
224	0xbe92af4e	-0.28649372
225	0xbbfcd52d	-0.007715842
226	0xbf0ea4ab	-0.55720013
227	0xbda12e46	-0.07870154
228	0xbeb01bd5	-0.34396234
229	0xbe4c5792	-0.1995528
230	0xbe884638	-0.26616073
231	0x3d0e9520	0.034810185
232	0xbeefc815	-0.46832338
233	0x3c412681	0.011788965
234	0x3f5cc426	0.862368
235	0x3eae6cbd	0.34067336
236	0xbf4cfbdc	-0.80071807
237	0xbdd5162a	-0.10404618
238	0xbe92e50b	-0.2869037
239	0xbebd971d	-0.37029353
240	0x3f026550	0.5093584
241	0xbf35aca7	-0.7096657
242	0xbe8fd188	-0.28089547
243	0x3ed2748f	0.41104552
244	0x3ecb1001	0.39660648
245	0x3e95a326	0.29226035
246	0xbe0bdd25	-0.13658579
247	0xbeb17caf	-0.3466544
248	0x3efe00ad	0.4960989
249	0xbf75d372	-0.96025765
250	0xbe6072ff	-0.21918868
251	0x3eb952ac	0.36195886
252	0x3f3b301a	0.7312027
253	0xbec684c6	-0.38773173
254	0xbcd26cc6	-0.025686633
255	0xbef997e0	-0.48748684

aggregator.1.weights.bias f4 [16]
0	0x3e9d916f	0.3077502
1	0xbef33533	-0.47501525
2	0x3ed35433	0.41275176
3	0xbe965b14	-0.29366362
4	0x3df9656d	0.121775486
5	0xbda6b35f	-0.08139681
6	0x3ec47bc0	0.38375664
7	0x3f0e9b21	0.5570546
8	0xbef41ce9	-0.47678307
9	0xbeb175c0	-0.3466015
10	0xbd3c3009	-0.045944247
11	0xbe5978cb	-0.21237485
12	0x3d125062	0.03572119
13	0xbc873a71	-0.01650736
14	0x3f40fb6f	0.7538366
15	0x3db6c226	0.089237496
