kgraph_models/model_node_8000_0.7586437475461327.pt (torch, 728580 bytes, 7 tensors)

usr.weight f4 [1872, 16]
0	0xbdd8ed16	-0.105920956
1	0x3e9e904f	0.30969474
2	0xbe256386	-0.16151246
3	0x3d880bf6	0.06642906
4	0xbe9e504d	-0.3092064
5	0xbe74ab5b	-0.23893492
6	0xbba78d8a	-0.0051133083
7	0x3e843da7	0.25828287
8	0x3de6611b	0.1124899
9	0x3d940da8	0.07229167
10	0x3e4a2b4f	0.19743083
11	0x3e37c524	0.17946297
12	0xbe8e83db	-0.27834973
13	0xbbf8fae0	-0.007598266
14	0x3d932f9d	0.07186816
15	0xbe56778b	-0.2094404
16	0x3db79607	0.08964162
17	0xbe02922c	-0.12751073
18	0x3dd211da	0.10257311
19	0xbddb6b65	-0.10713843
20	0x3d6f5d55	0.058438618
21	0xbd06f1fd	-0.03294562
22	0x3dd6c7e0	0.10487342
23	0x3dfe1567	0.12406426
24	0xbdebd065	-0.115143575
25	0xbdeda4dc	-0.1160371
26	0x3b9e47b0	0.004830323
27	0xbdbd124c	-0.092320055
28	0x3db90bdc	0.09035465
29	0xbd23b682	-0.039968975
30	0x3dfa9511	0.122354634
31	0x3dc7e634	0.09760705
32	0xbe21ef8a	-0.15814033
33	0x3e69d01f	0.22833298
34	0xbe9a8719	-0.30181196
35	0x3e7f5ebc	0.24938482
36	0xbc9bfe77	-0.019042237
37	0x3bad31ef	0.0052854936
38	0xbe6e97e1	-0.23300125
39	0x3d94b7b5	0.07261602
40	0x3eed475c	0.46343505
41	0x3f01182a	0.50427496
42	0x3d38dc2a	0.04513184
43	0xbdef0182	-0.116702095
44	0x3dc8011e	0.09765838
45	0x3eb6e070	0.35718107
46	0xbe44b60f	-0.19210075
47	0x3ba44252	0.005012789
48	0xbe7386d9	-0.23781909
49	0x3e1cbe50	0.15306973
50	0xbe8cb680	-0.27482986
51	0x3da0c3eb	0.078498684
52	0xbe544ea4	-0.20733124
53	0x3e2e039c	0.16993564
54	0xbecbf041	-0.39831737
55	0xbf311c9a	-0.6918427
56	0xba0619cc	-0.00051155384
57	0xbdf29a72	-0.11845864
58	0x3db55fcf	0.08856165
59	0x3ec5b05c	0.38611114
60	0xbda400b2	-0.08007945
61	0x3e5792fa	0.21052161
62	0xbf1e7613	-0.61898917
63	0x3ea24e4c	0.3170036
64	0xbdc68399	-0.09693069
65	0xbd3b9acc	-0.045801923
66	0xbd92d6a7	-0.07169848
67	0x3c80fb4b	0.015744826
68	0xbeff9fbb	-0.49926552
69	0xbeb97195	-0.3621947
70	0x3e16e593	0.14736013
71	0x3ddbcf47	0.107328944
72	0xbca61834	-0.020275213
73	0xbe6d9a8b	-0.23203485
74	0x3ec767d2	0.38946396
75	0x3ea5a660	0.32353497
76	0xbed64343	-0.41848192
77	0xbe084bd2	-0.13310173
78	0xbe01ed0e	-0.12688085
79	0x3e345079	0.17608823
80	0xbe8765e5	-0.26444927
81	0x3ec6726f	0.3875918
82	0xbe885b47	-0.2663214
83	0x3e35db42	0.17759421
84	0x3c562060	0.013069242
85	0x3c6c7647	0.014432496
86	0xbe08f350	-0.13374066
87	0xbef28efc	-0.47374713
88	0x3d271758	0.040793747
89	0x3d61efce	0.055160336
90	0x3d25e0ad	0.04049747
91	0x3db5b771	0.08872879
92	0x3cfd3093	0.030906951
93	0x3d45f2c3	0.04832722
94	0xbf00b452	-0.50275147
95	0xbe17755a	-0.1479086
96	0xbec8c554	-0.3921305
97	0x3daa983b	0.08329817
98	0xbdacbd24	-0.08434513
99	0x3e2e25c7	0.17006598
100	0x3d643e53	0.0557235
101	0xbdff70ae	-0.12472664
102	0xbe2ca364	-0.16859204
103	0xbe3e4202	-0.18579867
104	0x3db96f56	0.09054439
105	0x3e503202	0.20331576
106	0x3deeeda0	0.11666417
107	0x3e053c8e	0.13011381
108	0x3e1e0347	0.15430938
109	0x3e111668	0.14168704
110	0xbd8b7af9	-0.068105645
111	0x3d53a916	0.051674925
112	0xbe3c8e05	-0.18413551
113	0x3e45e044	0.19323832
114	0xbe353bd7	-0.17698608
115	0x3e515a83	0.20444684
116	0xbe01b6af	-0.12667345
117	0xbea263c0	-0.31716728
118	0xbe1a3404	-0.15058905
119	0x3c66fcf5	0.014098396
120	0x3e0d7129	0.13812698
121	0x3e3652d9	0.17805041
122	0x3e9627ed	0.29327336
123	0xbd6a9431	-0.057270233
124	0x3c27fe1c	0.0102534555
125	0x3e2d87a1	0.1694627
126	0xbe3c46a1	-0.18386318
127	0x3d30b1f8	0.043138474
128	0xbe5d8d2b	-0.21635883
129	0x3e8d45a7	0.27592203
130	0xbe4e5979	-0.20151319
131	0x3e77ff64	0.24218518
132	0xbe6b77fe	-0.22994992
133	0xbd8e836f	-0.06958663
134	0xbe2826b3	-0.16421013
135	0xbe5d5dc5	-0.21617801
136	0x3e6452ba	0.22297183
137	0x3e3a69db	0.18204443
138	0x3e0fca7a	0.14042082
139	0x3e4cafce	0.19988939
140	0xbe88e400	-0.2673645
141	0xbb76f0eb	-0.003768022
142	0xbe475f00	-0.19469833
143	0xbdde545c	-0.10855934
144	0xbe89cedb	-0.2691563
145	0x3e853468	0.26016545
146	0xbe830e2d	-0.25596753
147	0x3e8ba097	0.27270958
148	0xbe22692f	-0.15860437
149	0xbe05a74e	-0.13052103
150	0xbe8e17d1	-0.27752545
151	0xbe3a7e51	-0.18212248
152	0x3e065087	0.13116656
153	0x3e15cc5d	0.1462874
154	0x3e68ae3b	0.22722714
155	0x3e0ddb6b	0.13853233
156	0xbe08ca3e	-0.133584
157	0x3e32b6d9	0.17452563
158	0xbe8675b8	-0.26261687
159	0xbde4bbe3	-0.11168649
160	0xbe2531a9	-0.16132225
161	0x3e62c411	0.22145106
162	0xbe4f9747	-0.20272551
163	0x3e4494c2	0.19197372
164	0xbbc52150	-0.006015934
165	0xbc949d60	-0.018141448
166	0xbe714ccc	-0.23564452
167	0xbda8c11a	-0.08239956
168	0x3e54e190	0.2078917
169	0x3e949b06	0.29024523
170	0x3dbd1191	0.09231866
171	0xbdd9fddb	-0.10644122
172	0x3d1f3a73	0.0388741
173	0x3e873eeb	0.2641519
174	0xbe5aef7c	-0.21380419
175	0x3c909147	0.017647399
176	0xbe9a3a33	-0.30122527
177	0x3ebfaecc	0.37438047
178	0xbea0591e	-0.3131799
179	0x3eb976e2	0.36223513
180	0x3da3fb97	0.08006971
181	0xbdd02d80	-0.101649284
182	0xbee497cd	-0.44647065
183	0xbe947063	-0.28991994
184	0x3e3490e0	0.1763339
185	0x3e130adf	0.14359616
186	0x3e4a5631	0.19759442
187	0x3d1bcb43	0.038035642
188	0xbd2f175f	-0.042746898
189	0x3e9c04c9	0.304724
190	0xbf1656ad	-0.58726007
191	0xbd7978df	-0.060906287
192	0xbdaaadd1	-0.08333934
193	0x3df571eb	0.11984619
194	0xbe4e7927	-0.20163403
195	0x3e04e1af	0.12976716
196	0xbef226d3	-0.47295246
197	0xbe51bca8	-0.20482123
198	0xbd5b8c04	-0.053600326
199	0x3e4f0eff	0.20220564
200	0x3e62e0cb	0.22156064
201	0x3e02827e	0.12745091
202	0x3e207326	0.15668926
203	0x3e360340	0.17774677
204	0xbecf8cf5	-0.4053723
205	0xbe42ffc2	-0.19042876
206	0x3d5694a3	0.052387845
207	0xbe4d785b	-0.20065443
208	0xbea1690f	-0.31525466
209	0x3e55145c	0.20808548
210	0xbe1331cc	-0.14374465
211	0x3e8ff48d	0.28116265
212	0xbe4efcb8	-0.20213592
213	0xbde79dba	-0.11309381
214	0xbea60b42	-0.32430464
215	0xbe4c545e	-0.19954059
216	0xbd90ee71	-0.07076729
217	0xbdf4eee4	-0.11959627
218	0x3e721ced	0.23643847
219	0x3eddc258	0.43312335
220	0xbede058a	-0.433636
221	0xbdb2df53	-0.08734002
222	0xbef71ea7	-0.48265573
223	0x3e42646c	0.1898362
224	0xbd6d5ec8	-0.05795172
225	0x3d7340a4	0.059387818
226	0xbd2a2357	-0.04153761
227	0x3d969f32	0.07354583
228	0xbe4033d2	-0.18769768
229	0xbe81abff	-0.25326535
230	0xbe3793e4	-0.1792751
231	0xbed141d3	-0.40870532
232	0xbe414858	-0.18875253
233	0xbccc2977	-0.024922116
234	0xbd8dd265	-0.06924895
235	0x3e372a1b	0.17887156
236	0xbd9dfc63	-0.077141546
237	0x3bdd0a70	0.006745629
238	0xbdfebb5b	-0.12438079
239	0xbb8ce7c5	-0.00430009
240	0xbe3c717e	-0.18402669
241	0x3e8e922d	0.27845898
242	0xbe3dba76	-0.1852816
243	0x3e6ca855	0.23111089
244	0xbe065329	-0.1311766
245	0xbd48486b	-0.04889719
246	0xbe4906a4	-0.1963144
247	0xbe998510	-0.2998433
248	0x3e3da4cb	0.18519895
249	0x3e56c33a	0.2097291
250	0x3da42fdd	0.08016942
251	0x3e2827bd	0.16421409
252	0xbe12d369	-0.14338459
253	0x3dbe6531	0.092966445
254	0xbe7fb556	-0.24971518
255	0xbe448b02	-0.19193652

ent.weight f4 [9367, 16]
0	0x00000000	0.0
1	0x00000000	0.0
2	0x00000000	0.0
3	0x00000000	0.0
4	0x00000000	0.0
5	0x00000000	0.0
6	0x00000000	0.0
7	0x00000000	0.0
8	0x00000000	0.0
9	0x00000000	0.0
10	0x00000000	0.0
11	0x00000000	0.0
12	0x00000000	0.0
13	0x00000000	0.0
14	0x00000000	0.0
15	0x00000000	0.0
16	0x3cc9dc8b	0.024641296
17	0x3dcd48f4	0.1002368
18	0xbdc4f0b9	-0.09616227
19	0xbe074f3c	-0.1321382
20	0x3dfb31f4	0.12265387
21	0xbdd4ec94	-0.10396686
22	0x3daec3f9	0.085334726
23	0xbd358924	-0.04432024
24	0xbd953c7b	-0.07286926
25	0xbd787ca5	-0.060665745
26	0xbba904cd	-0.005158043
27	0x3d1d83ce	0.038455777
28	0x3debf2e3	0.11520936
29	0xbdd65e91	-0.10467256
30	0xbda94751	-0.08265556
31	0xbe0e55f4	-0.13899976
32	0x3b9bd921	0.0047561084
33	0xbc2476ca	-0.010038087
34	0x3ceef9da	0.029171873
35	0x3cebc727	0.028781487
36	0xbd1cf988	-0.03832391
37	0x3d08b1b0	0.03337258
38	0xbc1aa236	-0.009438088
39	0x3b9e3124	0.0048276354
40	0xbb1d372f	-0.002398919
41	0x3c2a9071	0.010410414
42	0x3cb5e343	0.022203093
43	0x3aff3120	0.0019469596
44	0x3c709683	0.014684322
45	0x3c60c273	0.013718235
46	0xbce4185e	-0.02784365
47	0x3c2c07b3	0.0104998825
48	0x3d09348f	0.03349739
49	0x3c7c5688	0.01540149
50	0x3a6b869d	0.00089845975
51	0xbc06adfa	-0.00822019
52	0x3c899c3f	0.016798137
53	0xbb937d7a	-0.004501042
54	0xbce35180	-0.027748823
55	0x3cc41df8	0.023940071
56	0xbb6c9833	-0.003610146
57	0x3ce6a300	0.028153896
58	0xbc58f0fc	-0.013241049
59	0xbcde0d6f	-0.027106015
60	0xbbe5a2d8	-0.007007938
61	0x3c81e6cc	0.015857123
62	0x3c051f1f	0.008125096
63	0x3bf163e6	0.007366645
64	0xbc819a28	-0.015820578
65	0xbbdd1c0f	-0.0067477296
66	0xba9e319a	-0.0012069226
67	0x3ac35c0a	0.0014904749
68	0xbbb14a55	-0.0054104724
69	0xbb367d5c	-0.0027845716
70	0x3c1f073f	0.009706317
71	0x3b84b83e	0.0040502837
72	0xbbb0cea8	-0.005395729
73	0xbc8223a6	-0.01588614
74	0x3c5a3976	0.013319364
75	0x3c988d3d	0.018622035
76	0xb90f6090	-0.00013673515
77	0xbaf0d0d6	-0.0018372785
78	0xbc10d445	-0.0088396715
79	0xbc35d599	-0.011098289
80	0xbe0684e7	-0.13136636
81	0x3cf8e062	0.030380432
82	0xbd908ac0	-0.070577145
83	0xbd6a7cd6	-0.05724796
84	0xbe04f32f	-0.12983392
85	0x3d589644	0.05287768
86	0x3e1c64ca	0.15272823
87	0xbe12eb24	-0.14347512
88	0x3ddb26e9	0.10700781
89	0xbe1972b2	-0.14985159
90	0x3e0a64d5	0.13515027
91	0x3e24e050	0.16101193
92	0x3d99038b	0.07471379
93	0xbdf549db	-0.119769774
94	0xbccf7cd0	-0.02532807
95	0xbde1763e	-0.11008881
96	0xbc9b18b5	-0.01893268
97	0xbcd4cacd	-0.02597561
98	0x3ce49efb	0.027907839
99	0x3cce561f	0.02518755
100	0x3cf95693	0.03043679
101	0xbc7878e0	-0.015165538
102	0xbbd8e9ac	-0.0066196527
103	0x3bd3db55	0.0064653554
104	0xbcda16cc	-0.026622199
105	0x3c474d75	0.012164463
106	0xbcfbc746	-0.03073467
107	0x3afca1b3	0.0019274264
108	0xbce90956	-0.028446835
109	0x3c7b0f2e	0.015323443
110	0xbc034662	-0.008012386
111	0x3c6f84e0	0.014619082
112	0xbcbedde6	-0.023299169
113	0xbd3eddbe	-0.04659819
114	0x3ca5ef22	0.020255629
115	0x3d24817a	0.04016254
116	0xbc28f4af	-0.010312243
117	0xbb6b6605	-0.0035918963
118	0x3afe5e3e	0.0019406748
119	0x3a2bdb47	0.0006555807
120	0xbd4bc4b2	-0.04974813
121	0x3b616aad	0.003439586
122	0x3c231049	0.009952613
123	0x3c1da353	0.009621459
124	0xbbceee24	-0.0063150097
125	0xbaf50975	-0.0018694835
126	0xbd0553bb	-0.032550555
127	0x381c2f11	3.7237132e-05
128	0xbe16ee83	-0.14739423
129	0xbda9e012	-0.08294691
130	0xbb5d25e9	-0.003374452
131	0x3cd93939	0.026516544
132	0xbde0cf7a	-0.10977073
133	0x3d19dd24	0.03756441
134	0x3e25d595	0.16194756
135	0xbe183517	-0.14864002
136	0x3deac406	0.1146317
137	0xbe27a4c6	-0.1637145
138	0x3e1561ca	0.14588085
139	0x3e1baa05	0.15201576
140	0x3d0c82aa	0.0343043
141	0xbe233d04	-0.15941244
142	0xbdb8d131	-0.09024275
143	0xbe119da0	-0.14220285
144	0xbd210b78	-0.039317578
145	0xbda31bd5	-0.07964293
146	0x3d90cb70	0.070700526
147	0x3daacc78	0.083397806
148	0xbdb1d470	-0.08683097
149	0x3ce23701	0.027614119
150	0x3c2a826a	0.01040707
151	0xbc9f5002	-0.01944733
152	0xbc2593c7	-0.010106034
153	0xbc1d400e	-0.009597791
154	0x3c329304	0.010899309
155	0x3ccc38cd	0.024929428
156	0xbc34f01a	-0.011043573
157	0x3bf03d32	0.007331514
158	0xbd43f291	-0.04783875
159	0x3b740281	0.0037232938
160	0xbd541703	-0.05177976
161	0xbd6af2b0	-0.05736035
162	0x3ce4856a	0.027895648
163	0x3d082395	0.03323706
164	0xbd2dd9b2	-0.04244394
165	0xbaf8da6d	-0.0018985994
166	0x3c20620b	0.009789
167	0xbc920b26	-0.017827582
168	0x3b745a8f	0.0037285422
169	0xbc011712	-0.007879036
170	0x3b92561e	0.0044658324
171	0x3c99e135	0.018784145
172	0xbc515489	-0.012776502
173	0xb9aa5d4f	-0.00032494447
174	0xbcc13f88	-0.023589864
175	0x3abb7e90	0.0014304686
176	0xbc2e1438	-0.010624938
177	0xbb229b3e	-0.002481177
178	0xbb8a0380	-0.004211843
179	0xbc19f286	-0.009396201
180	0x374c8a10	1.2191493e-05
181	0xba528ee8	-0.0008032159
182	0x3ba64b66	0.005074906
183	0xbb886761	-0.0041627144
184	0xb840a907	-4.5933786e-05
185	0xbb474233	-0.0030404448
186	0x3a8377e3	0.0010030236
187	0x37c4c232	2.345545e-05
188	0x3aa16fa1	0.0012316593
189	0xbbc473d4	-0.005995253
190	0xbac181cd	-0.0014763415
191	0xbb8b2f3b	-0.0042475737
192	0xa406a827	-2.919905e-17
193	0x25be0e6c	3.296952e-16
194	0xa94b3803	-4.5123637e-14
195	0x252a3783	1.4763958e-16
196	0xa594deec	-2.5824965e-16
197	0x2529a5eb	1.4714629e-16
198	0x25f6e025	4.2826084e-16
199	0xa48fe356	-6.2401486e-17
200	0xa587e543	-2.357412e-16
201	0xa51b0252	-1.3444893e-16
202	0xa582a93e	-2.2666088e-16
203	0xa531cce7	-1.5421726e-16
204	0x25920324	2.532909e-16
205	0xa4f996e0	-1.0824213e-16
206	0xa434e448	-3.922464e-17
207	0x248848f6	5.91042e-17
208	0xbe2b4b0c	-0.16727847
209	0xbe13f2d2	-0.14448097
210	0x3dfb0988	0.12257677
211	0x3e0a44b8	0.13502777
212	0xbe164a0b	-0.14676683
213	0x3d15817e	0.036500446
214	0x3d5e4700	0.05426693
215	0xbd3eaf64	-0.046553984
216	0xbd200130	-0.039063632
217	0xbd75c725	-0.060004372
218	0x3ddb696c	0.10713467
219	0x3def9326	0.11697988
220	0x3ccfd507	0.025370134
221	0xbd4013a3	-0.046893727
222	0xbddfd48b	-0.10929211
223	0xbd49902b	-0.049209755
224	0xbd7c27f5	-0.061561543
225	0x3cb843fa	0.022493351
226	0xbd3b63c0	-0.045749426
227	0xbd282e24	-0.041059628
228	0xbd1a821b	-0.037721734
229	0x3c76b957	0.015058837
230	0x3d97e95a	0.07417555
231	0xbd756f0f	-0.059920367
232	0x3cfd083a	0.030887712
233	0xbd92e2fe	-0.071722016
234	0x3d71e407	0.059055354
235	0x3d941842	0.07231189
236	0x3cea854a	0.02862801
237	0xbd89836b	-0.06714519
238	0x3c2d2824	0.010568652
239	0xbd54b6b0	-0.051932037
240	0x3cea3541	0.028589847
241	0xbc4019c6	-0.011724895
242	0x3be510d7	0.006990533
243	0x3cc6dedc	0.02427619
244	0x3cce4ee0	0.025184095
245	0x3b3fd56d	0.0029271499
246	0xbd617409	-0.0550423
247	0x3d53ff8f	0.05175739
248	0xbc116456	-0.00887402
249	0x3d510e28	0.05103889
250	0xbd16c79e	-0.036811464
251	0xbd2a0f0e	-0.041518264
252	0xbd44f395	-0.04808386
253	0x3d4fd31e	0.050738446
254	0x3d34aae9	0.044108305
255	0x3d544b56	0.05182966

rel.weight f4 [61, 16]
0	0x00000000	0.0
1	0x00000000	0.0
2	0x00000000	0.0
3	0x00000000	0.0
4	0x00000000	0.0
5	0x00000000	0.0
6	0x00000000	0.0
7	0x00000000	0.0
8	0x00000000	0.0
9	0x00000000	0.0
10	0x00000000	0.0
11	0x00000000	0.0
12	0x00000000	0.0
13	0x00000000	0.0
14	0x00000000	0.0
15	0x00000000	0.0
16	0xbd8af0e3	-0.06784227
17	0xbe0baeb9	-0.1364087
18	0x3e21c0db	0.15796225
19	0xbe8a4d2b	-0.27012
20	0x3da34b97	0.07973402
21	0x3f000509	0.50007683
22	0xbe6bd931	-0.2303207
23	0xbec32d9d	-0.38120738
24	0xbeae4654	-0.3403803
25	0xbf0e402c	-0.5556667
26	0xbea4eb2b	-0.3221067
27	0x3eba8f02	0.3643723
28	0xbe1c3634	-0.15255052
29	0xbdb8cf02	-0.090238586
30	0xbf89220a	-1.0713513
31	0x3f01b408	0.5066533
32	0x3ccafc23	0.024778431
33	0x3ed17ed7	0.40917084
34	0x3d537e8b	0.051634353
35	0x3e9015c1	0.28141597
36	0xbea47789	-0.32122448
37	0xbe83f81a	-0.25775224
38	0x3f072aeb	0.5279986
39	0x3d38779c	0.045035943
40	0xbe682442	-0.22670081
41	0x3d59d745	0.053183813
42	0xbd8fd8c1	-0.070237644
43	0x3f24b96f	0.6434545
44	0xbe8de7dc	-0.27715957
45	0xbf1b0be4	-0.6056502
46	0x3e3fd6a4	0.18734223
47	0xbdedfc72	-0.11620416
48	0xbe091787	-0.13387881
49	0x3e24dca2	0.1609979
50	0xbd726820	-0.059181333
51	0xbeac3b6e	-0.3363909
52	0xbf854b11	-1.0413533
53	0x3f34b268	0.70584726
54	0xbeba612d	-0.36402264
55	0x3e5568ce	0.20840761
56	0x3dd5f1f2	0.10446538
57	0x3e50a8ae	0.20376846
58	0xbe6e959d	-0.2329926
59	0x3e88e590	0.26737642
60	0xbc068ff8	-0.008213036
61	0x3f05ccf1	0.5226584
62	0x3de467fb	0.11152645
63	0xbf1558f5	-0.5833886
64	0xbba181ad	-0.0049287886
65	0x3dace106	0.08441357
66	0x3e256bcc	0.16154402
67	0x3c7af3a8	0.015316881
68	0x3dd85d84	0.10564712
69	0x3cd67abf	0.026181577
70	0xbe2e2797	-0.1700729
71	0xbe8b13fc	-0.27163684
72	0xbd89d55d	-0.06730149
73	0xbdd9fca9	-0.10643894
74	0x3e6c00de	0.23047206
75	0x3d02706a	0.031845488
76	0x3e43975e	0.19100711
77	0x3dc4a0d5	0.09600989
78	0xbe20c2e7	-0.1569935
79	0xbdadc36f	-0.084845416
80	0xbe1ede3f	-0.15514468
81	0xbf81109a	-1.0083191
82	0xbee1fab1	-0.44136575
83	0x3dd25780	0.102705956
84	0xbeb6e67c	-0.3572272
85	0xbf0f025d	-0.5586298
86	0xbf289c2d	-0.65863305
87	0x3d976f59	0.07394285
88	0xbecca28c	-0.39967763
89	0x3ddb1320	0.10697007
90	0x3d876045	0.06610159
91	0xbfb5eaae	-1.4212244
92	0xbed00067	-0.40625307
93	0x3ee97145	0.4559423
94	0x3e2ffea7	0.17186986
95	0x3f0e843f	0.5567054
96	0x3b8d04a6	0.0043035327
97	0x3a92cfb1	0.0011200813
98	0xba911346	-0.0011068366
99	0x398db6dc	0.00027029857
100	0x39da491e	0.00041634677
101	0x3a65b552	0.00087626756
102	0x39fb580e	0.00047940057
103	0xbb9a5c4f	-0.004710711
104	0xbbf8a050	-0.00758747
105	0xbb4df65e	-0.0031427364
106	0xbb94bcd4	-0.0045391116
107	0x3b0a6cbd	0.0021121942
108	0xbbb82632	-0.0056197876
109	0xbb94f4f6	-0.004545803
110	0x3b04629f	0.0020200384
111	0xbb283f77	-0.0025672594
112	0xbb8d049d	-0.0043035285
113	0xba92ce41	-0.0011200384
114	0x3a91124e	0.0011068077
115	0xb98db6a7	-0.00027029702
116	0xb9da496c	-0.00041634904
117	0xba65b4a8	-0.00087625766
118	0xb9fb5827	-0.0004794013
119	0x3b9a5c34	0.0047106985
120	0x3bf8a03b	0.0075874603
121	0x3b4df631	0.003142726
122	0x3b94bcb8	0.0045390986
123	0xbb0a6c8c	-0.0021121828
124	0x3bb82a6c	0.0056202915
125	0x3b94f3a7	0.004545647
126	0xbb04626d	-0.0020200268
127	0x3b283f76	0.0025672591
128	0xbd0650da	-0.03279195
129	0x3c489dc9	0.01224465
130	0xbc5744d1	-0.013138966
131	0x3c8ae559	0.016955065
132	0x3d36465a	0.044500686
133	0xbc3197f8	-0.010839455
134	0xbc501383	-0.012699964
135	0xbbff06b9	-0.007782784
136	0x3ca77e52	0.020445976
137	0x3cb127b1	0.021625372
138	0xbba2ff87	-0.004974309
139	0xbcdba02b	-0.026809772
140	0x3cd1b423	0.025598591
141	0x3cf60594	0.030031957
142	0x3d2c052b	0.041997116
143	0xbba78cec	-0.0051132347
144	0xbc1eaa1b	-0.009684111
145	0x3c053c83	0.008132103
146	0xbcc4a260	-0.024003208
147	0xbc08be6b	-0.00834618
148	0xbcee9203	-0.029122358
149	0xbce34a5d	-0.02774542
150	0x3b5cc026	0.0033683865
151	0x3d08294d	0.033242512
152	0xbc138a49	-0.009005138
153	0xbac834e8	-0.0015274556
154	0x3b953b7c	0.00455421
155	0x3cbb64dd	0.022875244
156	0x3c58907a	0.01321804
157	0x38d11424	9.969648e-05
158	0x3b4fbe32	0.0031699059
159	0x3cb9faaa	0.022702534
160	0xbe9b0b31	-0.30281976
161	0x3e08074c	0.13284034
162	0x3dff3c9e	0.12462734
163	0x3e0e3780	0.13888359
164	0x3e850a0e	0.25984234
165	0xbe3262ee	-0.17420551
166	0x3d2a7dcd	0.04162388
167	0x3eb414c8	0.35172105
168	0x3e842b5b	0.25814328
169	0x3f0e5cd4	0.55610394
170	0x3e977cb0	0.29587317
171	0xbc653ad0	-0.013991073
172	0x3e3e2a20	0.18570757
173	0x3dd843b9	0.10559792
174	0xbef550e9	-0.47913292
175	0xbe130746	-0.14358243
176	0xbd1179d8	-0.03551659
177	0xbc6a9a7d	-0.014319059
178	0xbd24b50d	-0.040211726
179	0x3d16c587	0.03680947
180	0x3d5d6af8	0.05405709
181	0xbd571c25	-0.052517075
182	0xbd4c265b	-0.049841266
183	0x3c12dfb0	0.008964464
184	0xbcd53d86	-0.026030313
185	0x3b8bd375	0.004267151
186	0x3d42f180	0.047593594
187	0xbd3316bf	-0.043722864
188	0x3d75276e	0.059852056
189	0x3d64d779	0.055869553
190	0x3d1741a4	0.036927834
191	0x3cd68527	0.026186539
192	0xbd14b4d2	-0.036305256
193	0xbc682678	-0.014169328
194	0x3e09b0b4	0.13446313
195	0xbd6a3d14	-0.057187155
196	0x3cb575ea	0.022150952
197	0xbde9b9a1	-0.11412359
198	0xbc4af6c4	-0.012387935
199	0x3dd5fa2f	0.10448109
200	0xbe4bd481	-0.19905283
201	0xbe3d03dc	-0.18458503
202	0x3d1350f0	0.03596586
203	0x3d951f77	0.07281392
204	0xbd19ae2a	-0.03751961
205	0xbda13948	-0.07872254
206	0x3d67321f	0.056444284
207	0x3ae1f329	0.0017238605
208	0xbe8bc269	-0.2729676
209	0x3e508d0e	0.20366308
210	0xbe3aaeb8	-0.18230712
211	0x3e2e7979	0.17038526
212	0xbe406de2	-0.18791917
213	0xbe148ad7	-0.14506088
214	0xbe02afd4	-0.12762386
215	0xbd4114dc	-0.047139034
216	0x3d199168	0.037492186
217	0x3df21b6e	0.11821638
218	0x3e52d88e	0.20590422
219	0x3c989a54	0.018628277
220	0xbda4605d	-0.08026192
221	0x3d092bca	0.033489026
222	0xbe28a8aa	-0.1647059
223	0x3c45a9d1	0.012064413
224	0x3d027601	0.03185082
225	0xbd237d3c	-0.039914355
226	0xbc956695	-0.018237391
227	0xbd1597e4	-0.036521807
228	0xbd2651d4	-0.04060538
229	0xbcf63971	-0.030056687
230	0x3d8200e2	0.06347825
231	0x3d8a282f	0.06745946
232	0x3d75eb0f	0.060038622
233	0x3cb5208b	0.022110244
234	0x3b87c413	0.004143247
235	0x3b66af83	0.0035199828
236	0xbc83ecf4	-0.016104199
237	0xbac016bf	-0.0014655216
238	0x3dabf510	0.08396351
239	0xbd85ed0b	-0.06539353
240	0x3bd26a6a	0.006421377
241	0x3c264e3b	0.010150488
242	0x3d55305c	0.052048072
243	0xbc82b0e2	-0.015953485
244	0x3d2849ed	0.041086126
245	0x3bdef81e	0.00680448
246	0x3c8f7743	0.017512923
247	0xbcdb3357	-0.02675788
248	0xbc8522a8	-0.016251877
249	0xbcb14bb9	-0.021642553
250	0xbd17df53	-0.037078213
251	0xbd6e671e	-0.05820381
252	0x3d634af6	0.05549141
253	0xbb1a0186	-0.0023499443
254	0x3c26cd94	0.01018085
255	0x3ccfbb40	0.025357842

aggregator.0.weights.weight f4 [16, 16]
0	0x3db7178c	0.08940038
1	0x3f2f63a5	0.6851142
2	0xbed368fc	-0.41291034
3	0xbf6651d7	-0.8996863
4	0x3f64382a	0.891482
5	0xbea8e163	-0.32984456
6	0x3eae51a9	0.34046677
7	0xbec20213	-0.37892208
8	0x3ec4f109	0.38465145
9	0xbf064754	-0.5245259
10	0xbf0e5a24	-0.55606294
11	0xbe844a53	-0.25837955
12	0x3dc5b1e1	0.09653068
13	0xbe3d771c	-0.18502468
14	0x3f2413b8	0.6409259
15	0xbdd578b7	-0.10423415
16	0x3f042577	0.51619667
17	0x3f4bc7d8	0.7960181
18	0xbf0c9a17	-0.5492262
19	0xbf251c7f	-0.64496607
20	0xbe9b4ffc	-0.3033446
21	0x3f11214e	0.56691444
22	0x3e49e38f	0.19715713
23	0xbd9c10d2	-0.07620396
24	0x3f00a1c8	0.5024686
25	0xbedbdc5a	-0.42941552
26	0x3e55e732	0.20888975
27	0x3db26f5a	0.08712645
28	0x3e8f5708	0.27996087
29	0xbe11886a	-0.14212194
30	0x3f936ede	1.1518209
31	0x3e6fc106	0.23413476
32	0x3ebd9697	0.37028953
33	0x3f0d62ed	0.55229074
34	0xbe09dc23	-0.13462882
35	0xbf0e2732	-0.5552856
36	0xbea1c7fb	-0.31597885
37	0xbe95a80e	-0.29229778
38	0x3f1076d1	0.564313
39	0xbcb0e0b3	-0.02159152
40	0x3e8fb435	0.28067175
41	0xbf10bd36	-0.5653871
42	0x3e709bb2	0.23496893
43	0xbc244440	-0.010026038
44	0x3eb6c2e5	0.35695568
45	0xbe958c6c	-0.29208696
46	0xbdf77fd8	-0.12084931
47	0xbed1fe97	-0.4101455
48	0xbf522a4a	-0.8209578
49	0xbf21d996	-0.63222635
50	0x3f0718b5	0.52772075
51	0x3ef3d5f5	0.47624174
52	0xbf386bc6	-0.7203945
53	0x3d16e2bf	0.036837336
54	0x3f530a94	0.82438016
55	0xbef66345	-0.48122612
56	0xbe3d1c4d	-0.18467827
57	0xbf410492	-0.753976
58	0x3d786a27	0.06064811
59	0x3f16e50d	0.58943254
60	0x3e52d402	0.20588687
61	0xbe2de4a9	-0.16981758
62	0xbf1fe2cb	-0.62455434
63	0xbe729dce	-0.2369301
64	0x3ef719f7	0.48261997
65	0x3de42939	0.11140675
66	0x3db3c57c	0.087779015
67	0xbf58c99a	-0.8468262
68	0x3e838d2c	0.25693643
69	0xbf2d667d	-0.6773451
70	0x3e9c6dad	0.30552426
71	0xbebedd12	-0.37278038
72	0xbe36f965	-0.17868574
73	0xbebd5e75	-0.36986127
74	0xbf5a1513	-0.85188407
75	0xbcad083f	-0.021122096
76	0x3f146d94	0.579797
77	0xbd9b12c9	-0.07571942
78	0xbf26986f	-0.65076345
79	0xbf0ec519	-0.557695
80	0xbf238c92	-0.6388637
81	0xbec800aa	-0.39063007
82	0x3e1cc511	0.1530955
83	0x3daa3f57	0.08312862
84	0xbe48bebc	-0.1960401
85	0xbe400ac8	-0.18754113
86	0x3ed9b71b	0.4252251
87	0xbebe3bf0	-0.37155104
88	0x3e13e91f	0.14444397
89	0xbef08b92	-0.46981484
90	0x3e1539bc	0.14572805
91	0x3ea5c5ad	0.32377377
92	0xbe7c3bfa	-0.24632254
93	0xbe7d80f2	-0.2475622
94	0xbda1b7e4	-0.078964025
95	0xbdaa0381	-0.083014496
96	0xbe3a3a22	-0.18186238
97	0x3d917bd1	0.07103694
98	0xbe0d905a	-0.13824597
99	0xbea2d1af	-0.318006
100	0xbdac5214	-0.08414093
101	0x3c993371	0.018701287
102	0x3ea9b771	0.33147767
103	0x3d68c1ec	0.056825563
104	0x3e218a84	0.15775496
105	0xbecc8f3a	-0.39953023
106	0x3eeed291	0.46645024
107	0x3ea2f1d2	0.3182512
108	0x3d84fe83	0.06493857
109	0xbeb6669c	-0.3562516
110	0x3d9cc5f0	0.07654941
111	0xbe26b06a	-0.16278234
112	0x3f3e0ffc	0.7424314
113	0x3e2890ee	0.16461536
114	0xbe598791	-0.2124312
115	0xbed339e7	-0.41255113
116	0x3e7a026d	0.24414988
117	0x3dfa33b4	0.12216893
118	0xbe2cee3d	-0.16887756
119	0x3e43727d	0.19086643
120	0xbdb97d98	-0.09057158
121	0xbd61fa92	-0.055170603
122	0x3eccf2b4	0.40028918
123	0xbe73741a	-0.23774758
124	0x3f135e71	0.5756598
125	0xbeb18fbb	-0.3467997
126	0xbd1eb7b9	-0.03874943
127	0xbedd1f06	-0.43187732
128	0xbeef4931	-0.46735528
129	0x3e90bf5f	0.28271005
130	0xbf5e41f9	-0.86819416
131	0xbda87409	-0.08225257
132	0x3f50d8fa	0.8158108
133	0xbe6d9596	-0.23201594
134	0x3e1aca15	0.1511615
135	0x3f1ed772	0.62047493
136	0xbe383487	-0.17988788
137	0xbf0522ec	-0.5200641
138	0xbc572149	-0.013130494
139	0xbdb55995	-0.08854977
140	0xbf46036d	-0.7734898
141	0xbef3ced8	-0.47618747
142	0x3f3a08d7	0.7266974
143	0x3e8fcd57	0.2808635
144	0xbe0e7bbd	-0.1391439
145	0x3e9f850d	0.31156197
146	0xbe27fbf9	-0.16404714
147	0x3e91d41d	0.28482142
148	0xbf581f52	-0.8442279
149	0x3f05ad83	0.5221788
150	0x3f083ad7	0.5321478
151	0xbd9595cc	-0.07303962
152	0x3f3b1b2a	0.73088324
153	0xbf366709	-0.7125097
154	0x3f0deaf7	0.5543665
155	0x3f1693f0	0.58819485
156	0x3dc186b1	0.094495185
157	0xbe80d309	-0.25161007
158	0x3ea38199	0.31934813
159	0x3d7c91d1	0.0616625
160	0x3f1f95ab	0.6233775
161	0x3dcdb3d7	0.10044067
162	0x3ea60509	0.32425717
163	0x3ece51b4	0.4029671
164	0xbe385c78	-0.18004024
165	0x3f221b3d	0.6332281
166	0xbf16259f	-0.58651155
167	0x3d63dd5a	0.05563102
168	0x3e820065	0.25390926
169	0x3d85cbbe	0.06533001
170	0xbd8397de	-0.06425451
171	0xbeb39290	-0.35072756
172	0xbe06718b	-0.1312925
173	0x3f3d8444	0.74029946
174	0xbb1c7190	-0.00238714
175	0x3ed1cbc0	0.4097576
176	0x3f035dc4	0.5131495
177	0x3edc2246	0.429949
178	0x3e394d32	0.18095854
179	0x3de05bd6	0.10955016
180	0x3eb077dd	0.34466448
181	0xbef0a70a	-0.4700244
182	0xbeb7d3bc	-0.35903728
183	0x3f529e84	0.82273126
184	0xbf00c6d5	-0.50303394
185	0x3ed6b93f	0.41938207
186	0xbeb4a414	-0.35281432
187	0xbde95e21	-0.11394907
188	0xbe7bd7b1	-0.24593998
189	0x3e845176	0.258434
190	0xbb100aa0	-0.002197899
191	0x3eba7e73	0.36424598
192	0xbf00c2a7	-0.50297016
193	0x3d0cfb82	0.034419544
194	0xbe888ef7	-0.26671574
195	0x3e0261a5	0.12732561
196	0x3f0e6044	0.5561564
197	0xbe010f7e	-0.12603566
198	0x3f5a68fe	0.85316455
199	0xbe9c18e4	-0.3048774
200	0xbf6040c3	-0.8759882
201	0xbf3ff3e3	-0.74981517
202	0x3f0d0ccf	0.5509767
203	0x3f16cb86	0.589043
204	0xbc92b9a9	-0.017910795
205	0xbf252aa6	-0.645182
206	0xbf1e92a9	-0.61942536
207	0xbe1fdea3	-0.15612273
208	0xbd69a927	-0.057046082
209	0x3ef6710d	0.48133126
210	0xbea8471e	-0.32866758
211	0xbea93eb6	-0.33055657
212	0xbe0c6688	-0.13710988
213	0x3e3bf51e	0.18355224
214	0x3f0af892	0.5428554
215	0xbed54d08	-0.41660333
216	0x3f053b4f	0.5204362
217	0xbee24ebc	-0.44200695
218	0x3e4b12f3	0.19831447
219	0x3f09ef0d	0.5388039
220	0x3dc3437c	0.09534356
221	0xbed14037	-0.40869305
222	0x3eb964ed	0.36209813
223	0xbd7625c0	-0.060094595
224	0x3d971e0f	0.0737878
225	0x3ebcaa72	0.3684879
226	0xbde78a7f	-0.11305713
227	0xbf127bfa	-0.57220423
228	0xbdba950a	-0.09110458
229	0x3c4c5e0e	0.012473596
230	0x3f0da62b	0.5533168
231	0xbea3fd7c	-0.3202933
232	0x3e07403a	0.13208094
233	0xbf424d61	-0.7589932
234	0x3e76b09a	0.24090806
235	0x3e9bc868	0.30426335
236	0x3e10154f	0.14070629
237	0xbeaa5d4c	-0.33274305
238	0xbe325d5b	-0.17418425
239	0xbf13038c	-0.5742729
240	0x3f9e94e9	1.2389194
241	0x3f3833b0	0.7195387
242	0xbf14bf7b	-0.58104676
243	0xbf12e656	-0.57382715
244	0x3e9dad0c	0.30796087
245	0x3ef9330b	0.48671755
246	0x3dc9dcbe	0.09856556
247	0x3f0f421a	0.5596024
248	0xbf151493	-0.5823452
249	0xbdd772f3	-0.10519972
250	0x3f6e5f0d	0.93113786
251	0x3d0aa8b7	0.033852305
252	0x3f5f087b	0.87122315
253	0xbf1cd3a4	-0.6126044
254	0xbe9811ae	-0.2970099
255	0xbf1e6650	-0.61874866

aggregator.0.weights.bias f4 [16]
0	0x3e792fd1	0.24334647
1	0x3e463c8c	0.19359034
2	0xbd8d663b	-0.069042645
3	0x3ebc338a	0.3675807
4	0x3e93855d	0.28812686
5	0x3e4e9bca	0.20176616
6	0xbe3bf18e	-0.18353865
7	0x3e151a55	0.14560826
8	0x3e9625ac	0.29325616
9	0x3e3eb803	0.18624882
10	0x3f67e070	0.9057684
11	0x3f42df53	0.76122016
12	0x3dca9439	0.098915525
13	0x3b944e40	0.0045259297
14	0xbd61729a	-0.055040933
15	0x3e8639bf	0.26215932

aggregator.1.weights.weight f4 [16, 16]
0	0xbec3e6cc	-0.38262022
1	0xbc9695c8	-0.018381968
2	0xbf068ced	-0.52558786
3	0xbf159005	-0.5842288
4	0xbe9a2c99	-0.3011215
5	0xbe46e81e	-0.19424483
6	0xbe7e1295	-0.24811776
7	0xbeb3c6ae	-0.35112518
8	0x3e51ea0d	0.2049944
9	0xbdcc897f	-0.09987163
10	0x3f0d09ca	0.5509306
11	0x3f31904c	0.69360805
12	0xbf31081b	-0.6915299
13	0xbea48551	-0.32132962
14	0xbf14c703	-0.5811617
15	0xbe9ede66	-0.31029052
16	0x3d7ecdc4	0.062207952
17	0x3e92f0c9	0.2869933
18	0x3f226e79	0.6344982
19	0x3e1b86a6	0.15188083
20	0x3e05869e	0.13039634
21	0x3e1c21aa	0.15247217
22	0x3ef2fae9	0.47457054
23	0x3d792126	0.06082263
24	0xbec96084	-0.39331448
25	0x3ef9054f	0.48636863
26	0xbf3520f3	-0.707534
27	0xbf4e0d19	-0.80488735
28	0x3d2c2b6c	0.042033598
29	0x3f0ae179	0.54250294
30	0x3f003d7e	0.5009383
31	0x3eafa55a	0.3430584
32	0x3cdb60f0	0.026779622
33	0xbef9bad7	-0.4877536
34	0xbedd19b9	-0.43183687
35	0xbeda2b15	-0.42610994
36	0x3eaf06f3	0.3418499
37	0xbe968ff8	-0.29406714
38	0xbe4c76f3	-0.1996725
39	0xbe0c9931	-0.13730313
40	0xbe7d08ed	-0.24710436
41	0xbf4455cd	-0.7669342
42	0x3e88bc04	0.26705945
43	0x3f3db289	0.7410055
44	0xbeee8dbd	-0.46592513
45	0xbef2b953	-0.47407016
46	0xbf0cc36b	-0.54985684
47	0xbd362a1f	-0.044473764
48	0x3e031be2	0.12803605
49	0x3c2c2003	0.010505679
50	0x3f05888b	0.52161473
51	0x3f0d8680	0.55283356
52	0x3eccbf51	0.39989713
53	0x3e9c32e7	0.30507585
54	0x3ea0b36d	0.3138689
55	0x3ce43674	0.027857997
56	0xbe34c210	-0.17652154
57	0x3efd5cd1	0.49484876
58	0xbf278278	-0.65433455
59	0xbf316bce	-0.6930512
60	0x3ec68591	0.38773778
61	0x3ecd56af	0.40105197
62	0x3f1b2ce2	0.6061536
63	0xbe20e2bc	-0.15711492
64	0xbf89eab0	-1.0774746
65	0xbf2018ea	-0.62538016
66	0xbca66be0	-0.02031511
67	0x3e9bc038	0.3042009
68	0xbed8166f	-0.42204615
69	0xbdddb0f9	-0.108247705
70	0xbde599cd	-0.11210976
71	0xbebf6462	-0.37381274
72	0xbedc1a21	-0.42988685
73	0x3e5c484f	0.21511959
74	0x3eba873a	0.36431295
75	0x3f0392ed	0.51396066
76	0xbf5559ca	-0.8334013
77	0xbef8ede5	-0.48619
78	0xbe40d8b4	-0.18832666
79	0xbe17bbea	-0.14817777
80	0xbd48b129	-0.048997078
81	0x3d1531b5	0.036424357
82	0xbec575c2	-0.38566405
83	0xbf32c423	-0.6983053
84	0xbf77c158	-0.96779394
85	0x3da81a05	0.08208088
86	0xbcc16c08	-0.023611084
87	0xbef3c4ad	-0.4761099
88	0x3f747f4b	0.95506734
89	0x3e4706cc	0.19436187
90	0xbcb7e6de	-0.022448953
91	0x3ef52278	0.4787786
92	0x3c9c3bae	0.019071426
93	0xbd3d7ad5	-0.04625972
94	0xbef1440c	-0.47122228
95	0xbf218e7e	-0.6310805
96	0x3ed6285d	0.4182767
97	0x3d63194c	0.055444047
98	0xbedf2d4f	-0.43589255
99	0xbf2fc3b0	-0.6865797
100	0x3dc75f67	0.097349934
101	0xbeb8db50	-0.36104822
102	0xbeceb256	-0.40370435
103	0xbe06fdd7	-0.1318277
104	0xbe143ed7	-0.14477096
105	0xbee2b1a4	-0.44276154
106	0x3f07478f	0.52843565
107	0x3f3e9989	0.74453026
108	0xbf4dda75	-0.80411464
109	0xbe9edd31	-0.3102813
110	0xbecab3cb	-0.39590296
111	0xbe0604ef	-0.1308782
112	0xbe0cc332	-0.13746336
113	0x3df2fd67	0.11864739
114	0xbe1a3814	-0.15060455
115	0x3ebca0f5	0.3684155
116	0xbe62f82b	-0.22164981
117	0x3e536fed	0.20648165
118	0xbe8d8417	-0.2763984
119	0xbe96ae81	-0.2943001
120	0xbebd6201	-0.36988834
121	0x3ef9abc7	0.48763868
122	0x3f8b7ab8	1.0896826
123	0x3e9da478	0.30789542
124	0xbf0c5ab8	-0.54825926
125	0xbd54a38e	-0.05191379
126	0xbed87806	-0.4227907
127	0xbf7094e2	-0.9397718
128	0x3ee47968	0.44623876
129	0x3f1e4c9d	0.6183565
130	0xbe1c9db9	-0.15294541
131	0x3e3cf52f	0.18452905
132	0xbf0b6cb5	-0.5446275
133	0x3edc3f3d	0.43016997
134	0x3ec474df	0.38370416
135	0xbf02400b	-0.5087897
136	0x3f24ac8d	0.6432579
137	0x3f2a7f5c	0.66600585
138	0xbe8b0719	-0.27153853
139	0xbf0a902d	-0.54126245
140	0x3e6b6afc	0.2299003
141	0x3f19da29	0.6009851
142	0x3e92418f	0.28565642
143	0xbf296bdc	-0.66180205
144	0x3dd7df25	0.10540608
145	0x3ef62254	0.48073065
146	0xbd232607	-0.039831188
147	0x3f3f7eb9	0.7480274
148	0xbeae0e47	-0.33995268
149	0x3ed0b76a	0.40764934
150	0x3ea0686c	0.31329668
151	0xbef98bab	-0.4873937
152	0xbe848d11	-0.25888875
153	0x3f15ae8d	0.5846947
154	0xbe750344	-0.23927027
155	0xbf3bc679	-0.7334972
156	0x3e5c699f	0.21524666
157	0x3f37c108	0.7177892
158	0x3e1cd090	0.15313935
159	0xbf095409	-0.5364385
160	0x3ed6413d	0.41846648
161	0x3da94161	0.08264423
162	0x3eaaa950	0.333323
163	0x3f7c942f	0.9866361
164	0x3f2a6b01	0.66569525
165	0x3f0508c7	0.5196652
166	0x3d9dbaff	0.07701682
167	0xbe1b6169	-0.15173878
168	0xbe9be0ad	-0.30444852
169	0x3ed59d42	0.4172154
170	0xbeed2810	-0.46319628
171	0xbecf70e7	-0.40515825
172	0x3f3626ec	0.7115314
173	0x3e1bdc15	0.15220673
174	0x3f38006a	0.7187563
175	0xbe13de8e	-0.14440367
176	0xbdb88b24	-0.09010914
177	0x3f622b6c	0.88347507
178	0x3cbbfd58	0.022947952
179	0xbf2e43e1	-0.68072325
180	0xbf013c6c	-0.5048282
181	0xbf083d3d	-0.5321844
182	0x3e6d8ace	0.23197481
183	0x3f106f44	0.5641978
184	0x3e5c57c4	0.21517855
185	0x3db676b8	0.089093626
186	0xbe8f18ea	-0.27948695
187	0xbdc94e9e	-0.09829448
188	0x3ea5f441	0.32412913
189	0x3e2768f5	0.16348632
190	0xbd280375	-0.041018922
191	0x3fbebf49	1.4902126
192	0xbf8c1f73	-1.0947098
193	0xbf4cbf43	-0.7997934
194	0xbf207aa7	-0.6268715
195	0x3f0ebcbb	0.5575673
196	0xbe9f2b63	-0.3108779
197	0x3eb3d240	0.35121346
198	0xbe494635	-0.19655688
199	0xbe885411	-0.26626638
200	0xbf12b4e0	-0.57307243
201	0x3a865715	0.0010249341
202	0x3ed23c67	0.41061708
203	0x3e9858a0	0.29755116
204	0x3ec15498	0.37759852
205	0xbf086c8b	-0.53290623
206	0xbeabb1cc	-0.33534086
207	0xbe33fa66	-0.17575988
208	0xbf40216b	-0.7505099
209	0xbf03e7a1	-0.5152531
210	0xbe4cd468	-0.20002902
211	0x3f86e920	1.0539894
212	0xbebbcd87	-0.36680242
213	0x3f23b00f	0.6394052
214	0x3e5aafae	0.21356079
215	0xbe95c1bd	-0.29249373
216	0xbe2346f5	-0.15945037
217	0x3eff0eef	0.4981608
218	0xbe72b58f	-0.23702072
219	0xbeb5562d	-0.3541731
220	0x3f671d2a	0.90278876
221	0x3ddb2948	0.10701233
222	0xbe01c495	-0.12672646
223	0xbe7300e4	-0.23730808
224	0xbea23b2b	-0.31685767
225	0x3c9973cb	0.018731972
226	0xbf157e65	-0.5839599
227	0xbd2462c6	-0.04013326
228	0xbeb3e83e	-0.35138124
229	0xbe32bf00	-0.17455673
230	0xbebe03a9	-0.37112167
231	0x3c0bd71c	0.008535173
232	0xbf04b976	-0.5184549
233	0x3d4a5ad6	0.049403034
234	0x3f6acc96	0.91718423
235	0x3eb68aaa	0.35652667
236	0xbf5e5998	-0.8685546
237	0xbde854ce	-0.113443
238	0xbea7e795	-0.3279387
239	0xbeca981c	-0.39569175
240	0x3f14412b	0.5791194
241	0xbf581bff	-0.8441772
242	0xbe967aaa	-0.2939046
243	0x3ed575f8	0.41691566
244	0x3f01401d	0.50488454
245	0x3eb24021	0.3481455
246	0xbdfbc38b	-0.12293156
247	0xbee94cb2	-0.45566326
248	0x3f2127de	0.6295146
249	0xbf8a15af	-1.0787867
250	0xbe9153ae	-0.28384155
251	0x3ec1445c	0.37747467
252	0x3f52786e	0.8221501
253	0xbed3724b	-0.41298136
254	0xbc8cfb60	-0.017209709
255	0xbf1d01cd	-0.6133087

aggregator.1.weights.bias f4 [16]
0	0x3eab4762	0.33452898
1	0xbf01990e	-0.5062417
2	0x3edf3644	0.4359609
3	0xbea629f4	-0.32453883
4	0x3e3cee29	0.18450226
5	0xbd47e1f7	-0.04879948
6	0x3ecc8d2a	0.3995145
7	0x3f170ef3	0.59007186
8	0xbef28f78	-0.47375083
9	0xbea85453	-0.32876834
10	0xbda60552	-0.081064835
11	0xbe88b5b7	-0.26701137
12	0x3dcbf1f9	0.09958262
13	0x3bb5cb07	0.0055478844
14	0x3f456764	0.77110887
15	0x3d9d8426	0.07691221
