kgraph_models/model_node_8000_0.7037564246707356.pt (torch, 728580 bytes, 7 tensors)

usr.weight f4 [1872, 16]
-0.113379024 0.4058183 -0.123185344 0.08341383 -0.2199299 -0.11458096 0.012672983 0.22180785
0.09405987 0.0397333 0.116061725 0.1742138 -0.21260263 0.062118065 0.06401063 -0.17234595
0.09010257 -0.10161375 0.078503765 -0.08656037 0.061906714 0.022398038 0.08495264 0.09351268
-0.08780592 -0.093906194 -0.053635154 -0.039340377 0.03225647 -0.09686758 0.09949212 0.049927212
-0.13587965 0.16820371 -0.32241693 0.20923686 -0.038135283 -0.002177442 -0.17503612 0.049831547
0.2985033 0.3361232 0.04525568 -0.101447426 0.10208397 0.19254026 -0.18585975 0.0819738
-0.21477386 0.09734494 -0.33478653 0.02088991 -0.20665558 0.18021788 -0.42204282 -0.5234947
-0.051338144 -0.1756906 0.092193976 0.35813382 -0.038244966 0.21582685 -0.41405416 0.23079729
-0.049687214 0.030322049 -0.07815016 -0.027860716 -0.36636162 -0.23657112 0.15517904 0.110211305
0.051180303 -0.19677179 0.33690232 0.31979775 -0.208434 -0.08207081 -0.16704386 0.12121951
-0.31875977 0.3131901 -0.35158697 0.08256258 -0.04312366 -0.0469691 -0.040105786 -0.2885416
0.11019467 0.09994015 0.12552428 0.09015996 -0.0017970086 0.08222002 -0.3426945 -0.19142902
-0.41991553 -0.0434412 -0.011844374 0.11959707 0.11889814 0.031367566 -0.122085966 -0.219894
0.058316667 0.19532652 0.052984808 0.16337483 0.16648057 0.10152915 -0.026254779 0.102139704
-0.12903287 0.16932845 -0.1142893 0.16257213 -0.17537062 -0.17520715 -0.08367564 0.08828807
0.10734962 0.13673829 0.18323791 -0.00016718244 -0.040163826 0.103362516 -0.1356425 0.032402944
-0.17620118 0.18251656 -0.15245293 0.15225081 -0.12638468 0.035629597 -0.13270782 -0.24665017
0.20699713 0.16704962 0.10991551 0.11993765 -0.14260387 0.036119167 -0.15890417 -0.037151918
-0.21782814 0.19931495 -0.19344884 0.21835658 -0.093584426 -0.08881615 -0.24840112 -0.17365369
0.080843486 0.07403748 0.18388431 0.30986238 -0.09648431 0.106008254 -0.22738458 -0.119018055
-0.1391586 0.17647706 -0.16180989 0.061976545 0.03147949 -0.017465834 -0.15195234 0.0345395
0.10944591 0.2215582 0.07346177 -0.07225996 0.0645793 0.18306638 -0.20589092 -0.061772503
-0.2520458 0.35528564 -0.37100154 0.1795952 0.10020801 -0.009235423 -0.47468007 -0.1445513
0.18619005 0.024075035 0.16168779 0.049669653 -0.08189036 0.27688536 -0.6334567 -0.043130323
-0.08512661 0.122068115 -0.17010973 0.14353794 -0.34809127 -0.18787873 -0.07510062 0.19541526
0.13228539 0.11601325 0.07686488 0.13249448 -0.24720418 -0.15870172 0.07136607 -0.18300366
-0.1288098 0.13738409 0.01074294 0.15592755 -0.13101472 0.052222308 -0.22435549 -0.15601248
-0.057177912 -0.12312457 0.19604549 0.43926808 -0.4900204 -0.15356743 -0.43566328 0.23801197
0.0011027238 0.028015226 -0.038591743 0.057498936 -0.12561369 -0.14305781 -0.17807083 -0.42362356
-0.2830825 -0.03139898 -0.13438058 0.04401858 -0.024680473 0.048154898 -0.08711518 0.06177124
-0.14813827 0.18338631 -0.13284463 0.16488726 -0.12728201 -0.07116009 -0.13339733 -0.24735703
0.08705025 0.09579655 0.08885889 0.17627865 -0.09043754 0.078207396 -0.21383713 -0.17466545
00000000: 4333 e8bd 6bc7 cf3e 9948 fcbd dfd4 aa3d
00000010: 4e35 61be 6ca9 eabd 58a2 4f3c 9921 633e
00000020: 76a2 c03d 63bf 223d c5b1 ed3d 1a65 323e
00000030: 81b4 59be 836f 7e3d 0118 833d 757b 30be
00000040: b287 b83d df1a d0bd 95c6 a03d 9046 b1bd
00000050: e591 7d3d 177c b73c a6fb ad3d 9383 bf3d
00000060: 97d3 b3bd e451 c0bd 89b0 5bbd 6023 21bd
00000070: 5c1f 043d 8362 c6bd 86c2 cb3d 7a80 4c3d
00000080: 0924 0bbe 983d 2c3e d513 a5be 3042 563e
00000090: be33 1cbd 6ab3 0ebb ab3c 33be 2a1c 4c3d
000000a0: 6dd5 983e 5718 ac3e 055e 393d abc3 cfbd
000000b0: 6711 d13d 4629 453e 0552 3ebe e1e1 a73d
000000c0: aeed 5bbe c95c c73d 2469 abbe 5121 ab3c
000000d0: 859d 53be 098b 383e ff15 d8be c003 06bf
000000e0: f247 52bd 3de8 33be 32d0 bc3d 515d b73e
000000f0: c1a6 1cbd b701 5d3e e8fe d3be 2056 6c3e
00000100: d284 4bbd f265 f83c 310d a0bd 283c e4bc
00000110: c093 bbbe b33f 72be 41e7 1e3e 77b6 e13d
00000120: 70a2 513d 8b7e 49be 767e ac3e 88bc a33e
00000130: b96f 55be be14 a8bd 8c0d 2bbe ef41 f83d
00000140: 7b34 a3be 745a a03e 3503 b4be 9216 a93d
00000150: 6fa2 30bd ac62 40bd f745 24bd b9bb 93be
00000160: bead e13d 6cad cc3d 7089 003e c9a5 b83d
00000170: 9a89 ebba f862 a83d a775 afbe f805 44be
00000180: 2bff d6be 66ef 31bd e80e 42bc 4fef f43d
00000190: de80 f33d 477b 003d 3508 fabd e52b 61be
000001a0: 75dd 6e3d ad03 483e 9906 593d bb4b 273e
000001b0: e279 2a3e 84ee cf3d 4314 d7bc 9f2e d13d
000001c0: 3121 04be 7064 2d3e 8210 eabd 4f79 263e
000001d0: 5b94 33be 8169 33be 225e abbd 60d0 b43d
000001e0: 1eda db3d 1f05 0c3e b8a2 3b3e b24d 2fb9
000001f0: d382 24bd baaf d33d dee5 0abe f3b8 043d
00000200: 156e 34be 9fe5 3a3e 9f1c 1cbe a3e7 1b3e
00000210: fc6a 01be 57f0 113d 8fe4 07be dd91 7cbe
00000220: 0ef7 533e 0e0f 2b3e 621b e13d dfa1 f53d
00000230: c006 12be b1f1 133d c6b7 22be 9c2c 18bd
00000240: 570e 5fbe 3819 4c3e 7417 46be de98 5f3e
00000250: 31a9 bfbd 3ee5 b5bd dd5c 7ebe 46d2 31be
00000260: 4591 a53d f6a0 973d 2b4c 3c3e 48a6 9e3e
00000270: 9199 c5bd db1a d93d 81d7 68be bdbf f3bd
00000280: 987f 0ebe 67b6 343e 7eb1 25be 1edb 7d3d
00000290: a3f0 003d 8214 8fbc 6599 1bbe 4a79 0d3d
000002a0: 2d25 e03d 27e0 623e 2073 963d 08fd 93bd
000002b0: 2742 843d c175 3b3e 12d5 52be 2a05 7dbd
000002c0: 260c 81be 00e8 b53e eaf3 bdbe cee7 373e
000002d0: db39 cd3d 2c50 17bc 4409 f3be 4205 14be
000002e0: 9ba8 3e3e 0239 c53c 7c91 253e 6872 4b3d
000002f0: 22b6 a7bd ebc3 8d3e 382a 22bf 6ca9 30bd
00000300: dc56 aebd d9fe f93d 3f31 2ebe 9cfb 123e
00000310: 0539 b2be 4863 40be 5bce 99bd f01a 483e
00000320: d275 073e 5b98 ed3d 566b 9d3d a2ac 073e
00000330: 1823 7dbe b482 22be 6028 923d 5065 3bbe
00000340: b7e6 03be 6aae 0c3e 2803 303c 79ab 1f3e
00000350: b928 06be 0fe7 553d 72bd 65be bcc1 1fbe
00000360: 6333 6abd bc28 fcbd 26c0 483e bfe7 e03e
00000370: f4e3 fabe c840 1dbe 420f dfbe 69b9 733e
00000380: 4589 903a 3080 e53c 6012 1ebd 0184 6b3d
00000390: e0a0 00be bf7d 12be 3358 36be 30e5 d8be
000003a0: 30f0 90be 389c 00bd 109b 09be d44c 343d
000003b0: b42e cabc 123e 453d 7269 b2bd d703 7d3d
000003c0: 8fb1 17be 9fc9 3b3e 6c08 08be 35d8 283e
000003d0: 3756 02be 62bc 91bd 4f99 08be 294b 7dbe
000003e0: 6747 b23d fb30 c43d a6fb b53d 6482 343e
000003f0: 5137 b9bd 332b a03d 1ff8 5abe 80db 32be

ent.weight f4 [9367, 16]
0.0 0.0 0.0 0.0 0.0 0.0 0.0 0.0
0.0 0.0 0.0 0.0 0.0 0.0 0.0 0.0
-0.014827456 0.057255946 -0.061674636 -0.07141914 0.13951913 -0.10811034 0.07049389 -0.04813751
-0.06766998 -0.048507478 -0.040086087 0.043270722 0.07891767 -0.078343555 -0.08267736 -0.10556157
0.0391653 -0.013194315 0.062194802 0.0271863 -0.045014955 0.027536761 -0.04275408 -0.043582436
0.0017851234 0.039158657 -0.002368716 0.0036862767 0.03465416 0.048560318 -0.03791239 0.0057187793
-1.8867393e-05 1.1296277e-08 3.7591953e-08 4.2758078e-08 3.7659436e-08 -1.8799788e-08 -3.383348e-07 -4.0038387e-08
-1.3386506e-08 -3.4027856e-08 -2.3597941e-08 -2.3395106e-08 3.858457e-08 -3.340688e-08 -5.1302713e-08 -2.6285537e-08
0.0044694385 -0.0011105953 0.01829149 0.010267076 -7.168835e-06 0.0031269756 -0.026621416 0.031812146
-0.0025511375 0.0038406758 -0.007231368 -0.0024356125 -0.0030220982 0.037046548 0.0013276443 0.012498721
-3.9981543e-07 9.492707e-08 -2.8366944e-08 -5.7554246e-07 -5.9209106e-07 -2.6819782e-07 5.7345494e-07 -1.2994557e-08
-3.449024e-07 -7.590884e-08 -1.342974e-07 -1.0331055e-07 9.0543534e-07 2.9721411e-07 2.656986e-07 2.4673335e-07
3.9797097e-08 0.110833265 5.088846e-07 -2.132736e-08 2.7223285e-08 -1.0853783e-07 7.935153e-08 3.8195004e-08
1.7835983e-08 3.7800294e-07 -5.113356e-08 1.8693383e-07 -8.334113e-08 -1.0154687e-09 -8.977833e-07 3.0074662e-07
-0.015971465 0.0011357792 -0.030303014 -0.0011158007 0.059357032 -0.046561383 0.009447657 0.08256448
-0.13440631 0.046635054 0.06797396 0.061130308 0.036258686 -0.05764292 -0.054412648 -0.040995106
-4.097405e-08 -1.5703476e-08 -2.0660583e-08 1.6264455e-08 2.4003254e-08 -2.3656439e-08 1.3168428e-08 -1.861414e-08
-2.7348918e-08 -2.314075e-08 1.0169448e-06 2.637697e-08 1.725662e-08 -1.7787903e-05 4.4892613e-07 2.908212e-08
-2.3120565e-08 2.995842e-08 2.3523787e-08 -4.6282292e-08 -7.774249e-06 2.6208507e-08 -2.9050005e-09 -5.016431e-08
-3.1239683e-08 2.8541479e-08 2.8472044e-08 3.896883e-08 -2.0663753e-08 -1.5551123e-08 -3.1295734e-08 -7.947568e-07
-4.1334502e-08 -2.5531332e-08 -5.2587605e-08 -7.308684e-05 -3.8252725e-08 -3.5743202e-08 -1.6961683e-07 1.1432317e-07
2.2577684e-07 7.2960895e-09 8.3481825e-07 6.809187e-09 2.6044761e-08 -1.9958417e-09 4.76553e-08 0.07933406
2.3718675e-08 -1.0126807e-08 3.62239e-08 1.41291725e-08 1.3890632e-08 -2.2907695e-08 3.259718e-08 1.3418333e-08
-7.0414906e-08 1.9598877e-08 8.311894e-06 -2.7571042e-08 6.694485e-09 7.2909643e-09 1.9933232e-08 2.1125931e-08
-2.741379e-08 -1.0589822e-07 -0.055118978 2.4055385e-08 2.2027114e-08 1.6562955e-08 -1.9444994e-06 1.7707718e-08
-4.471729e-08 -5.0905067e-09 1.812236e-08 1.6031475e-08 -2.192313e-08 2.8479299e-08 1.7664767e-08 1.505529e-08
-0.024796871 -0.04298391 0.103536315 0.035130028 -0.03612395 -0.053286895 -0.079135016 0.061293777
-0.03291092 0.033899363 -0.021427903 0.04634613 -0.027173743 0.019333579 0.023258282 0.006219904
-8.282101e-08 -8.01963e-09 -5.740247e-10 2.3571006e-08 -2.4646502e-08 -2.0584234e-09 2.4653461e-08 3.328605e-07
1.5865709e-07 -9.327557e-08 2.171363e-08 1.0534725e-07 1.8482595e-08 6.406027e-07 -4.586159e-09 9.387396e-09
4.1511585e-06 6.7952743e-07 3.0204496e-06 1.5160505e-06 -1.3941382e-06 -8.5615847e-07 6.3197735e-06 -9.793056e-06
-2.2809973e-06 -3.4279087e-06 2.0091722e-06 -9.775454e-07 2.4779304e-06 -3.0111182e-06 1.5616062e-06 -1.5989568e-06
00000000: 0000 0000 0000 0000 0000 0000 0000 0000
00000010: 0000 0000 0000 0000 0000 0000 0000 0000
00000020: 0000 0000 0000 0000 0000 0000 0000 0000
00000030: 0000 0000 0000 0000 0000 0000 0000 0000
00000040: dcee 72bc 3685 6a3d 8b9e 7cbd 3344 92bd
00000050: 1ade 0e3e f468 ddbd 1a5f 903d d62b 45bd
00000060: 8f96 8abd c7af 46bd 4f31 24bd a43c 313d
00000070: 969f a13d 9672 a0bd bf52 a9bd aa30 d8bd
00000080: cb6b 203d f82c 58bc fabf 7e3d ceb5 de3c
00000090: 9a61 38bd c694 e13c e71e 2fbd 7f83 32bd
000000a0: cdfa e93a d464 203d 763c 1bbb 7695 713b
000000b0: 85f1 0d3d 2fe7 463d 064a 1bbd 9964 bb3b
000000c0: 6b45 9eb7 8d11 4232 ca74 2133 01a5 3733
000000d0: fdbe 2133 2c7d a1b2 61a4 b5b4 acf6 2bb3
000000e0: 7afa 65b2 0626 12b3 6cb4 cab2 62f6 c8b2
000000f0: 2fb8 2533 417b 0fb3 ee57 5cb3 82ca e1b2
00000100: 5e74 923b 6591 91ba 09d8 953c 3d37 283c
00000110: d38b f0b6 f2ed 4c3b 2815 dabc 744d 023d
00000120: fc30 27bb d9b3 7b3b 1df5 ecbb cc9e 1fbb
00000130: 650e 46bb 1fbe 173d 5a04 ae3a 6fc7 4c3c
00000140: 37a6 d6b4 b5da cb33 92ab f3b2 fa7e 1ab5
00000150: 30f0 1eb5 d4fc 8fb4 86ef 1935 ab3e 5fb2
00000160: 062b b9b4 5303 a3b3 6333 10b4 93db ddb3
00000170: 0b0d 7335 cc90 9f34 56a5 8e34 c676 8434
00000180: 5fed 2a33 8dfc e23d 499a 0835 5c33 b7b2
00000190: a3d8 e932 4e15 e9b3 f767 aa33 da0b 2433
000001a0: be35 9932 54f0 ca34 f29d 5bb3 fbb7 4834
000001b0: 45f9 b2b3 a190 8bb0 33ff 70b5 4d76 a134
000001c0: 97d6 82bc 6dde 943a 073e f8bc 0f40 92ba
000001d0: 5c20 733d 26b7 3ebd 58ca 1a3c 9117 a93d
000001e0: cfa1 09be 6604 3f3d ee35 8b3d c663 7a3d
000001f0: fd83 143d fc1a 6cbd ccdf 5ebd 7cea 27bd
00000200: 72fb 2fb3 4fe4 86b2 1a79 b1b2 eab5 8b32
00000210: b72f ce32 0f35 cbb2 5c3b 6232 ede4 9fb2
00000220: e8ec eab2 0cc7 c6b2 f57d 8835 9293 e232
00000230: b53b 9432 3b37 95b7 f003 f134 42d0 f932
00000240: a99a c6b2 a2ab 0033 5b11 ca32 ebc7 46b3
00000250: 256e 02b7 1e21 e132 4fa1 47b1 3e74 57b3
00000260: 652c 06b3 602b f532 b092 f432 af5e 2733
00000270: 1380 b1b2 4895 85b2 066a 06b3 4557 55b5
00000280: c487 31b3 fe4f dbb2 afdc 61b3 3346 99b8
00000290: 514b 24b3 1184 19b3 eb1f 36b4 d481 f533
000002a0: 116d 7234 15b1 fa31 4618 6035 3ef6 e931
000002b0: 09b9 df32 3827 09b1 8ead 4c33 e579 a23d
000002c0: ebbd cb32 2bfa 2db2 9994 1b33 c2bc 7232
000002d0: a5a3 6e32 8ec6 c4b2 fa00 0c33 7486 6632
000002e0: 0137 97b3 635a a832 5073 0b37 5dd5 ecb2
000002f0: 5005 e631 0084 fa31 a439 ab32 6a78 b532
00000300: 907b ebb2 2a6a e3b3 70c4 61bd 5aa2 ce32
00000310: 2336 bd32 5346 8e32 3f7e 02b6 af1b 9832
00000320: 2e0f 40b3 92e8 aeb1 7eab 9b32 96b5 8932
00000330: 7951 bcb2 a4a2 f432 3cbd 9732 ef52 8132
00000340: cf22 cbbc e50f 30bd d90a d43d 81e4 0f3d
00000350: b5f6 13bd 5c43 5abd 8a11 a2bd 2f0f 7b3d
00000360: 9acd 06bd 0fda 0a3d 9289 afbc 71d5 3d3d
00000370: 789b debc 7461 9e3c 2788 be3c 56d0 cb3b
00000380: 55db b1b3 b5c6 09b2 66c9 1db0 3179 ca32
00000390: 3bb6 d3b2 2b74 0db1 89c5 d332 00b4 b234
000003a0: 545b 2a34 c94e c8b3 c784 ba32 433b e233
000003b0: a8c3 9e32 e2f5 2b35 4894 9db1 3446 2132
000003c0: 2e4a 8b36 c568 3635 eeb2 4a36 197b cb35
000003d0: 391e bbb5 c3d2 65b5 710e d436 db4c 24b7
000003e0: 3c13 19b6 060b 66b6 51d5 0636 3434 83b5
000003f0: 854a 2636 9e12 4ab6 6198 d135 bd9b d6b5

rel.weight f4 [61, 16]
0.0 0.0 0.0 0.0 0.0 0.0 0.0 0.0
0.0 0.0 0.0 0.0 0.0 0.0 0.0 0.0
-0.103138335 -0.062721215 0.14801016 -0.30188337 0.046494864 0.6154325 -0.26952383 -0.44267017
-0.3259843 -0.5664357 -0.4424798 0.58976686 -0.32435396 -0.09466069 -1.3135945 0.56504714
-0.12679552 0.5584698 0.023041205 0.49755394 -0.5411621 -0.58874536 0.4382881 0.039379362
-0.33151415 0.11079057 0.16052662 0.83001786 -0.47584763 -0.58563733 0.17088552 0.0005861619
-0.13153675 0.12174337 -0.0787676 -0.42300877 -1.146328 0.92754686 -0.49063927 0.3354475
0.13065825 0.2538268 -0.2848599 0.139493 0.10047242 0.6959037 0.15494935 -0.50143266
0.10890143 0.045122426 0.13480695 -0.0666518 0.088899046 0.11375099 -0.23650897 -0.24039434
0.053141467 -0.1792564 0.32213134 -0.1427357 0.18944566 0.116946384 -0.17377852 -0.31922185
-0.12884288 -1.3612227 -0.33982494 0.10517088 -0.47513872 -0.75141454 -0.65300953 0.25293532
-0.5885693 0.068959676 0.051625803 -1.7229034 -0.4203369 0.4902116 0.33476993 0.54218763
0.00071311113 -0.00066945096 0.0011198402 -0.0019213731 -0.0012340753 -0.0004834395 -0.0009616556 0.0012636755
-0.00038321962 0.00054747076 0.00010030417 0.0014665863 -0.0018924442 -0.00063094386 0.0023201827 -0.0006558913
-0.000738101 0.0009266713 -0.00085285347 0.0019201831 0.0012339806 0.00048323665 0.0009620144 -0.001257762
0.00038352143 -0.0004945242 -0.00010051765 -0.0014485954 0.0008600347 0.0008105982 -0.0023349526 0.0006562235
0.059260745 -0.04549884 0.10696763 -0.07017409 0.1286841 0.04401967 0.014825506 0.049042623
-0.02203093 -0.041839708 -0.06069247 -0.040048826 0.09964485 0.02464853 0.10966172 0.04974569
-0.006854887 -0.045191146 0.0076932884 -0.0071279886 -0.015303428 0.023798574 -0.09992968 0.03402705
-0.011689199 0.05952167 -0.024215296 0.036020022 -0.01047769 -0.036887456 0.024305385 -0.048836205
-0.5210812 0.22431357 -0.047902904 0.24271801 0.13786502 -0.33299077 -0.09293555 0.51209617
0.38853148 0.7412598 0.45044804 0.07428279 0.03790521 0.054444175 -0.7396778 -0.2125353
0.029639013 -0.029071039 -0.0026802733 -0.02700452 0.115572385 0.002845712 0.014603258 -0.0149207115
-0.019087557 -0.02826731 -0.018577918 -0.021133998 0.037984334 -0.003980534 0.035484385 0.027465342
-0.009814584 -0.036351852 0.12966193 -0.055850703 0.049377255 -0.045143146 -0.009750084 0.07886224
-0.14239605 -0.13017538 0.010767147 0.0068454025 0.031710967 -0.03152549 0.08072671 0.029721722
-0.38454264 0.13342255 -0.12034882 0.16941576 -0.18161406 -0.020958358 -0.040943425 -0.10147222
0.06106806 0.15298213 0.18827766 0.0016441552 -0.026312072 0.041094676 -0.078808576 -0.040065743
-0.013433566 0.005403594 -0.008028292 0.013559394 -0.021379517 0.005072888 0.10500233 -0.024868648
-0.050048225 -0.027902275 0.010468003 0.04652354 -0.03484209 -0.014372311 -0.011348223 0.017453227
-0.018504363 0.10889971 -0.03355984 0.04357718 -0.017481225 -0.022064662 -0.04144849 -0.03908283
0.026490444 0.0060391393 0.025279544 -0.013540431 -0.014789965 0.011180414 -0.05451915 -0.004686666
00000000: 0000 0000 0000 0000 0000 0000 0000 0000
00000010: 0000 0000 0000 0000 0000 0000 0000 0000
00000020: 0000 0000 0000 0000 0000 0000 0000 0000
00000030: 0000 0000 0000 0000 0000 0000 0000 0000
00000040: 313a d3bd fb73 80bd fa8f 173e 7590 9abe
00000050: 6671 3e3d fc8c 1d3f 07ff 89be aaa5 e2be
00000060: 6ae7 a6be ee01 11bf b68c e2be f6fa 163f
00000070: b911 a6be 77dd c1bd dd23 a8bf eea6 103f
00000080: afd6 01be e0f7 0e3f e9c0 bc3c 64bf fe3e
00000090: 9989 0abf 04b8 16bf 4c67 e03e 414c 213d
000000a0: 39bc a9be 2be6 e23d 1761 243e 0d7c 543f
000000b0: 4da2 f3be 54ec 15bf 9dfc 2e3e a9a8 193a
000000c0: 92b1 06be 9754 f93d e850 a1bd 9b94 d8be
000000d0: e0ba 92bf b673 6d3f 1235 fbbe c6bf ab3e
000000e0: 47cb 053e 96f5 813e 28d9 91be 41d7 0e3e
000000f0: 7cc4 cd3d bf26 323f 0bab 1e3e e45d 00bf
00000100: b707 df3d 4bd2 383d d50a 0a3e bd80 88bd
00000110: b410 b63d 47f6 e83d 682f 72be ef29 76be
00000120: deaa 593d fd8e 37be 66ee a43e 4f29 12be
00000130: 0bfe 413e 9681 ef3d fff2 31be 0c71 a3be
00000140: 63ef 03be 8c3c aebf 89fd adbe d563 d73d
00000150: 6245 f3be b45c 40bf a22b 27bf bd80 813e
00000160: 7aac 16bf bb3a 8d3d 9475 533d 1988 dcbf
00000170: 6636 d7be 04fd fa3e f766 ab3e cfcc 0a3f
00000180: 14f0 3a3a 187e 2fba 9ac7 923a 95d6 fbba
00000190: b2c0 a1ba 2776 fdb9 9d17 7cba eaa1 a53a
000001a0: deea c8b9 2484 0f3a 645a d238 783a c03a
000001b0: e40b f8ba ed65 25ba 350e 183b 1ff0 2bba
000001c0: 1f7d 41ba dceb 723a 0792 5fba a7ae fb3a
000001d0: 85bd a13a ed5a fd39 b22f 7c3a 7ddb a4ba
000001e0: 6013 c939 f5a2 01ba 01cd d2b8 ccde bdba
000001f0: f473 613a 537e 543a 0106 19bb 6a06 2c3a
00000200: 65bb 723d fe5c 3abd d811 db3d 6fb7 8fbd
00000210: c4c5 033e f84d 343d aee6 723c ebe0 483d
00000220: 357a b4bc 1d60 2bbd ab98 78bd 3d0a 24bd
00000230: 9912 cc3d b7eb c93c 5396 e03d 23c2 4b3d
00000240: f69e e0bb 5a1a 39bd fb17 fc3b e791 e9bb
00000250: 3bbb 7abc 3af5 c23c efa7 ccbd f35f 0b3d
00000260: 0e84 3fbc ffcc 733d 285f c6bc bb89 133d
00000270: 9eaa 2bbc 4d17 17bd 161c c73c 7908 48bd
00000280: 9465 05bf 75b2 653e d635 44bd 128b 783e
00000290: 7d2c 0d3e c47d aabe fe54 bebd bc18 033f
000002a0: 99ed c63e 34c3 3d3f 20a1 e63e 9321 983d
000002b0: 7e42 1b3d db00 5f3d 865b 3dbf dba2 59be
000002c0: 84cd f23c 6326 eebc 86a7 2fbb 9538 ddbc
000002d0: 37b1 ec3d 207f 3a3b 8142 6f3c 0076 74bc
000002e0: 825d 9cbc d890 e7bc b830 98bc 3521 adbc
000002f0: 7695 1b3d 246f 82bb 1358 113d fffe e03c
00000300: 59cd 20bc aee5 14bd 19c6 043e b5c3 64bd
00000310: ce3f 4a3d 05e8 38bd d1be 1fbc 8782 a13d
00000320: 45d0 11be b24c 05be b068 303c 664f e03b
00000330: 5ce3 013d df20 01bd 0c54 a53d f87a f33c
00000340: c6e2 c4be ec9f 083e 7179 f6bd 537b 2d3e
00000350: 09f9 39be ddb0 abbc 4bb4 27bd abd0 cfbd
00000360: 8122 7a3d 59a7 1c3e dccb 403e b280 d73a
00000370: 6a8c d7bc e452 283d 6466 a1bd fa1b 24bd
00000380: 7618 5cbc a210 b13b 1989 03bc 3828 5e3c
00000390: 1924 afbc 783a a63b 760b d73d 56b9 cbbc
000003a0: 5eff 4cbd 5093 e4bc fd81 2b3c 788f 3e3d
000003b0: 94b6 0ebd d779 6bbc e6ed 39bc 12fa 8e3c
000003c0: 7696 97bc d006 df3d 0b76 09bd fc7d 323d
000003d0: c934 8fbc f3c0 b4bc e4c5 29bd 5115 20bd
000003e0: 7d02 d93c f9e3 c53b 0c17 cf3c afd8 5dbc
000003f0: 9c51 72bc 0e2e 373c 794f 5fbd 9b92 99bb

aggregator.0.weights.weight f4 [16, 16]
0.0025920514 0.4045769 -0.32824218 -0.66568345 0.5339193 -0.1805477 0.2582685 -0.2603326
0.32220533 -0.33514452 -0.32955432 -0.21791546 0.084339164 -0.10170712 0.5368284 -0.048808772
0.34322208 0.55713445 -0.38165832 -0.53077245 -0.37343055 0.290751 0.12737979 -0.11406009
0.37024334 -0.40817007 0.1408718 0.04405457 0.21077892 -0.082477376 0.8384832 0.1753314
0.28036296 0.39692968 -0.104472935 -0.42132792 -0.27625275 -0.19484304 0.55812496 0.031630185
0.26833117 -0.47825435 0.1731921 -0.07871828 0.22442879 -0.1630757 -0.037068613 -0.28731936
-0.5759445 -0.43227568 0.35737568 0.29358312 -0.51777685 0.05311908 0.66452223 -0.27161938
-0.16490887 -0.7118093 0.13703534 0.45077896 0.2386439 -0.17325312 -0.3951556 -0.27227655
0.2431739 0.080819726 -0.029524945 -0.5669814 0.038286626 -0.27087715 0.24639492 -0.21325327
-0.12275393 -0.22923976 -0.46391326 0.012901838 0.305074 -0.07058072 -0.39289808 -0.29729587
-0.3161079 -0.3265257 0.058610316 -0.05705667 -0.10329152 -0.099577 0.27831078 -0.22129135
0.118836336 -0.42143428 0.17002219 0.17892314 -0.12578827 -0.15209375 0.07562797 -0.13858727
-0.1251024 -0.037515167 -0.115378335 -0.29148224 -0.12876225 -0.009068697 0.064606644 0.19447137
0.1909021 -0.2332744 0.22443074 0.1451117 0.019226309 -0.22493075 0.21716678 -0.08982374
0.22640164 0.029396407 -0.046439845 -0.16040523 0.11744715 -0.015660144 -0.15993915 0.20004098
0.06116374 -0.04112397 0.34661663 -0.3154098 0.2809208 -0.32398194 0.103274964 -0.23133251
-0.19905217 0.12066309 -0.63468796 -0.18753576 0.35091698 -0.067260966 0.19955185 0.4969442
-0.039611965 -0.3757879 -0.014998363 -0.11118371 -0.524961 -0.44516334 0.34326372 0.03446949
-0.06604249 0.23371918 -0.17952912 0.21087085 -0.562381 0.30541298 0.41113392 -0.0185083
0.6177789 -0.64511365 0.4019018 0.44345483 0.13278057 -0.22416478 0.21311991 -0.005746608
0.4401739 0.058642678 0.16181204 0.27612284 -0.10712454 0.5381154 -0.5034059 -0.016451739
0.1631324 -0.030023007 -0.052092254 -0.30153427 -0.10953931 0.6340239 0.045168307 0.3336034
0.34198597 0.3157957 0.08457077 0.03087879 0.25862107 -0.35115284 -0.23745503 0.6219939
-0.4846216 0.31045094 -0.3526943 -0.05334531 -0.07414375 0.1745337 0.068371065 0.20908256
-0.3549231 -0.010504642 -0.122253396 0.1702624 0.3721483 -0.016799541 0.7358142 -0.25469226
-0.6982409 -0.6734983 0.495845 0.51423657 0.1196429 -0.5332991 -0.4698653 -0.11768956
0.06539521 0.33449748 -0.3054033 -0.2910864 -0.088998444 0.055876028 0.3990903 -0.39403138
0.43134916 -0.3887607 0.1760429 0.3979909 0.11677979 -0.27724394 0.2735095 -0.016782222
0.07118439 0.23276514 -0.017745389 -0.47981673 -0.042463284 0.028435182 0.41885495 -0.24804269
0.1000601 -0.6679582 0.19125786 0.24443248 0.10900827 -0.2241176 -0.098739855 -0.5210906
0.7249792 0.47297075 -0.4008627 -0.36230996 0.13769706 0.3111735 0.12625012 0.28956345
-0.34280697 -0.09219201 0.69492096 0.024198348 0.6941441 -0.49430698 -0.21350293 -0.54691523
00000000: 68df 293b b424 cf3e 5c0f a8be 3b6a 2abf
00000010: efae 083f 7fe1 38be c53b 843e 514a 85be
00000020: 19f8 a43e 1098 abbe 58bb a8be 3b25 5fbe
00000030: 03ba ac3d d34b d0bd 966d 093f b5eb 47bd
00000040: ceba af3e 5da0 0e3f b868 c3be b4e0 07bf
00000050: 4a32 bfbe 51dd 943e d96f 023e 5698 e9bd
00000060: 8990 bd3e abfb d0be b240 103e 9172 343d
00000070: 6ed6 573e e6e9 a8bd d6a6 563f 138a 333e
00000080: bc8b 8f3e 5e3a cb3e e8f5 d5bd 4bb8 d7be
00000090: 0071 8dbe ef84 47be 47e1 0e3f a78e 013d
000000a0: b462 893e c1dd f4be 4559 313e 0d37 a1bd
000000b0: a9d0 653e 51fd 26be 42d5 17bd 861b 93be
000000c0: 1971 13bf 3d53 ddbe f2f9 b63e 8750 963e
000000d0: 068d 04bf 6493 593d 211e 2a3f b211 8bbe
000000e0: dfdd 28be 2239 36bf fe52 0c3e 80cc e63e
000000f0: 115f 743e 4469 31be d651 cabe d567 8bbe
00000100: 9402 793e d084 a53d 4cde f1bc b125 11bf
00000110: 70d2 1c3d 69b0 8abe f34e 7c3e 115f 5abe
00000120: 6a66 fbbd d4bd 6abe 0a86 edbe 3b62 533c
00000130: a932 9c3e a08c 90bd f029 c9be 2a37 98be
00000140: e5d8 a1be 602e a7be 5f11 703d 41b4 69bd
00000150: 818a d3bd 07ef cbbd c07e 8e3e 339a 62be
00000160: 7760 f33d 3cc6 d7be 4c1a 2e3e a137 373e
00000170: a4ce 00be 77be 1bbe d6e2 9a3d d2e9 0dbe
00000180: d81a 00be 81a9 19bd 7a4b ecbd 293d 95be
00000190: 40da 03be df94 14bc 7d50 843d 8123 473e
000001a0: d77b 433e 7cdf 6ebe 2cd1 653e 2998 143e
000001b0: 7e80 9d3c 3f54 66be f860 5e3e 82f5 b7bd
000001c0: d5d5 673e bcd0 f03c b537 3ebd 4541 24be
000001d0: 2288 f03d b449 80bc 17c7 23be 8bd7 4c3e
000001e0: d486 7a3d 9c71 28bd bc77 b13e 657d a1be
000001f0: dad4 8f3e f6e0 a5be d381 d33d 6ee2 6cbe
00000200: 55d4 4bbe 361e f73d e97a 22bf 6009 40be
00000210: 64ab b33e 1ec0 89bd 5257 4c3e 786f fe3e
00000220: 2840 22bd 4667 c0be b2bb 75bc 49b4 e3bd
00000230: d863 06bf 73ec e3be 43c0 af3e e12f 0d3d
00000240: 4941 87bd 1554 6f3e 7bd6 37be 87ee 573e
00000250: 34f8 0fbf 175f 9c3e 2580 d23e b89e 97bc
00000260: c226 1e3f 2b26 25bf 13c6 cd3e 830c e33e
00000270: a1f7 073e 748b 65be 1b3c 5a3e 0b4e bcbb
00000280: 795e e13e 4e33 703d 0eb2 253e f95f 8d3e
00000290: 1c64 dbbd eec1 093f 36df 00bf ccc5 86bc
000002a0: 2e0c 273e cff2 f5bc b05e 55bd b362 9abe
000002b0: 2556 e0bd 644f 223f 6702 393d 11ce aa3e
000002c0: c918 af3e f9af a13e 7133 ad3d 84f5 fc3c
000002d0: fb69 843e 4eca b3be 6927 73be fe3a 1f3f
000002e0: 5320 f8be 6df3 9e3e 5994 b4be 9d80 5abd
000002f0: aed8 97bd f6b8 323e 2106 8c3d bd19 563e
00000300: 7bb8 b5be a91b 2cbc fd5f fabd 4459 2e3e
00000310: 398a be3e 319f 89bc 525e 3c3f 0667 82be
00000320: eabf 32bf 626a 2cbf 65df fd3e 02a5 033f
00000330: 5607 f53d 4a86 08bf 2f92 f0be 3907 f1bd
00000340: eded 853d 4143 ab3e d25d 9cbe 4709 95be
00000350: d144 b6bd 43de 643d 9055 cc3e 7bbe c9be
00000360: ccd9 dc3e a40b c7be 9744 343e 77c5 cb3e
00000370: 3e2a ef3d ebf2 8dbe 7009 8c3e df7a 89bc
00000380: 1fc9 913d fc59 6e3e c75e 91bc 8aaa f5be
00000390: fbed 2dbd e6f0 e83c 2874 d63e e7fe 7dbe
000003a0: 4fec cc3d 4fff 2abf 1ad9 433e 824c 7a3e
000003b0: ba3f df3d 167f 65be 1f38 cabd 3266 05bf
000003c0: 3d98 393f 3929 f23e e03d cdbe b180 b9be
000003d0: 7500 0d3e 2252 9f3e b647 013e a941 943e
000003e0: 6584 afbe 2acf bcbd 57e6 313f 9d3b c63c
000003f0: 6eb3 313f ce15 fdbe 83a0 5abe a302 0cbf

aggregator.0.weights.bias f4 [16]
0.115530245 0.05275845 -0.06728867 0.123930275 0.1106714 -0.002843822 -0.19508559 0.00046834123
0.120923005 0.029553175 0.6891482 0.56975925 -0.025383469 -0.055845656 -0.039632425 0.11016656
00000000: 1f9b ec3d 3f19 583d a4ce 89bd 28cf fd3d
00000010: b0a7 e23d 6a5f 3abb 84c4 47be b28b f539
00000020: 7ba6 f73d 8019 f23c 046c 303f bedb 113f
00000030: fef0 cfbc 6abe 64bd 9c55 22bd 019f e13d

aggregator.1.weights.weight f4 [16, 16]
-0.3771083 -0.08718333 -0.37384045 -0.55055064 -0.16573223 -0.17004286 -0.24208163 -0.3528608
0.14171553 -0.14931928 0.3888766 0.5498593 -0.6065428 -0.2540374 -0.4048017 -0.25300303
0.17247768 0.26609495 0.42107117 0.19913667 0.14196041 0.20187987 0.07202428 0.04801798
-0.25371656 0.4060943 -0.53080696 -0.5789194 0.0756997 0.39752665 0.30312997 0.31525335
0.043761507 -0.36316854 -0.39048225 -0.38946432 0.24273172 -0.2162894 -0.0570426 -0.19574764
-0.23315649 -0.5751823 0.15091807 0.54289365 -0.44905147 -0.30554694 -0.48416096 -0.060841985
0.20376532 0.081790715 0.3557947 0.4703408 0.3763477 0.1743766 0.09947499 0.1171306
-0.12307146 0.43184996 -0.45257682 -0.4828709 0.28840098 0.2871453 0.408892 -0.07645881
-0.67703503 -0.491212 -0.062309735 0.10299974 -0.2882389 -0.2402446 0.028469037 -0.32790035
-0.35960183 0.061024014 0.14887212 0.27643907 -0.7886259 -0.38164052 -0.14125238 -0.09135777
-0.08605721 -0.015931662 -0.09650775 -0.42332667 -0.43468305 0.122193664 0.089359805 -0.18316303
0.45273137 0.1417454 -0.09660098 0.29286644 0.019330857 0.018080724 -0.24685305 -0.27572042
0.2785086 -0.07059613 -0.3619111 -0.56229746 0.071889795 -0.24247096 -0.2756439 -0.20498337
-0.23339368 -0.38931635 0.4180452 0.57096654 -0.68054897 -0.28241375 -0.26837218 -0.13304523
-0.14164354 -0.014028175 -0.053331792 0.24975182 -0.2026011 0.12300216 -0.13119891 -0.17077918
-0.29402944 0.35722625 0.7466766 0.17233284 -0.33985364 -0.06995665 -0.338411 -0.75212246
0.34569752 0.45652905 -0.100615606 0.18386415 -0.26668933 0.23405507 0.13983503 -0.2876627
0.43538728 0.45536852 -0.17444545 -0.3927177 0.2302079 0.39464986 0.29363978 -0.42216212
0.11879984 0.39243522 -0.08137749 0.56991357 -0.20195268 0.14889248 0.059337296 -0.2942676
-0.21631771 0.32994223 -0.1986201 -0.5295883 0.22355199 0.53234047 0.07048947 -0.35980725
0.31525397 0.06624649 0.22581151 0.704662 0.3962476 0.34728265 0.08832282 -0.100509755
-0.16817163 0.3503523 -0.29424107 -0.14674096 0.53734195 0.019546904 0.6444692 -0.11209351
-0.058049835 0.58324075 -0.035812035 -0.36461008 -0.2755638 -0.1961144 0.033462107 0.14760344
0.19948088 0.12879077 -0.15656865 0.021194026 0.23846251 0.07783261 -0.07803964 0.8903382
-0.6325571 -0.51948476 -0.4922197 0.24366376 -0.25355947 0.16796248 -0.26555958 -0.13555193
-0.40430054 -0.10132574 0.21351266 0.1304162 0.24458958 -0.4070332 -0.3185394 -0.07763841
-0.4989746 -0.29340473 -0.1048717 0.66021705 -0.2731124 0.3340264 0.21180332 -0.13318235
-0.11689472 0.41527152 -0.27226827 -0.30238262 0.6396497 0.15463111 -0.1293277 -0.19085956
-0.30610195 -0.11328417 -0.5607854 -0.13289587 -0.31421348 -0.24301764 -0.15999113 -0.015823781
-0.46502322 -0.083273426 0.7040739 0.26611575 -0.72836566 -0.115926005 -0.23480962 -0.38818726
0.423736 -0.42036688 -0.18695408 0.27886558 0.20283812 0.1547572 -0.050309245 -0.2270404
0.31678325 -0.7426206 -0.1656326 0.26362416 0.48449352 -0.29407525 -0.029730389 -0.3595047
00000000: 5714 c1be 2c8d b2bd 0468 bfbe e3f0 0cbf
00000010: b6b5 29be b71f 2ebe 3fe4 77be 2caa b4be
00000020: e01d 113e 27e7 18be d51a c73e 94c3 0c3f
00000030: 6446 1bbf 3111 82be 2b42 cfbe 9d89 81be
00000040: fd9d 303e 993d 883e a496 d73e 7cea 4b3e
00000050: 125e 113e 99b9 4e3e 7781 933d 80ae 443d
00000060: 23e7 81be 98eb cf3e f7e2 07bf 1034 14bf
00000070: 7208 9b3d 9d88 cb3e da33 9b3e e368 a13e
00000080: 443f 333d 3af1 b9be 4aed c7be de67 c7be
00000090: aa8e 783e f87a 5dbe 80a5 69bd 1272 48be
000000a0: 93c0 6ebe 263f 13bf 448a 1a3e 14fb 0a3f
000000b0: 13ea e5be a670 9cbe f2e3 f7be 7235 79bd
000000c0: dba7 503e e481 a73d b92a b63e 82d0 f03e
000000d0: a5b0 c03e c88f 323e 8bb9 cb3d 2be2 ef3d
000000e0: e40c fcbd 701b dd3e 26b8 e7be db3a f7be
000000f0: 4ba9 933e b504 933e 4b5a d13e 7096 9cbd
00000100: 2b52 2dbf 2480 fbbe 7e38 7fbd 87f1 d23d
00000110: 0d94 93be ae02 76be e637 e93c 8ee2 a7be
00000120: bb1d b8be 51f4 793d ef71 183e 6c89 8d3e
00000130: 63e3 49bf 6366 c3be 77a4 10be c819 bbbd
00000140: c33e b0bd 1e83 82bc dba5 c5bd 46be d8be
00000150: c78e debe ac40 fa3d 4602 b73d 178f 3bbe
00000160: 68cc e73e b525 113e bcd6 c5bd 97f2 953e
00000170: bf5b 9e3c 071e 943c 0cc7 7cbe 3a2b 8dbe
00000180: ae98 8e3e b494 90bd 694c b9be baf2 0fbf
00000190: f53a 933d 4f4a 78be 3221 8dbe 29e7 51be
000001a0: c1fe 6ebe 7954 c7be 050a d63e dd2a 123f
000001b0: 7538 2ebf 8998 90be 1468 89be 023d 08be
000001c0: 010b 11be 6ed6 65bc 7072 5abd f1be 7f3e
000001d0: aa76 4fbe 8ee8 fb3d 0259 06be bde0 2ebe
000001e0: 078b 96be 5ce6 b63e 3326 3f3f 0578 303e
000001f0: 4c01 aebe 6f45 8fbd 3544 adbe 198b 40bf
00000200: 44ff b03e 2dbe e93e 8e0f cebd e246 3c3e
00000210: 818b 88be 22ac 6f3e ea30 0f3e 8748 93be
00000220: 15eb de3e 1026 e93e d4a1 32be 4b12 c9be
00000230: 9fbb 6b3e 8c0f ca3e f457 963e a225 d8be
00000240: 554d f33d 45ed c83e 3ea9 a6bd dbe5 113f
00000250: afcc 4ebe 4577 183e aa0b 733d 3eaa 96be
00000260: 6482 5dbe 30ee a83e 1163 4bbe 1993 07bf
00000270: d0ea 643e 7747 083f c95c 903d a838 b8be
00000280: f868 a13e 3dac 873d 223b 673e bb64 343f
00000290: f7e0 ca3e 08cf b13e 98e2 b43d 0fd8 cdbd
000002a0: 2f35 2cbe 6061 b33e c4a6 96be 4343 16be
000002b0: 3e8f 093f d420 a03c effb 243f 4891 e5bd
000002c0: aac5 6dbd 444f 153f a4af 12bd 2cae babe
000002d0: b316 8dbe 37d2 48be 900f 093d 5b25 173e
000002e0: b744 4c3e bae1 033e 8853 20be 189f ad3c
000002f0: 842f 743e b466 9f3d 3fd3 9fbd 34ed 633f
00000300: 43ef 21bf f4fc 04bf 3804 fcbe fe82 793e
00000310: 8cd2 81be 5bfe 2b3e 6df7 87be 20ce 0abe
00000320: 7b00 cfbe df83 cfbd 10a3 5a3e d38b 053e
00000330: b175 7a3e a866 d0be 9917 a3be e300 9fbd
00000340: 9979 ffbe 2539 96be f9c6 d6bd fc03 293f
00000350: 63d5 8bbe 8205 ab3e f8e2 583e f460 08be
00000360: 8066 efbd 789e d43e bf66 8bbe e5d1 9abe
00000370: 15c0 233f 9e57 1e3e 7b6e 04be b070 43be
00000380: 65b9 9cbe 8801 e8bd a28f 0fbf db15 08be
00000390: 97e0 a0be 9ed9 78be b7d4 23be e0a0 81bc
000003a0: 8617 eebe 428b aabd 303e 343f 5340 883e
000003b0: 2c76 3abf 9d6a edbd ef71 70be 7bc0 c6be
000003c0: edf3 d83e 543a d7be e470 3fbe 78c7 8e3e
000003d0: ccb4 4f3e ac78 1e3e 1111 4ebd 477d 68be
000003e0: 6a31 a23e 621c 3ebf 989b 29be bff9 863e
000003f0: 890f f83e 0891 96be 258d f3bc 0011 b8be

aggregator.1.weights.bias f4 [16]
0.2663768 -0.37938678 0.36142614 -0.22080536 0.029895874 -0.10381203 0.34917238 0.45749986
-0.43900254 -0.32809764 0.02795393 -0.11733383 -0.06806271 -0.06839368 0.67713326 0.05018597
00000000: 8a62 883e fc3e c2be d90c b93e cd1a 62be
00000010: 31e8 f43c 679b d4bd b9c6 b23e 6c3d ea3e
00000020: f1c4 e0be 6afc a7be a4ff e43c b84c f0bd
00000030: 7664 8bbd fc11 8cbd 9b58 2d3f ce8f 4d3d
